{"format": "graph-model", "generatedBy": "2.3.0", "convertedBy": "TensorFlow.js Converter v2.3.0", "userDefinedMetadata": {"signature": {"inputs": {"input_1:0": {"name": "input_1:0", "dtype": "DT_FLOAT", "tensorShape": {"dim": [{"size": "-1"}, {"size": "128"}, {"size": "128"}, {"size": "3"}]}}}, "outputs": {"Identity:0": {"name": "Identity:0", "dtype": "DT_FLOAT", "tensorShape": {"dim": [{"size": "-1"}, {"size": "896"}, {"size": "5"}]}}}}}, "modelTopology": {"node": [{"name": "unknown_123", "op": "Const", "attr": {"value": {"tensor": {"dtype": "DT_FLOAT", "tensorShape": {"dim": [{"size": "3"}, {"size": "3"}, {"size": "88"}, {"size": "2"}]}}}, "dtype": {"type": "DT_FLOAT"}}}, {"name": "unknown_124", "op": "Const", "attr": {"value": {"tensor": {"dtype": "DT_FLOAT", "tensorShape": {"dim": [{"size": "2"}]}}}, "dtype": {"type": "DT_FLOAT"}}}, {"name": "StatefulPartitionedCall/functional_3/reshape/strided_slice/stack", "op": "Const", "attr": {"value": {"tensor": {"dtype": "DT_INT32", "tensorShape": {"dim": [{"size": "1"}]}}}, "dtype": {"type": "DT_INT32"}}}, {"name": "StatefulPartitionedCall/functional_3/reshape/strided_slice/stack_1", "op": "Const", "attr": {"dtype": {"type": "DT_INT32"}, "value": {"tensor": {"dtype": "DT_INT32", "tensorShape": {"dim": [{"size": "1"}]}}}}}, {"name": "StatefulPartitionedCall/functional_3/reshape/strided_slice/stack_2", "op": "Const", "attr": {"value": {"tensor": {"dtype": "DT_INT32", "tensorShape": {"dim": [{"size": "1"}]}}}, "dtype": {"type": "DT_INT32"}}}, {"name": "StatefulPartitionedCall/functional_3/reshape/Reshape/shape/1", "op": "Const", "attr": {"dtype": {"type": "DT_INT32"}, "value": {"tensor": {"dtype": "DT_INT32", "tensorShape": {}}}}}, {"name": "StatefulPartitionedCall/functional_3/reshape/Reshape/shape/2", "op": "Const", "attr": {"dtype": {"type": "DT_INT32"}, "value": {"tensor": {"dtype": "DT_INT32", "tensorShape": {}}}}}, {"name": "unknown_121", "op": "Const", "attr": {"dtype": {"type": "DT_FLOAT"}, "value": {"tensor": {"dtype": "DT_FLOAT", "tensorShape": {"dim": [{"size": "3"}, {"size": "3"}, {"size": "96"}, {"size": "6"}]}}}}}, {"name": "unknown_122", "op": "Const", "attr": {"value": {"tensor": {"dtype": "DT_FLOAT", "tensorShape": {"dim": [{"size": "6"}]}}}, "dtype": {"type": "DT_FLOAT"}}}, {"name": "StatefulPartitionedCall/functional_3/reshape_1/strided_slice/stack", "op": "Const", "attr": {"dtype": {"type": "DT_INT32"}, "value": {"tensor": {"dtype": "DT_INT32", "tensorShape": {"dim": [{"size": "1"}]}}}}}, {"name": "StatefulPartitionedCall/functional_3/reshape_1/strided_slice/stack_1", "op": "Const", "attr": {"dtype": {"type": "DT_INT32"}, "value": {"tensor": {"dtype": "DT_INT32", "tensorShape": {"dim": [{"size": "1"}]}}}}}, {"name": "StatefulPartitionedCall/functional_3/reshape_1/strided_slice/stack_2", "op": "Const", "attr": {"value": {"tensor": {"dtype": "DT_INT32", "tensorShape": {"dim": [{"size": "1"}]}}}, "dtype": {"type": "DT_INT32"}}}, {"name": "StatefulPartitionedCall/functional_3/reshape_1/Reshape/shape/1", "op": "Const", "attr": {"dtype": {"type": "DT_INT32"}, "value": {"tensor": {"dtype": "DT_INT32", "tensorShape": {}}}}}, {"name": "StatefulPartitionedCall/functional_3/reshape_1/Reshape/shape/2", "op": "Const", "attr": {"value": {"tensor": {"dtype": "DT_INT32", "tensorShape": {}}}, "dtype": {"type": "DT_INT32"}}}, {"name": "StatefulPartitionedCall/functional_3/tf_op_layer_concat_11/concat_11/axis", "op": "Const", "attr": {"dtype": {"type": "DT_INT32"}, "value": {"tensor": {"dtype": "DT_INT32", "tensorShape": {}}}}}, {"name": "unknown_119", "op": "Const", "attr": {"dtype": {"type": "DT_FLOAT"}, "value": {"tensor": {"dtype": "DT_FLOAT", "tensorShape": {"dim": [{"size": "3"}, {"size": "3"}, {"size": "88"}, {"size": "8"}]}}}}}, {"name": "unknown_120", "op": "Const", "attr": {"dtype": {"type": "DT_FLOAT"}, "value": {"tensor": {"dtype": "DT_FLOAT", "tensorShape": {"dim": [{"size": "8"}]}}}}}, {"name": "StatefulPartitionedCall/functional_3/reshape_2/strided_slice/stack", "op": "Const", "attr": {"value": {"tensor": {"dtype": "DT_INT32", "tensorShape": {"dim": [{"size": "1"}]}}}, "dtype": {"type": "DT_INT32"}}}, {"name": "StatefulPartitionedCall/functional_3/reshape_2/strided_slice/stack_1", "op": "Const", "attr": {"value": {"tensor": {"dtype": "DT_INT32", "tensorShape": {"dim": [{"size": "1"}]}}}, "dtype": {"type": "DT_INT32"}}}, {"name": "StatefulPartitionedCall/functional_3/reshape_2/strided_slice/stack_2", "op": "Const", "attr": {"value": {"tensor": {"dtype": "DT_INT32", "tensorShape": {"dim": [{"size": "1"}]}}}, "dtype": {"type": "DT_INT32"}}}, {"name": "StatefulPartitionedCall/functional_3/reshape_2/Reshape/shape/1", "op": "Const", "attr": {"value": {"tensor": {"dtype": "DT_INT32", "tensorShape": {}}}, "dtype": {"type": "DT_INT32"}}}, {"name": "StatefulPartitionedCall/functional_3/reshape_2/Reshape/shape/2", "op": "Const", "attr": {"value": {"tensor": {"dtype": "DT_INT32", "tensorShape": {}}}, "dtype": {"type": "DT_INT32"}}}, {"name": "unknown_110", "op": "Const", "attr": {"value": {"tensor": {"dtype": "DT_FLOAT", "tensorShape": {"dim": [{"size": "3"}, {"size": "3"}, {"size": "96"}, {"size": "1"}]}}}, "dtype": {"type": "DT_FLOAT"}}}, {"name": "unknown_103", "op": "Const", "attr": {"value": {"tensor": {"dtype": "DT_FLOAT", "tensorShape": {"dim": [{"size": "3"}, {"size": "3"}, {"size": "96"}, {"size": "1"}]}}}, "dtype": {"type": "DT_FLOAT"}}}, {"name": "unknown_96", "op": "Const", "attr": {"value": {"tensor": {"dtype": "DT_FLOAT", "tensorShape": {"dim": [{"size": "3"}, {"size": "3"}, {"size": "96"}, {"size": "1"}]}}}, "dtype": {"type": "DT_FLOAT"}}}, {"name": "unknown_89", "op": "Const", "attr": {"value": {"tensor": {"dtype": "DT_FLOAT", "tensorShape": {"dim": [{"size": "3"}, {"size": "3"}, {"size": "96"}, {"size": "1"}]}}}, "dtype": {"type": "DT_FLOAT"}}}, {"name": "unknown_82", "op": "Const", "attr": {"dtype": {"type": "DT_FLOAT"}, "value": {"tensor": {"dtype": "DT_FLOAT", "tensorShape": {"dim": [{"size": "3"}, {"size": "3"}, {"size": "88"}, {"size": "1"}]}}}}}, {"name": "unknown_75", "op": "Const", "attr": {"value": {"tensor": {"dtype": "DT_FLOAT", "tensorShape": {"dim": [{"size": "3"}, {"size": "3"}, {"size": "80"}, {"size": "1"}]}}}, "dtype": {"type": "DT_FLOAT"}}}, {"name": "unknown_68", "op": "Const", "attr": {"dtype": {"type": "DT_FLOAT"}, "value": {"tensor": {"dtype": "DT_FLOAT", "tensorShape": {"dim": [{"size": "3"}, {"size": "3"}, {"size": "72"}, {"size": "1"}]}}}}}, {"name": "unknown_61", "op": "Const", "attr": {"dtype": {"type": "DT_FLOAT"}, "value": {"tensor": {"dtype": "DT_FLOAT", "tensorShape": {"dim": [{"size": "3"}, {"size": "3"}, {"size": "64"}, {"size": "1"}]}}}}}, {"name": "unknown_54", "op": "Const", "attr": {"dtype": {"type": "DT_FLOAT"}, "value": {"tensor": {"dtype": "DT_FLOAT", "tensorShape": {"dim": [{"size": "3"}, {"size": "3"}, {"size": "56"}, {"size": "1"}]}}}}}, {"name": "unknown_47", "op": "Const", "attr": {"value": {"tensor": {"dtype": "DT_FLOAT", "tensorShape": {"dim": [{"size": "3"}, {"size": "3"}, {"size": "48"}, {"size": "1"}]}}}, "dtype": {"type": "DT_FLOAT"}}}, {"name": "unknown_40", "op": "Const", "attr": {"value": {"tensor": {"dtype": "DT_FLOAT", "tensorShape": {"dim": [{"size": "3"}, {"size": "3"}, {"size": "40"}, {"size": "1"}]}}}, "dtype": {"type": "DT_FLOAT"}}}, {"name": "unknown_33", "op": "Const", "attr": {"dtype": {"type": "DT_FLOAT"}, "value": {"tensor": {"dtype": "DT_FLOAT", "tensorShape": {"dim": [{"size": "3"}, {"size": "3"}, {"size": "36"}, {"size": "1"}]}}}}}, {"name": "unknown_26", "op": "Const", "attr": {"value": {"tensor": {"dtype": "DT_FLOAT", "tensorShape": {"dim": [{"size": "3"}, {"size": "3"}, {"size": "32"}, {"size": "1"}]}}}, "dtype": {"type": "DT_FLOAT"}}}, {"name": "unknown_19", "op": "Const", "attr": {"dtype": {"type": "DT_FLOAT"}, "value": {"tensor": {"dtype": "DT_FLOAT", "tensorShape": {"dim": [{"size": "3"}, {"size": "3"}, {"size": "28"}, {"size": "1"}]}}}}}, {"name": "unknown_12", "op": "Const", "attr": {"value": {"tensor": {"dtype": "DT_FLOAT", "tensorShape": {"dim": [{"size": "3"}, {"size": "3"}, {"size": "24"}, {"size": "1"}]}}}, "dtype": {"type": "DT_FLOAT"}}}, {"name": "unknown_5", "op": "Const", "attr": {"value": {"tensor": {"dtype": "DT_FLOAT", "tensorShape": {"dim": [{"size": "3"}, {"size": "3"}, {"size": "24"}, {"size": "1"}]}}}, "dtype": {"type": "DT_FLOAT"}}}, {"name": "StatefulPartitionedCall/functional_3/tf_op_layer_strided_slice/strided_slice/begin", "op": "Const", "attr": {"dtype": {"type": "DT_INT32"}, "value": {"tensor": {"dtype": "DT_INT32", "tensorShape": {"dim": [{"size": "2"}]}}}}}, {"name": "StatefulPartitionedCall/functional_3/tf_op_layer_strided_slice/strided_slice/end", "op": "Const", "attr": {"dtype": {"type": "DT_INT32"}, "value": {"tensor": {"dtype": "DT_INT32", "tensorShape": {"dim": [{"size": "2"}]}}}}}, {"name": "StatefulPartitionedCall/functional_3/tf_op_layer_strided_slice/strided_slice/strides", "op": "Const", "attr": {"dtype": {"type": "DT_INT32"}, "value": {"tensor": {"dtype": "DT_INT32", "tensorShape": {"dim": [{"size": "2"}]}}}}}, {"name": "StatefulPartitionedCall/functional_3/tf_op_layer_concat/concat/axis", "op": "Const", "attr": {"value": {"tensor": {"dtype": "DT_INT32", "tensorShape": {}}}, "dtype": {"type": "DT_INT32"}}}, {"name": "StatefulPartitionedCall/functional_3/tf_op_layer_strided_slice_1/strided_slice_1/begin", "op": "Const", "attr": {"value": {"tensor": {"dtype": "DT_INT32", "tensorShape": {"dim": [{"size": "2"}]}}}, "dtype": {"type": "DT_INT32"}}}, {"name": "StatefulPartitionedCall/functional_3/tf_op_layer_strided_slice_1/strided_slice_1/end", "op": "Const", "attr": {"value": {"tensor": {"dtype": "DT_INT32", "tensorShape": {"dim": [{"size": "2"}]}}}, "dtype": {"type": "DT_INT32"}}}, {"name": "StatefulPartitionedCall/functional_3/tf_op_layer_strided_slice_1/strided_slice_1/strides", "op": "Const", "attr": {"dtype": {"type": "DT_INT32"}, "value": {"tensor": {"dtype": "DT_INT32", "tensorShape": {"dim": [{"size": "2"}]}}}}}, {"name": "StatefulPartitionedCall/functional_3/tf_op_layer_concat_1/concat_1/axis", "op": "Const", "attr": {"value": {"tensor": {"dtype": "DT_INT32", "tensorShape": {}}}, "dtype": {"type": "DT_INT32"}}}, {"name": "StatefulPartitionedCall/functional_3/tf_op_layer_strided_slice_2/strided_slice_2/begin", "op": "Const", "attr": {"value": {"tensor": {"dtype": "DT_INT32", "tensorShape": {"dim": [{"size": "2"}]}}}, "dtype": {"type": "DT_INT32"}}}, {"name": "StatefulPartitionedCall/functional_3/tf_op_layer_strided_slice_2/strided_slice_2/end", "op": "Const", "attr": {"value": {"tensor": {"dtype": "DT_INT32", "tensorShape": {"dim": [{"size": "2"}]}}}, "dtype": {"type": "DT_INT32"}}}, {"name": "StatefulPartitionedCall/functional_3/tf_op_layer_strided_slice_2/strided_slice_2/strides", "op": "Const", "attr": {"value": {"tensor": {"dtype": "DT_INT32", "tensorShape": {"dim": [{"size": "2"}]}}}, "dtype": {"type": "DT_INT32"}}}, {"name": "StatefulPartitionedCall/functional_3/tf_op_layer_concat_2/concat_2/axis", "op": "Const", "attr": {"dtype": {"type": "DT_INT32"}, "value": {"tensor": {"dtype": "DT_INT32", "tensorShape": {}}}}}, {"name": "StatefulPartitionedCall/functional_3/tf_op_layer_strided_slice_3/strided_slice_3/begin", "op": "Const", "attr": {"dtype": {"type": "DT_INT32"}, "value": {"tensor": {"dtype": "DT_INT32", "tensorShape": {"dim": [{"size": "2"}]}}}}}, {"name": "StatefulPartitionedCall/functional_3/tf_op_layer_strided_slice_3/strided_slice_3/end", "op": "Const", "attr": {"dtype": {"type": "DT_INT32"}, "value": {"tensor": {"dtype": "DT_INT32", "tensorShape": {"dim": [{"size": "2"}]}}}}}, {"name": "StatefulPartitionedCall/functional_3/tf_op_layer_strided_slice_3/strided_slice_3/strides", "op": "Const", "attr": {"value": {"tensor": {"dtype": "DT_INT32", "tensorShape": {"dim": [{"size": "2"}]}}}, "dtype": {"type": "DT_INT32"}}}, {"name": "StatefulPartitionedCall/functional_3/tf_op_layer_concat_3/concat_3/axis", "op": "Const", "attr": {"value": {"tensor": {"dtype": "DT_INT32", "tensorShape": {}}}, "dtype": {"type": "DT_INT32"}}}, {"name": "StatefulPartitionedCall/functional_3/tf_op_layer_strided_slice_4/strided_slice_4/begin", "op": "Const", "attr": {"value": {"tensor": {"dtype": "DT_INT32", "tensorShape": {"dim": [{"size": "2"}]}}}, "dtype": {"type": "DT_INT32"}}}, {"name": "StatefulPartitionedCall/functional_3/tf_op_layer_strided_slice_4/strided_slice_4/end", "op": "Const", "attr": {"value": {"tensor": {"dtype": "DT_INT32", "tensorShape": {"dim": [{"size": "2"}]}}}, "dtype": {"type": "DT_INT32"}}}, {"name": "StatefulPartitionedCall/functional_3/tf_op_layer_strided_slice_4/strided_slice_4/strides", "op": "Const", "attr": {"dtype": {"type": "DT_INT32"}, "value": {"tensor": {"dtype": "DT_INT32", "tensorShape": {"dim": [{"size": "2"}]}}}}}, {"name": "StatefulPartitionedCall/functional_3/tf_op_layer_concat_4/concat_4/axis", "op": "Const", "attr": {"dtype": {"type": "DT_INT32"}, "value": {"tensor": {"dtype": "DT_INT32", "tensorShape": {}}}}}, {"name": "StatefulPartitionedCall/functional_3/tf_op_layer_strided_slice_5/strided_slice_5/begin", "op": "Const", "attr": {"dtype": {"type": "DT_INT32"}, "value": {"tensor": {"dtype": "DT_INT32", "tensorShape": {"dim": [{"size": "2"}]}}}}}, {"name": "StatefulPartitionedCall/functional_3/tf_op_layer_strided_slice_5/strided_slice_5/end", "op": "Const", "attr": {"dtype": {"type": "DT_INT32"}, "value": {"tensor": {"dtype": "DT_INT32", "tensorShape": {"dim": [{"size": "2"}]}}}}}, {"name": "StatefulPartitionedCall/functional_3/tf_op_layer_strided_slice_5/strided_slice_5/strides", "op": "Const", "attr": {"dtype": {"type": "DT_INT32"}, "value": {"tensor": {"dtype": "DT_INT32", "tensorShape": {"dim": [{"size": "2"}]}}}}}, {"name": "StatefulPartitionedCall/functional_3/tf_op_layer_concat_5/concat_5/axis", "op": "Const", "attr": {"value": {"tensor": {"dtype": "DT_INT32", "tensorShape": {}}}, "dtype": {"type": "DT_INT32"}}}, {"name": "StatefulPartitionedCall/functional_3/tf_op_layer_strided_slice_6/strided_slice_6/begin", "op": "Const", "attr": {"value": {"tensor": {"dtype": "DT_INT32", "tensorShape": {"dim": [{"size": "2"}]}}}, "dtype": {"type": "DT_INT32"}}}, {"name": "StatefulPartitionedCall/functional_3/tf_op_layer_strided_slice_6/strided_slice_6/end", "op": "Const", "attr": {"value": {"tensor": {"dtype": "DT_INT32", "tensorShape": {"dim": [{"size": "2"}]}}}, "dtype": {"type": "DT_INT32"}}}, {"name": "StatefulPartitionedCall/functional_3/tf_op_layer_strided_slice_6/strided_slice_6/strides", "op": "Const", "attr": {"dtype": {"type": "DT_INT32"}, "value": {"tensor": {"dtype": "DT_INT32", "tensorShape": {"dim": [{"size": "2"}]}}}}}, {"name": "StatefulPartitionedCall/functional_3/tf_op_layer_concat_6/concat_6/axis", "op": "Const", "attr": {"dtype": {"type": "DT_INT32"}, "value": {"tensor": {"dtype": "DT_INT32", "tensorShape": {}}}}}, {"name": "StatefulPartitionedCall/functional_3/tf_op_layer_strided_slice_7/strided_slice_7/begin", "op": "Const", "attr": {"dtype": {"type": "DT_INT32"}, "value": {"tensor": {"dtype": "DT_INT32", "tensorShape": {"dim": [{"size": "2"}]}}}}}, {"name": "StatefulPartitionedCall/functional_3/tf_op_layer_strided_slice_7/strided_slice_7/end", "op": "Const", "attr": {"dtype": {"type": "DT_INT32"}, "value": {"tensor": {"dtype": "DT_INT32", "tensorShape": {"dim": [{"size": "2"}]}}}}}, {"name": "StatefulPartitionedCall/functional_3/tf_op_layer_strided_slice_7/strided_slice_7/strides", "op": "Const", "attr": {"dtype": {"type": "DT_INT32"}, "value": {"tensor": {"dtype": "DT_INT32", "tensorShape": {"dim": [{"size": "2"}]}}}}}, {"name": "StatefulPartitionedCall/functional_3/tf_op_layer_concat_7/concat_7/axis", "op": "Const", "attr": {"value": {"tensor": {"dtype": "DT_INT32", "tensorShape": {}}}, "dtype": {"type": "DT_INT32"}}}, {"name": "StatefulPartitionedCall/functional_3/tf_op_layer_strided_slice_8/strided_slice_8/begin", "op": "Const", "attr": {"value": {"tensor": {"dtype": "DT_INT32", "tensorShape": {"dim": [{"size": "2"}]}}}, "dtype": {"type": "DT_INT32"}}}, {"name": "StatefulPartitionedCall/functional_3/tf_op_layer_strided_slice_8/strided_slice_8/end", "op": "Const", "attr": {"value": {"tensor": {"dtype": "DT_INT32", "tensorShape": {"dim": [{"size": "2"}]}}}, "dtype": {"type": "DT_INT32"}}}, {"name": "StatefulPartitionedCall/functional_3/tf_op_layer_strided_slice_8/strided_slice_8/strides", "op": "Const", "attr": {"dtype": {"type": "DT_INT32"}, "value": {"tensor": {"dtype": "DT_INT32", "tensorShape": {"dim": [{"size": "2"}]}}}}}, {"name": "StatefulPartitionedCall/functional_3/tf_op_layer_concat_8/concat_8/axis", "op": "Const", "attr": {"value": {"tensor": {"dtype": "DT_INT32", "tensorShape": {}}}, "dtype": {"type": "DT_INT32"}}}, {"name": "StatefulPartitionedCall/functional_3/tf_op_layer_strided_slice_9/strided_slice_9/begin", "op": "Const", "attr": {"dtype": {"type": "DT_INT32"}, "value": {"tensor": {"dtype": "DT_INT32", "tensorShape": {"dim": [{"size": "2"}]}}}}}, {"name": "StatefulPartitionedCall/functional_3/tf_op_layer_strided_slice_9/strided_slice_9/end", "op": "Const", "attr": {"value": {"tensor": {"dtype": "DT_INT32", "tensorShape": {"dim": [{"size": "2"}]}}}, "dtype": {"type": "DT_INT32"}}}, {"name": "StatefulPartitionedCall/functional_3/tf_op_layer_strided_slice_9/strided_slice_9/strides", "op": "Const", "attr": {"dtype": {"type": "DT_INT32"}, "value": {"tensor": {"dtype": "DT_INT32", "tensorShape": {"dim": [{"size": "2"}]}}}}}, {"name": "StatefulPartitionedCall/functional_3/tf_op_layer_concat_9/concat_9/axis", "op": "Const", "attr": {"value": {"tensor": {"dtype": "DT_INT32", "tensorShape": {}}}, "dtype": {"type": "DT_INT32"}}}, {"name": "StatefulPartitionedCall/functional_3/tf_op_layer_strided_slice_10/strided_slice_10/begin", "op": "Const", "attr": {"dtype": {"type": "DT_INT32"}, "value": {"tensor": {"dtype": "DT_INT32", "tensorShape": {"dim": [{"size": "2"}]}}}}}, {"name": "StatefulPartitionedCall/functional_3/tf_op_layer_strided_slice_10/strided_slice_10/end", "op": "Const", "attr": {"value": {"tensor": {"dtype": "DT_INT32", "tensorShape": {"dim": [{"size": "2"}]}}}, "dtype": {"type": "DT_INT32"}}}, {"name": "StatefulPartitionedCall/functional_3/tf_op_layer_strided_slice_10/strided_slice_10/strides", "op": "Const", "attr": {"dtype": {"type": "DT_INT32"}, "value": {"tensor": {"dtype": "DT_INT32", "tensorShape": {"dim": [{"size": "2"}]}}}}}, {"name": "StatefulPartitionedCall/functional_3/tf_op_layer_concat_10/concat_10/axis", "op": "Const", "attr": {"dtype": {"type": "DT_INT32"}, "value": {"tensor": {"dtype": "DT_INT32", "tensorShape": {}}}}}, {"name": "unknown_117", "op": "Const", "attr": {"dtype": {"type": "DT_FLOAT"}, "value": {"tensor": {"dtype": "DT_FLOAT", "tensorShape": {"dim": [{"size": "3"}, {"size": "3"}, {"size": "96"}, {"size": "24"}]}}}}}, {"name": "unknown_118", "op": "Const", "attr": {"value": {"tensor": {"dtype": "DT_FLOAT", "tensorShape": {"dim": [{"size": "24"}]}}}, "dtype": {"type": "DT_FLOAT"}}}, {"name": "StatefulPartitionedCall/functional_3/reshape_3/strided_slice/stack", "op": "Const", "attr": {"dtype": {"type": "DT_INT32"}, "value": {"tensor": {"dtype": "DT_INT32", "tensorShape": {"dim": [{"size": "1"}]}}}}}, {"name": "StatefulPartitionedCall/functional_3/reshape_3/strided_slice/stack_1", "op": "Const", "attr": {"dtype": {"type": "DT_INT32"}, "value": {"tensor": {"dtype": "DT_INT32", "tensorShape": {"dim": [{"size": "1"}]}}}}}, {"name": "StatefulPartitionedCall/functional_3/reshape_3/strided_slice/stack_2", "op": "Const", "attr": {"dtype": {"type": "DT_INT32"}, "value": {"tensor": {"dtype": "DT_INT32", "tensorShape": {"dim": [{"size": "1"}]}}}}}, {"name": "StatefulPartitionedCall/functional_3/reshape_3/Reshape/shape/1", "op": "Const", "attr": {"dtype": {"type": "DT_INT32"}, "value": {"tensor": {"dtype": "DT_INT32", "tensorShape": {}}}}}, {"name": "StatefulPartitionedCall/functional_3/reshape_3/Reshape/shape/2", "op": "Const", "attr": {"dtype": {"type": "DT_INT32"}, "value": {"tensor": {"dtype": "DT_INT32", "tensorShape": {}}}}}, {"name": "StatefulPartitionedCall/functional_3/tf_op_layer_concat_12/concat_12/axis", "op": "Const", "attr": {"value": {"tensor": {"dtype": "DT_INT32", "tensorShape": {}}}, "dtype": {"type": "DT_INT32"}}}, {"name": "StatefulPartitionedCall/functional_3/tf_op_layer_concat_13/concat_13/axis", "op": "Const", "attr": {"dtype": {"type": "DT_INT32"}, "value": {"tensor": {"dtype": "DT_INT32", "tensorShape": {}}}}}, {"name": "input_1", "op": "Placeholder", "attr": {"dtype": {"type": "DT_FLOAT"}, "shape": {"shape": {"dim": [{"size": "-1"}, {"size": "128"}, {"size": "128"}, {"size": "3"}]}}}}, {"name": "StatefulPartitionedCall/functional_3/conv2d/Conv2D_weights", "op": "Const", "attr": {"dtype": {"type": "DT_FLOAT"}, "value": {"tensor": {"dtype": "DT_FLOAT", "tensorShape": {"dim": [{"size": "5"}, {"size": "5"}, {"size": "3"}, {"size": "24"}]}}}}}, {"name": "StatefulPartitionedCall/functional_3/conv2d/Conv2D_bn_offset", "op": "Const", "attr": {"value": {"tensor": {"dtype": "DT_FLOAT", "tensorShape": {"dim": [{"size": "24"}]}}}, "dtype": {"type": "DT_FLOAT"}}}, {"name": "StatefulPartitionedCall/functional_3/sequential_15/separable_conv2d_15/separable_conv2d_bn_offset", "op": "Const", "attr": {"dtype": {"type": "DT_FLOAT"}, "value": {"tensor": {"dtype": "DT_FLOAT", "tensorShape": {"dim": [{"size": "96"}]}}}}}, {"name": "StatefulPartitionedCall/functional_3/sequential/separable_conv2d/separable_conv2d_weights", "op": "Const", "attr": {"dtype": {"type": "DT_FLOAT"}, "value": {"tensor": {"dtype": "DT_FLOAT", "tensorShape": {"dim": [{"size": "1"}, {"size": "1"}, {"size": "24"}, {"size": "24"}]}}}}}, {"name": "StatefulPartitionedCall/functional_3/sequential/separable_conv2d/separable_conv2d_bn_offset", "op": "Const", "attr": {"value": {"tensor": {"dtype": "DT_FLOAT", "tensorShape": {"dim": [{"size": "24"}]}}}, "dtype": {"type": "DT_FLOAT"}}}, {"name": "StatefulPartitionedCall/functional_3/sequential_1/separable_conv2d_1/separable_conv2d_weights", "op": "Const", "attr": {"dtype": {"type": "DT_FLOAT"}, "value": {"tensor": {"dtype": "DT_FLOAT", "tensorShape": {"dim": [{"size": "1"}, {"size": "1"}, {"size": "24"}, {"size": "28"}]}}}}}, {"name": "StatefulPartitionedCall/functional_3/sequential_1/separable_conv2d_1/separable_conv2d_bn_offset", "op": "Const", "attr": {"value": {"tensor": {"dtype": "DT_FLOAT", "tensorShape": {"dim": [{"size": "28"}]}}}, "dtype": {"type": "DT_FLOAT"}}}, {"name": "StatefulPartitionedCall/functional_3/sequential_2/separable_conv2d_2/separable_conv2d_weights", "op": "Const", "attr": {"value": {"tensor": {"dtype": "DT_FLOAT", "tensorShape": {"dim": [{"size": "1"}, {"size": "1"}, {"size": "28"}, {"size": "32"}]}}}, "dtype": {"type": "DT_FLOAT"}}}, {"name": "StatefulPartitionedCall/functional_3/sequential_2/separable_conv2d_2/separable_conv2d_bn_offset", "op": "Const", "attr": {"value": {"tensor": {"dtype": "DT_FLOAT", "tensorShape": {"dim": [{"size": "32"}]}}}, "dtype": {"type": "DT_FLOAT"}}}, {"name": "StatefulPartitionedCall/functional_3/sequential_3/separable_conv2d_3/separable_conv2d_weights", "op": "Const", "attr": {"value": {"tensor": {"dtype": "DT_FLOAT", "tensorShape": {"dim": [{"size": "1"}, {"size": "1"}, {"size": "32"}, {"size": "36"}]}}}, "dtype": {"type": "DT_FLOAT"}}}, {"name": "StatefulPartitionedCall/functional_3/sequential_3/separable_conv2d_3/separable_conv2d_bn_offset", "op": "Const", "attr": {"dtype": {"type": "DT_FLOAT"}, "value": {"tensor": {"dtype": "DT_FLOAT", "tensorShape": {"dim": [{"size": "36"}]}}}}}, {"name": "StatefulPartitionedCall/functional_3/sequential_4/separable_conv2d_4/separable_conv2d_weights", "op": "Const", "attr": {"value": {"tensor": {"dtype": "DT_FLOAT", "tensorShape": {"dim": [{"size": "1"}, {"size": "1"}, {"size": "36"}, {"size": "40"}]}}}, "dtype": {"type": "DT_FLOAT"}}}, {"name": "StatefulPartitionedCall/functional_3/sequential_4/separable_conv2d_4/separable_conv2d_bn_offset", "op": "Const", "attr": {"value": {"tensor": {"dtype": "DT_FLOAT", "tensorShape": {"dim": [{"size": "40"}]}}}, "dtype": {"type": "DT_FLOAT"}}}, {"name": "StatefulPartitionedCall/functional_3/sequential_5/separable_conv2d_5/separable_conv2d_weights", "op": "Const", "attr": {"dtype": {"type": "DT_FLOAT"}, "value": {"tensor": {"dtype": "DT_FLOAT", "tensorShape": {"dim": [{"size": "1"}, {"size": "1"}, {"size": "40"}, {"size": "48"}]}}}}}, {"name": "StatefulPartitionedCall/functional_3/sequential_5/separable_conv2d_5/separable_conv2d_bn_offset", "op": "Const", "attr": {"dtype": {"type": "DT_FLOAT"}, "value": {"tensor": {"dtype": "DT_FLOAT", "tensorShape": {"dim": [{"size": "48"}]}}}}}, {"name": "StatefulPartitionedCall/functional_3/sequential_6/separable_conv2d_6/separable_conv2d_weights", "op": "Const", "attr": {"value": {"tensor": {"dtype": "DT_FLOAT", "tensorShape": {"dim": [{"size": "1"}, {"size": "1"}, {"size": "48"}, {"size": "56"}]}}}, "dtype": {"type": "DT_FLOAT"}}}, {"name": "StatefulPartitionedCall/functional_3/sequential_6/separable_conv2d_6/separable_conv2d_bn_offset", "op": "Const", "attr": {"dtype": {"type": "DT_FLOAT"}, "value": {"tensor": {"dtype": "DT_FLOAT", "tensorShape": {"dim": [{"size": "56"}]}}}}}, {"name": "StatefulPartitionedCall/functional_3/sequential_7/separable_conv2d_7/separable_conv2d_weights", "op": "Const", "attr": {"dtype": {"type": "DT_FLOAT"}, "value": {"tensor": {"dtype": "DT_FLOAT", "tensorShape": {"dim": [{"size": "1"}, {"size": "1"}, {"size": "56"}, {"size": "64"}]}}}}}, {"name": "StatefulPartitionedCall/functional_3/sequential_7/separable_conv2d_7/separable_conv2d_bn_offset", "op": "Const", "attr": {"value": {"tensor": {"dtype": "DT_FLOAT", "tensorShape": {"dim": [{"size": "64"}]}}}, "dtype": {"type": "DT_FLOAT"}}}, {"name": "StatefulPartitionedCall/functional_3/sequential_8/separable_conv2d_8/separable_conv2d_weights", "op": "Const", "attr": {"dtype": {"type": "DT_FLOAT"}, "value": {"tensor": {"dtype": "DT_FLOAT", "tensorShape": {"dim": [{"size": "1"}, {"size": "1"}, {"size": "64"}, {"size": "72"}]}}}}}, {"name": "StatefulPartitionedCall/functional_3/sequential_8/separable_conv2d_8/separable_conv2d_bn_offset", "op": "Const", "attr": {"dtype": {"type": "DT_FLOAT"}, "value": {"tensor": {"dtype": "DT_FLOAT", "tensorShape": {"dim": [{"size": "72"}]}}}}}, {"name": "StatefulPartitionedCall/functional_3/sequential_9/separable_conv2d_9/separable_conv2d_weights", "op": "Const", "attr": {"dtype": {"type": "DT_FLOAT"}, "value": {"tensor": {"dtype": "DT_FLOAT", "tensorShape": {"dim": [{"size": "1"}, {"size": "1"}, {"size": "72"}, {"size": "80"}]}}}}}, {"name": "StatefulPartitionedCall/functional_3/sequential_9/separable_conv2d_9/separable_conv2d_bn_offset", "op": "Const", "attr": {"value": {"tensor": {"dtype": "DT_FLOAT", "tensorShape": {"dim": [{"size": "80"}]}}}, "dtype": {"type": "DT_FLOAT"}}}, {"name": "StatefulPartitionedCall/functional_3/sequential_10/separable_conv2d_10/separable_conv2d_weights", "op": "Const", "attr": {"dtype": {"type": "DT_FLOAT"}, "value": {"tensor": {"dtype": "DT_FLOAT", "tensorShape": {"dim": [{"size": "1"}, {"size": "1"}, {"size": "80"}, {"size": "88"}]}}}}}, {"name": "StatefulPartitionedCall/functional_3/sequential_10/separable_conv2d_10/separable_conv2d_bn_offset", "op": "Const", "attr": {"value": {"tensor": {"dtype": "DT_FLOAT", "tensorShape": {"dim": [{"size": "88"}]}}}, "dtype": {"type": "DT_FLOAT"}}}, {"name": "StatefulPartitionedCall/functional_3/sequential_11/separable_conv2d_11/separable_conv2d_weights", "op": "Const", "attr": {"value": {"tensor": {"dtype": "DT_FLOAT", "tensorShape": {"dim": [{"size": "1"}, {"size": "1"}, {"size": "88"}, {"size": "96"}]}}}, "dtype": {"type": "DT_FLOAT"}}}, {"name": "StatefulPartitionedCall/functional_3/sequential_11/separable_conv2d_11/separable_conv2d_bn_offset", "op": "Const", "attr": {"value": {"tensor": {"dtype": "DT_FLOAT", "tensorShape": {"dim": [{"size": "96"}]}}}, "dtype": {"type": "DT_FLOAT"}}}, {"name": "StatefulPartitionedCall/functional_3/sequential_12/separable_conv2d_12/separable_conv2d_weights", "op": "Const", "attr": {"value": {"tensor": {"dtype": "DT_FLOAT", "tensorShape": {"dim": [{"size": "1"}, {"size": "1"}, {"size": "96"}, {"size": "96"}]}}}, "dtype": {"type": "DT_FLOAT"}}}, {"name": "StatefulPartitionedCall/functional_3/sequential_12/separable_conv2d_12/separable_conv2d_bn_offset", "op": "Const", "attr": {"value": {"tensor": {"dtype": "DT_FLOAT", "tensorShape": {"dim": [{"size": "96"}]}}}, "dtype": {"type": "DT_FLOAT"}}}, {"name": "StatefulPartitionedCall/functional_3/sequential_13/separable_conv2d_13/separable_conv2d_weights", "op": "Const", "attr": {"dtype": {"type": "DT_FLOAT"}, "value": {"tensor": {"dtype": "DT_FLOAT", "tensorShape": {"dim": [{"size": "1"}, {"size": "1"}, {"size": "96"}, {"size": "96"}]}}}}}, {"name": "StatefulPartitionedCall/functional_3/sequential_13/separable_conv2d_13/separable_conv2d_bn_offset", "op": "Const", "attr": {"value": {"tensor": {"dtype": "DT_FLOAT", "tensorShape": {"dim": [{"size": "96"}]}}}, "dtype": {"type": "DT_FLOAT"}}}, {"name": "StatefulPartitionedCall/functional_3/sequential_14/separable_conv2d_14/separable_conv2d_weights", "op": "Const", "attr": {"dtype": {"type": "DT_FLOAT"}, "value": {"tensor": {"dtype": "DT_FLOAT", "tensorShape": {"dim": [{"size": "1"}, {"size": "1"}, {"size": "96"}, {"size": "96"}]}}}}}, {"name": "StatefulPartitionedCall/functional_3/sequential_14/separable_conv2d_14/separable_conv2d_bn_offset", "op": "Const", "attr": {"dtype": {"type": "DT_FLOAT"}, "value": {"tensor": {"dtype": "DT_FLOAT", "tensorShape": {"dim": [{"size": "96"}]}}}}}, {"name": "StatefulPartitionedCall/functional_3/sequential_15/separable_conv2d_15/separable_conv2d_weights", "op": "Const", "attr": {"dtype": {"type": "DT_FLOAT"}, "value": {"tensor": {"dtype": "DT_FLOAT", "tensorShape": {"dim": [{"size": "1"}, {"size": "1"}, {"size": "96"}, {"size": "96"}]}}}}}, {"name": "StatefulPartitionedCall/functional_3/activation/Relu", "op": "_FusedConv2D", "input": ["input_1", "StatefulPartitionedCall/functional_3/conv2d/Conv2D_weights", "StatefulPartitionedCall/functional_3/conv2d/Conv2D_bn_offset"], "device": "/device:CPU:0", "attr": {"dilations": {"list": {"i": ["1", "1", "1", "1"]}}, "use_cudnn_on_gpu": {"b": true}, "data_format": {"s": "TkhXQw=="}, "fused_ops": {"list": {"s": ["Qmlhc0FkZA==", "UmVsdQ=="]}}, "num_args": {"i": "1"}, "padding": {"s": "U0FNRQ=="}, "T": {"type": "DT_FLOAT"}, "explicit_paddings": {"list": {}}, "strides": {"list": {"i": ["1", "2", "2", "1"]}}, "epsilon": {"f": 0.0}}}, {"name": "StatefulPartitionedCall/functional_3/sequential/separable_conv2d/separable_conv2d/depthwise", "op": "DepthwiseConv2dNative", "input": ["StatefulPartitionedCall/functional_3/activation/Relu", "unknown_5"], "attr": {"T": {"type": "DT_FLOAT"}, "data_format": {"s": "TkhXQw=="}, "dilations": {"list": {"i": ["1", "1", "1", "1"]}}, "strides": {"list": {"i": ["1", "1", "1", "1"]}}, "explicit_paddings": {"list": {}}, "padding": {"s": "U0FNRQ=="}}}, {"name": "StatefulPartitionedCall/functional_3/sequential/batch_normalization_1/FusedBatchNormV3", "op": "_FusedConv2D", "input": ["StatefulPartitionedCall/functional_3/sequential/separable_conv2d/separable_conv2d/depthwise", "StatefulPartitionedCall/functional_3/sequential/separable_conv2d/separable_conv2d_weights", "StatefulPartitionedCall/functional_3/sequential/separable_conv2d/separable_conv2d_bn_offset"], "device": "/device:CPU:0", "attr": {"use_cudnn_on_gpu": {"b": true}, "explicit_paddings": {"list": {}}, "dilations": {"list": {"i": ["1", "1", "1", "1"]}}, "data_format": {"s": "TkhXQw=="}, "fused_ops": {"list": {"s": ["Qmlhc0FkZA=="]}}, "T": {"type": "DT_FLOAT"}, "strides": {"list": {"i": ["1", "1", "1", "1"]}}, "epsilon": {"f": 0.0}, "padding": {"s": "VkFMSUQ="}, "num_args": {"i": "1"}}}, {"name": "StatefulPartitionedCall/functional_3/add/add", "op": "AddV2", "input": ["StatefulPartitionedCall/functional_3/sequential/batch_normalization_1/FusedBatchNormV3", "StatefulPartitionedCall/functional_3/activation/Relu"], "attr": {"T": {"type": "DT_FLOAT"}}}, {"name": "StatefulPartitionedCall/functional_3/activation_1/Relu", "op": "Relu", "input": ["StatefulPartitionedCall/functional_3/add/add"], "attr": {"T": {"type": "DT_FLOAT"}}}, {"name": "StatefulPartitionedCall/functional_3/sequential_1/separable_conv2d_1/separable_conv2d/depthwise", "op": "DepthwiseConv2dNative", "input": ["StatefulPartitionedCall/functional_3/activation_1/Relu", "unknown_12"], "attr": {"T": {"type": "DT_FLOAT"}, "strides": {"list": {"i": ["1", "1", "1", "1"]}}, "dilations": {"list": {"i": ["1", "1", "1", "1"]}}, "explicit_paddings": {"list": {}}, "data_format": {"s": "TkhXQw=="}, "padding": {"s": "U0FNRQ=="}}}, {"name": "StatefulPartitionedCall/functional_3/tf_op_layer_ZerosLike/ZerosLike", "op": "ZerosLike", "input": ["StatefulPartitionedCall/functional_3/activation_1/Relu"], "attr": {"_cloned": {"b": true}, "T": {"type": "DT_FLOAT"}}}, {"name": "StatefulPartitionedCall/functional_3/sequential_1/batch_normalization_2/FusedBatchNormV3", "op": "_FusedConv2D", "input": ["StatefulPartitionedCall/functional_3/sequential_1/separable_conv2d_1/separable_conv2d/depthwise", "StatefulPartitionedCall/functional_3/sequential_1/separable_conv2d_1/separable_conv2d_weights", "StatefulPartitionedCall/functional_3/sequential_1/separable_conv2d_1/separable_conv2d_bn_offset"], "device": "/device:CPU:0", "attr": {"explicit_paddings": {"list": {}}, "epsilon": {"f": 0.0}, "padding": {"s": "VkFMSUQ="}, "use_cudnn_on_gpu": {"b": true}, "T": {"type": "DT_FLOAT"}, "strides": {"list": {"i": ["1", "1", "1", "1"]}}, "data_format": {"s": "TkhXQw=="}, "fused_ops": {"list": {"s": ["Qmlhc0FkZA=="]}}, "num_args": {"i": "1"}, "dilations": {"list": {"i": ["1", "1", "1", "1"]}}}}, {"name": "StatefulPartitionedCall/functional_3/tf_op_layer_strided_slice/strided_slice", "op": "StridedSlice", "input": ["StatefulPartitionedCall/functional_3/tf_op_layer_ZerosLike/ZerosLike", "StatefulPartitionedCall/functional_3/tf_op_layer_strided_slice/strided_slice/begin", "StatefulPartitionedCall/functional_3/tf_op_layer_strided_slice/strided_slice/end", "StatefulPartitionedCall/functional_3/tf_op_layer_strided_slice/strided_slice/strides"], "attr": {"begin_mask": {"i": "2"}, "new_axis_mask": {"i": "0"}, "_cloned": {"b": true}, "Index": {"type": "DT_INT32"}, "shrink_axis_mask": {"i": "0"}, "T": {"type": "DT_FLOAT"}, "ellipsis_mask": {"i": "1"}, "end_mask": {"i": "0"}}}, {"name": "StatefulPartitionedCall/functional_3/tf_op_layer_concat/concat", "op": "ConcatV2", "input": ["StatefulPartitionedCall/functional_3/activation_1/Relu", "StatefulPartitionedCall/functional_3/tf_op_layer_strided_slice/strided_slice", "StatefulPartitionedCall/functional_3/tf_op_layer_concat/concat/axis"], "attr": {"_cloned": {"b": true}, "T": {"type": "DT_FLOAT"}, "Tidx": {"type": "DT_INT32"}, "N": {"i": "2"}}}, {"name": "StatefulPartitionedCall/functional_3/add_1/add", "op": "AddV2", "input": ["StatefulPartitionedCall/functional_3/sequential_1/batch_normalization_2/FusedBatchNormV3", "StatefulPartitionedCall/functional_3/tf_op_layer_concat/concat"], "attr": {"T": {"type": "DT_FLOAT"}}}, {"name": "StatefulPartitionedCall/functional_3/activation_2/Relu", "op": "Relu", "input": ["StatefulPartitionedCall/functional_3/add_1/add"], "attr": {"T": {"type": "DT_FLOAT"}}}, {"name": "StatefulPartitionedCall/functional_3/sequential_2/separable_conv2d_2/separable_conv2d/depthwise", "op": "DepthwiseConv2dNative", "input": ["StatefulPartitionedCall/functional_3/activation_2/Relu", "unknown_19"], "attr": {"T": {"type": "DT_FLOAT"}, "dilations": {"list": {"i": ["1", "1", "1", "1"]}}, "data_format": {"s": "TkhXQw=="}, "strides": {"list": {"i": ["1", "2", "2", "1"]}}, "padding": {"s": "U0FNRQ=="}, "explicit_paddings": {"list": {}}}}, {"name": "StatefulPartitionedCall/functional_3/max_pooling2d/MaxPool", "op": "MaxPool", "input": ["StatefulPartitionedCall/functional_3/activation_2/Relu"], "attr": {"T": {"type": "DT_FLOAT"}, "ksize": {"list": {"i": ["1", "2", "2", "1"]}}, "padding": {"s": "VkFMSUQ="}, "data_format": {"s": "TkhXQw=="}, "strides": {"list": {"i": ["1", "2", "2", "1"]}}}}, {"name": "StatefulPartitionedCall/functional_3/sequential_2/batch_normalization_3/FusedBatchNormV3", "op": "_FusedConv2D", "input": ["StatefulPartitionedCall/functional_3/sequential_2/separable_conv2d_2/separable_conv2d/depthwise", "StatefulPartitionedCall/functional_3/sequential_2/separable_conv2d_2/separable_conv2d_weights", "StatefulPartitionedCall/functional_3/sequential_2/separable_conv2d_2/separable_conv2d_bn_offset"], "device": "/device:CPU:0", "attr": {"padding": {"s": "VkFMSUQ="}, "use_cudnn_on_gpu": {"b": true}, "explicit_paddings": {"list": {}}, "fused_ops": {"list": {"s": ["Qmlhc0FkZA=="]}}, "strides": {"list": {"i": ["1", "1", "1", "1"]}}, "num_args": {"i": "1"}, "data_format": {"s": "TkhXQw=="}, "epsilon": {"f": 0.0}, "T": {"type": "DT_FLOAT"}, "dilations": {"list": {"i": ["1", "1", "1", "1"]}}}}, {"name": "StatefulPartitionedCall/functional_3/tf_op_layer_ZerosLike_1/ZerosLike_1", "op": "ZerosLike", "input": ["StatefulPartitionedCall/functional_3/max_pooling2d/MaxPool"], "attr": {"T": {"type": "DT_FLOAT"}, "_cloned": {"b": true}}}, {"name": "StatefulPartitionedCall/functional_3/tf_op_layer_strided_slice_1/strided_slice_1", "op": "StridedSlice", "input": ["StatefulPartitionedCall/functional_3/tf_op_layer_ZerosLike_1/ZerosLike_1", "StatefulPartitionedCall/functional_3/tf_op_layer_strided_slice_1/strided_slice_1/begin", "StatefulPartitionedCall/functional_3/tf_op_layer_strided_slice_1/strided_slice_1/end", "StatefulPartitionedCall/functional_3/tf_op_layer_strided_slice_1/strided_slice_1/strides"], "attr": {"begin_mask": {"i": "2"}, "new_axis_mask": {"i": "0"}, "_cloned": {"b": true}, "ellipsis_mask": {"i": "1"}, "end_mask": {"i": "0"}, "Index": {"type": "DT_INT32"}, "T": {"type": "DT_FLOAT"}, "shrink_axis_mask": {"i": "0"}}}, {"name": "StatefulPartitionedCall/functional_3/tf_op_layer_concat_1/concat_1", "op": "ConcatV2", "input": ["StatefulPartitionedCall/functional_3/max_pooling2d/MaxPool", "StatefulPartitionedCall/functional_3/tf_op_layer_strided_slice_1/strided_slice_1", "StatefulPartitionedCall/functional_3/tf_op_layer_concat_1/concat_1/axis"], "attr": {"_cloned": {"b": true}, "N": {"i": "2"}, "Tidx": {"type": "DT_INT32"}, "T": {"type": "DT_FLOAT"}}}, {"name": "StatefulPartitionedCall/functional_3/add_2/add", "op": "AddV2", "input": ["StatefulPartitionedCall/functional_3/sequential_2/batch_normalization_3/FusedBatchNormV3", "StatefulPartitionedCall/functional_3/tf_op_layer_concat_1/concat_1"], "attr": {"T": {"type": "DT_FLOAT"}}}, {"name": "StatefulPartitionedCall/functional_3/activation_3/Relu", "op": "Relu", "input": ["StatefulPartitionedCall/functional_3/add_2/add"], "attr": {"T": {"type": "DT_FLOAT"}}}, {"name": "StatefulPartitionedCall/functional_3/sequential_3/separable_conv2d_3/separable_conv2d/depthwise", "op": "DepthwiseConv2dNative", "input": ["StatefulPartitionedCall/functional_3/activation_3/Relu", "unknown_26"], "attr": {"padding": {"s": "U0FNRQ=="}, "explicit_paddings": {"list": {}}, "strides": {"list": {"i": ["1", "1", "1", "1"]}}, "dilations": {"list": {"i": ["1", "1", "1", "1"]}}, "data_format": {"s": "TkhXQw=="}, "T": {"type": "DT_FLOAT"}}}, {"name": "StatefulPartitionedCall/functional_3/tf_op_layer_ZerosLike_2/ZerosLike_2", "op": "ZerosLike", "input": ["StatefulPartitionedCall/functional_3/activation_3/Relu"], "attr": {"_cloned": {"b": true}, "T": {"type": "DT_FLOAT"}}}, {"name": "StatefulPartitionedCall/functional_3/sequential_3/batch_normalization_4/FusedBatchNormV3", "op": "_FusedConv2D", "input": ["StatefulPartitionedCall/functional_3/sequential_3/separable_conv2d_3/separable_conv2d/depthwise", "StatefulPartitionedCall/functional_3/sequential_3/separable_conv2d_3/separable_conv2d_weights", "StatefulPartitionedCall/functional_3/sequential_3/separable_conv2d_3/separable_conv2d_bn_offset"], "device": "/device:CPU:0", "attr": {"epsilon": {"f": 0.0}, "data_format": {"s": "TkhXQw=="}, "T": {"type": "DT_FLOAT"}, "num_args": {"i": "1"}, "strides": {"list": {"i": ["1", "1", "1", "1"]}}, "padding": {"s": "VkFMSUQ="}, "fused_ops": {"list": {"s": ["Qmlhc0FkZA=="]}}, "use_cudnn_on_gpu": {"b": true}, "explicit_paddings": {"list": {}}, "dilations": {"list": {"i": ["1", "1", "1", "1"]}}}}, {"name": "StatefulPartitionedCall/functional_3/tf_op_layer_strided_slice_2/strided_slice_2", "op": "StridedSlice", "input": ["StatefulPartitionedCall/functional_3/tf_op_layer_ZerosLike_2/ZerosLike_2", "StatefulPartitionedCall/functional_3/tf_op_layer_strided_slice_2/strided_slice_2/begin", "StatefulPartitionedCall/functional_3/tf_op_layer_strided_slice_2/strided_slice_2/end", "StatefulPartitionedCall/functional_3/tf_op_layer_strided_slice_2/strided_slice_2/strides"], "attr": {"shrink_axis_mask": {"i": "0"}, "Index": {"type": "DT_INT32"}, "new_axis_mask": {"i": "0"}, "begin_mask": {"i": "2"}, "T": {"type": "DT_FLOAT"}, "_cloned": {"b": true}, "ellipsis_mask": {"i": "1"}, "end_mask": {"i": "0"}}}, {"name": "StatefulPartitionedCall/functional_3/tf_op_layer_concat_2/concat_2", "op": "ConcatV2", "input": ["StatefulPartitionedCall/functional_3/activation_3/Relu", "StatefulPartitionedCall/functional_3/tf_op_layer_strided_slice_2/strided_slice_2", "StatefulPartitionedCall/functional_3/tf_op_layer_concat_2/concat_2/axis"], "attr": {"T": {"type": "DT_FLOAT"}, "_cloned": {"b": true}, "Tidx": {"type": "DT_INT32"}, "N": {"i": "2"}}}, {"name": "StatefulPartitionedCall/functional_3/add_3/add", "op": "AddV2", "input": ["StatefulPartitionedCall/functional_3/sequential_3/batch_normalization_4/FusedBatchNormV3", "StatefulPartitionedCall/functional_3/tf_op_layer_concat_2/concat_2"], "attr": {"T": {"type": "DT_FLOAT"}}}, {"name": "StatefulPartitionedCall/functional_3/activation_4/Relu", "op": "Relu", "input": ["StatefulPartitionedCall/functional_3/add_3/add"], "attr": {"T": {"type": "DT_FLOAT"}}}, {"name": "StatefulPartitionedCall/functional_3/sequential_4/separable_conv2d_4/separable_conv2d/depthwise", "op": "DepthwiseConv2dNative", "input": ["StatefulPartitionedCall/functional_3/activation_4/Relu", "unknown_33"], "attr": {"explicit_paddings": {"list": {}}, "dilations": {"list": {"i": ["1", "1", "1", "1"]}}, "data_format": {"s": "TkhXQw=="}, "T": {"type": "DT_FLOAT"}, "strides": {"list": {"i": ["1", "1", "1", "1"]}}, "padding": {"s": "U0FNRQ=="}}}, {"name": "StatefulPartitionedCall/functional_3/tf_op_layer_ZerosLike_3/ZerosLike_3", "op": "ZerosLike", "input": ["StatefulPartitionedCall/functional_3/activation_4/Relu"], "attr": {"_cloned": {"b": true}, "T": {"type": "DT_FLOAT"}}}, {"name": "StatefulPartitionedCall/functional_3/sequential_4/batch_normalization_5/FusedBatchNormV3", "op": "_FusedConv2D", "input": ["StatefulPartitionedCall/functional_3/sequential_4/separable_conv2d_4/separable_conv2d/depthwise", "StatefulPartitionedCall/functional_3/sequential_4/separable_conv2d_4/separable_conv2d_weights", "StatefulPartitionedCall/functional_3/sequential_4/separable_conv2d_4/separable_conv2d_bn_offset"], "device": "/device:CPU:0", "attr": {"padding": {"s": "VkFMSUQ="}, "use_cudnn_on_gpu": {"b": true}, "num_args": {"i": "1"}, "fused_ops": {"list": {"s": ["Qmlhc0FkZA=="]}}, "T": {"type": "DT_FLOAT"}, "explicit_paddings": {"list": {}}, "strides": {"list": {"i": ["1", "1", "1", "1"]}}, "data_format": {"s": "TkhXQw=="}, "dilations": {"list": {"i": ["1", "1", "1", "1"]}}, "epsilon": {"f": 0.0}}}, {"name": "StatefulPartitionedCall/functional_3/tf_op_layer_strided_slice_3/strided_slice_3", "op": "StridedSlice", "input": ["StatefulPartitionedCall/functional_3/tf_op_layer_ZerosLike_3/ZerosLike_3", "StatefulPartitionedCall/functional_3/tf_op_layer_strided_slice_3/strided_slice_3/begin", "StatefulPartitionedCall/functional_3/tf_op_layer_strided_slice_3/strided_slice_3/end", "StatefulPartitionedCall/functional_3/tf_op_layer_strided_slice_3/strided_slice_3/strides"], "attr": {"begin_mask": {"i": "2"}, "T": {"type": "DT_FLOAT"}, "new_axis_mask": {"i": "0"}, "end_mask": {"i": "0"}, "ellipsis_mask": {"i": "1"}, "_cloned": {"b": true}, "Index": {"type": "DT_INT32"}, "shrink_axis_mask": {"i": "0"}}}, {"name": "StatefulPartitionedCall/functional_3/tf_op_layer_concat_3/concat_3", "op": "ConcatV2", "input": ["StatefulPartitionedCall/functional_3/activation_4/Relu", "StatefulPartitionedCall/functional_3/tf_op_layer_strided_slice_3/strided_slice_3", "StatefulPartitionedCall/functional_3/tf_op_layer_concat_3/concat_3/axis"], "attr": {"_cloned": {"b": true}, "Tidx": {"type": "DT_INT32"}, "N": {"i": "2"}, "T": {"type": "DT_FLOAT"}}}, {"name": "StatefulPartitionedCall/functional_3/add_4/add", "op": "AddV2", "input": ["StatefulPartitionedCall/functional_3/sequential_4/batch_normalization_5/FusedBatchNormV3", "StatefulPartitionedCall/functional_3/tf_op_layer_concat_3/concat_3"], "attr": {"T": {"type": "DT_FLOAT"}}}, {"name": "StatefulPartitionedCall/functional_3/activation_5/Relu", "op": "Relu", "input": ["StatefulPartitionedCall/functional_3/add_4/add"], "attr": {"T": {"type": "DT_FLOAT"}}}, {"name": "StatefulPartitionedCall/functional_3/sequential_5/separable_conv2d_5/separable_conv2d/depthwise", "op": "DepthwiseConv2dNative", "input": ["StatefulPartitionedCall/functional_3/activation_5/Relu", "unknown_40"], "attr": {"data_format": {"s": "TkhXQw=="}, "strides": {"list": {"i": ["1", "2", "2", "1"]}}, "dilations": {"list": {"i": ["1", "1", "1", "1"]}}, "T": {"type": "DT_FLOAT"}, "explicit_paddings": {"list": {}}, "padding": {"s": "U0FNRQ=="}}}, {"name": "StatefulPartitionedCall/functional_3/max_pooling2d_1/MaxPool", "op": "MaxPool", "input": ["StatefulPartitionedCall/functional_3/activation_5/Relu"], "attr": {"strides": {"list": {"i": ["1", "2", "2", "1"]}}, "T": {"type": "DT_FLOAT"}, "data_format": {"s": "TkhXQw=="}, "ksize": {"list": {"i": ["1", "2", "2", "1"]}}, "padding": {"s": "VkFMSUQ="}}}, {"name": "StatefulPartitionedCall/functional_3/sequential_5/batch_normalization_6/FusedBatchNormV3", "op": "_FusedConv2D", "input": ["StatefulPartitionedCall/functional_3/sequential_5/separable_conv2d_5/separable_conv2d/depthwise", "StatefulPartitionedCall/functional_3/sequential_5/separable_conv2d_5/separable_conv2d_weights", "StatefulPartitionedCall/functional_3/sequential_5/separable_conv2d_5/separable_conv2d_bn_offset"], "device": "/device:CPU:0", "attr": {"fused_ops": {"list": {"s": ["Qmlhc0FkZA=="]}}, "num_args": {"i": "1"}, "padding": {"s": "VkFMSUQ="}, "strides": {"list": {"i": ["1", "1", "1", "1"]}}, "data_format": {"s": "TkhXQw=="}, "T": {"type": "DT_FLOAT"}, "explicit_paddings": {"list": {}}, "dilations": {"list": {"i": ["1", "1", "1", "1"]}}, "use_cudnn_on_gpu": {"b": true}, "epsilon": {"f": 0.0}}}, {"name": "StatefulPartitionedCall/functional_3/tf_op_layer_ZerosLike_4/ZerosLike_4", "op": "ZerosLike", "input": ["StatefulPartitionedCall/functional_3/max_pooling2d_1/MaxPool"], "attr": {"T": {"type": "DT_FLOAT"}, "_cloned": {"b": true}}}, {"name": "StatefulPartitionedCall/functional_3/tf_op_layer_strided_slice_4/strided_slice_4", "op": "StridedSlice", "input": ["StatefulPartitionedCall/functional_3/tf_op_layer_ZerosLike_4/ZerosLike_4", "StatefulPartitionedCall/functional_3/tf_op_layer_strided_slice_4/strided_slice_4/begin", "StatefulPartitionedCall/functional_3/tf_op_layer_strided_slice_4/strided_slice_4/end", "StatefulPartitionedCall/functional_3/tf_op_layer_strided_slice_4/strided_slice_4/strides"], "attr": {"shrink_axis_mask": {"i": "0"}, "end_mask": {"i": "0"}, "new_axis_mask": {"i": "0"}, "ellipsis_mask": {"i": "1"}, "_cloned": {"b": true}, "begin_mask": {"i": "2"}, "T": {"type": "DT_FLOAT"}, "Index": {"type": "DT_INT32"}}}, {"name": "StatefulPartitionedCall/functional_3/tf_op_layer_concat_4/concat_4", "op": "ConcatV2", "input": ["StatefulPartitionedCall/functional_3/max_pooling2d_1/MaxPool", "StatefulPartitionedCall/functional_3/tf_op_layer_strided_slice_4/strided_slice_4", "StatefulPartitionedCall/functional_3/tf_op_layer_concat_4/concat_4/axis"], "attr": {"Tidx": {"type": "DT_INT32"}, "_cloned": {"b": true}, "N": {"i": "2"}, "T": {"type": "DT_FLOAT"}}}, {"name": "StatefulPartitionedCall/functional_3/add_5/add", "op": "AddV2", "input": ["StatefulPartitionedCall/functional_3/sequential_5/batch_normalization_6/FusedBatchNormV3", "StatefulPartitionedCall/functional_3/tf_op_layer_concat_4/concat_4"], "attr": {"T": {"type": "DT_FLOAT"}}}, {"name": "StatefulPartitionedCall/functional_3/activation_6/Relu", "op": "Relu", "input": ["StatefulPartitionedCall/functional_3/add_5/add"], "attr": {"T": {"type": "DT_FLOAT"}}}, {"name": "StatefulPartitionedCall/functional_3/sequential_6/separable_conv2d_6/separable_conv2d/depthwise", "op": "DepthwiseConv2dNative", "input": ["StatefulPartitionedCall/functional_3/activation_6/Relu", "unknown_47"], "attr": {"T": {"type": "DT_FLOAT"}, "padding": {"s": "U0FNRQ=="}, "dilations": {"list": {"i": ["1", "1", "1", "1"]}}, "strides": {"list": {"i": ["1", "1", "1", "1"]}}, "data_format": {"s": "TkhXQw=="}, "explicit_paddings": {"list": {}}}}, {"name": "StatefulPartitionedCall/functional_3/tf_op_layer_ZerosLike_5/ZerosLike_5", "op": "ZerosLike", "input": ["StatefulPartitionedCall/functional_3/activation_6/Relu"], "attr": {"T": {"type": "DT_FLOAT"}, "_cloned": {"b": true}}}, {"name": "StatefulPartitionedCall/functional_3/sequential_6/batch_normalization_7/FusedBatchNormV3", "op": "_FusedConv2D", "input": ["StatefulPartitionedCall/functional_3/sequential_6/separable_conv2d_6/separable_conv2d/depthwise", "StatefulPartitionedCall/functional_3/sequential_6/separable_conv2d_6/separable_conv2d_weights", "StatefulPartitionedCall/functional_3/sequential_6/separable_conv2d_6/separable_conv2d_bn_offset"], "device": "/device:CPU:0", "attr": {"data_format": {"s": "TkhXQw=="}, "num_args": {"i": "1"}, "padding": {"s": "VkFMSUQ="}, "explicit_paddings": {"list": {}}, "use_cudnn_on_gpu": {"b": true}, "T": {"type": "DT_FLOAT"}, "fused_ops": {"list": {"s": ["Qmlhc0FkZA=="]}}, "epsilon": {"f": 0.0}, "strides": {"list": {"i": ["1", "1", "1", "1"]}}, "dilations": {"list": {"i": ["1", "1", "1", "1"]}}}}, {"name": "StatefulPartitionedCall/functional_3/tf_op_layer_strided_slice_5/strided_slice_5", "op": "StridedSlice", "input": ["StatefulPartitionedCall/functional_3/tf_op_layer_ZerosLike_5/ZerosLike_5", "StatefulPartitionedCall/functional_3/tf_op_layer_strided_slice_5/strided_slice_5/begin", "StatefulPartitionedCall/functional_3/tf_op_layer_strided_slice_5/strided_slice_5/end", "StatefulPartitionedCall/functional_3/tf_op_layer_strided_slice_5/strided_slice_5/strides"], "attr": {"new_axis_mask": {"i": "0"}, "Index": {"type": "DT_INT32"}, "begin_mask": {"i": "2"}, "_cloned": {"b": true}, "T": {"type": "DT_FLOAT"}, "shrink_axis_mask": {"i": "0"}, "ellipsis_mask": {"i": "1"}, "end_mask": {"i": "0"}}}, {"name": "StatefulPartitionedCall/functional_3/tf_op_layer_concat_5/concat_5", "op": "ConcatV2", "input": ["StatefulPartitionedCall/functional_3/activation_6/Relu", "StatefulPartitionedCall/functional_3/tf_op_layer_strided_slice_5/strided_slice_5", "StatefulPartitionedCall/functional_3/tf_op_layer_concat_5/concat_5/axis"], "attr": {"Tidx": {"type": "DT_INT32"}, "T": {"type": "DT_FLOAT"}, "N": {"i": "2"}, "_cloned": {"b": true}}}, {"name": "StatefulPartitionedCall/functional_3/add_6/add", "op": "AddV2", "input": ["StatefulPartitionedCall/functional_3/sequential_6/batch_normalization_7/FusedBatchNormV3", "StatefulPartitionedCall/functional_3/tf_op_layer_concat_5/concat_5"], "attr": {"T": {"type": "DT_FLOAT"}}}, {"name": "StatefulPartitionedCall/functional_3/activation_7/Relu", "op": "Relu", "input": ["StatefulPartitionedCall/functional_3/add_6/add"], "attr": {"T": {"type": "DT_FLOAT"}}}, {"name": "StatefulPartitionedCall/functional_3/sequential_7/separable_conv2d_7/separable_conv2d/depthwise", "op": "DepthwiseConv2dNative", "input": ["StatefulPartitionedCall/functional_3/activation_7/Relu", "unknown_54"], "attr": {"dilations": {"list": {"i": ["1", "1", "1", "1"]}}, "padding": {"s": "U0FNRQ=="}, "T": {"type": "DT_FLOAT"}, "strides": {"list": {"i": ["1", "1", "1", "1"]}}, "data_format": {"s": "TkhXQw=="}, "explicit_paddings": {"list": {}}}}, {"name": "StatefulPartitionedCall/functional_3/tf_op_layer_ZerosLike_6/ZerosLike_6", "op": "ZerosLike", "input": ["StatefulPartitionedCall/functional_3/activation_7/Relu"], "attr": {"T": {"type": "DT_FLOAT"}, "_cloned": {"b": true}}}, {"name": "StatefulPartitionedCall/functional_3/sequential_7/batch_normalization_8/FusedBatchNormV3", "op": "_FusedConv2D", "input": ["StatefulPartitionedCall/functional_3/sequential_7/separable_conv2d_7/separable_conv2d/depthwise", "StatefulPartitionedCall/functional_3/sequential_7/separable_conv2d_7/separable_conv2d_weights", "StatefulPartitionedCall/functional_3/sequential_7/separable_conv2d_7/separable_conv2d_bn_offset"], "device": "/device:CPU:0", "attr": {"explicit_paddings": {"list": {}}, "use_cudnn_on_gpu": {"b": true}, "strides": {"list": {"i": ["1", "1", "1", "1"]}}, "fused_ops": {"list": {"s": ["Qmlhc0FkZA=="]}}, "T": {"type": "DT_FLOAT"}, "dilations": {"list": {"i": ["1", "1", "1", "1"]}}, "data_format": {"s": "TkhXQw=="}, "num_args": {"i": "1"}, "epsilon": {"f": 0.0}, "padding": {"s": "VkFMSUQ="}}}, {"name": "StatefulPartitionedCall/functional_3/tf_op_layer_strided_slice_6/strided_slice_6", "op": "StridedSlice", "input": ["StatefulPartitionedCall/functional_3/tf_op_layer_ZerosLike_6/ZerosLike_6", "StatefulPartitionedCall/functional_3/tf_op_layer_strided_slice_6/strided_slice_6/begin", "StatefulPartitionedCall/functional_3/tf_op_layer_strided_slice_6/strided_slice_6/end", "StatefulPartitionedCall/functional_3/tf_op_layer_strided_slice_6/strided_slice_6/strides"], "attr": {"ellipsis_mask": {"i": "1"}, "Index": {"type": "DT_INT32"}, "new_axis_mask": {"i": "0"}, "T": {"type": "DT_FLOAT"}, "end_mask": {"i": "0"}, "_cloned": {"b": true}, "begin_mask": {"i": "2"}, "shrink_axis_mask": {"i": "0"}}}, {"name": "StatefulPartitionedCall/functional_3/tf_op_layer_concat_6/concat_6", "op": "ConcatV2", "input": ["StatefulPartitionedCall/functional_3/activation_7/Relu", "StatefulPartitionedCall/functional_3/tf_op_layer_strided_slice_6/strided_slice_6", "StatefulPartitionedCall/functional_3/tf_op_layer_concat_6/concat_6/axis"], "attr": {"Tidx": {"type": "DT_INT32"}, "T": {"type": "DT_FLOAT"}, "N": {"i": "2"}, "_cloned": {"b": true}}}, {"name": "StatefulPartitionedCall/functional_3/add_7/add", "op": "AddV2", "input": ["StatefulPartitionedCall/functional_3/sequential_7/batch_normalization_8/FusedBatchNormV3", "StatefulPartitionedCall/functional_3/tf_op_layer_concat_6/concat_6"], "attr": {"T": {"type": "DT_FLOAT"}}}, {"name": "StatefulPartitionedCall/functional_3/activation_8/Relu", "op": "Relu", "input": ["StatefulPartitionedCall/functional_3/add_7/add"], "attr": {"T": {"type": "DT_FLOAT"}}}, {"name": "StatefulPartitionedCall/functional_3/sequential_8/separable_conv2d_8/separable_conv2d/depthwise", "op": "DepthwiseConv2dNative", "input": ["StatefulPartitionedCall/functional_3/activation_8/Relu", "unknown_61"], "attr": {"T": {"type": "DT_FLOAT"}, "explicit_paddings": {"list": {}}, "padding": {"s": "U0FNRQ=="}, "strides": {"list": {"i": ["1", "1", "1", "1"]}}, "dilations": {"list": {"i": ["1", "1", "1", "1"]}}, "data_format": {"s": "TkhXQw=="}}}, {"name": "StatefulPartitionedCall/functional_3/tf_op_layer_ZerosLike_7/ZerosLike_7", "op": "ZerosLike", "input": ["StatefulPartitionedCall/functional_3/activation_8/Relu"], "attr": {"T": {"type": "DT_FLOAT"}, "_cloned": {"b": true}}}, {"name": "StatefulPartitionedCall/functional_3/sequential_8/batch_normalization_9/FusedBatchNormV3", "op": "_FusedConv2D", "input": ["StatefulPartitionedCall/functional_3/sequential_8/separable_conv2d_8/separable_conv2d/depthwise", "StatefulPartitionedCall/functional_3/sequential_8/separable_conv2d_8/separable_conv2d_weights", "StatefulPartitionedCall/functional_3/sequential_8/separable_conv2d_8/separable_conv2d_bn_offset"], "device": "/device:CPU:0", "attr": {"strides": {"list": {"i": ["1", "1", "1", "1"]}}, "num_args": {"i": "1"}, "explicit_paddings": {"list": {}}, "use_cudnn_on_gpu": {"b": true}, "dilations": {"list": {"i": ["1", "1", "1", "1"]}}, "fused_ops": {"list": {"s": ["Qmlhc0FkZA=="]}}, "data_format": {"s": "TkhXQw=="}, "T": {"type": "DT_FLOAT"}, "epsilon": {"f": 0.0}, "padding": {"s": "VkFMSUQ="}}}, {"name": "StatefulPartitionedCall/functional_3/tf_op_layer_strided_slice_7/strided_slice_7", "op": "StridedSlice", "input": ["StatefulPartitionedCall/functional_3/tf_op_layer_ZerosLike_7/ZerosLike_7", "StatefulPartitionedCall/functional_3/tf_op_layer_strided_slice_7/strided_slice_7/begin", "StatefulPartitionedCall/functional_3/tf_op_layer_strided_slice_7/strided_slice_7/end", "StatefulPartitionedCall/functional_3/tf_op_layer_strided_slice_7/strided_slice_7/strides"], "attr": {"new_axis_mask": {"i": "0"}, "begin_mask": {"i": "2"}, "T": {"type": "DT_FLOAT"}, "ellipsis_mask": {"i": "1"}, "end_mask": {"i": "0"}, "_cloned": {"b": true}, "Index": {"type": "DT_INT32"}, "shrink_axis_mask": {"i": "0"}}}, {"name": "StatefulPartitionedCall/functional_3/tf_op_layer_concat_7/concat_7", "op": "ConcatV2", "input": ["StatefulPartitionedCall/functional_3/activation_8/Relu", "StatefulPartitionedCall/functional_3/tf_op_layer_strided_slice_7/strided_slice_7", "StatefulPartitionedCall/functional_3/tf_op_layer_concat_7/concat_7/axis"], "attr": {"N": {"i": "2"}, "_cloned": {"b": true}, "T": {"type": "DT_FLOAT"}, "Tidx": {"type": "DT_INT32"}}}, {"name": "StatefulPartitionedCall/functional_3/add_8/add", "op": "AddV2", "input": ["StatefulPartitionedCall/functional_3/sequential_8/batch_normalization_9/FusedBatchNormV3", "StatefulPartitionedCall/functional_3/tf_op_layer_concat_7/concat_7"], "attr": {"T": {"type": "DT_FLOAT"}}}, {"name": "StatefulPartitionedCall/functional_3/activation_9/Relu", "op": "Relu", "input": ["StatefulPartitionedCall/functional_3/add_8/add"], "attr": {"T": {"type": "DT_FLOAT"}}}, {"name": "StatefulPartitionedCall/functional_3/sequential_9/separable_conv2d_9/separable_conv2d/depthwise", "op": "DepthwiseConv2dNative", "input": ["StatefulPartitionedCall/functional_3/activation_9/Relu", "unknown_68"], "attr": {"strides": {"list": {"i": ["1", "1", "1", "1"]}}, "dilations": {"list": {"i": ["1", "1", "1", "1"]}}, "data_format": {"s": "TkhXQw=="}, "padding": {"s": "U0FNRQ=="}, "T": {"type": "DT_FLOAT"}, "explicit_paddings": {"list": {}}}}, {"name": "StatefulPartitionedCall/functional_3/tf_op_layer_ZerosLike_8/ZerosLike_8", "op": "ZerosLike", "input": ["StatefulPartitionedCall/functional_3/activation_9/Relu"], "attr": {"T": {"type": "DT_FLOAT"}, "_cloned": {"b": true}}}, {"name": "StatefulPartitionedCall/functional_3/sequential_9/batch_normalization_10/FusedBatchNormV3", "op": "_FusedConv2D", "input": ["StatefulPartitionedCall/functional_3/sequential_9/separable_conv2d_9/separable_conv2d/depthwise", "StatefulPartitionedCall/functional_3/sequential_9/separable_conv2d_9/separable_conv2d_weights", "StatefulPartitionedCall/functional_3/sequential_9/separable_conv2d_9/separable_conv2d_bn_offset"], "device": "/device:CPU:0", "attr": {"data_format": {"s": "TkhXQw=="}, "T": {"type": "DT_FLOAT"}, "num_args": {"i": "1"}, "fused_ops": {"list": {"s": ["Qmlhc0FkZA=="]}}, "use_cudnn_on_gpu": {"b": true}, "explicit_paddings": {"list": {}}, "dilations": {"list": {"i": ["1", "1", "1", "1"]}}, "padding": {"s": "VkFMSUQ="}, "strides": {"list": {"i": ["1", "1", "1", "1"]}}, "epsilon": {"f": 0.0}}}, {"name": "StatefulPartitionedCall/functional_3/tf_op_layer_strided_slice_8/strided_slice_8", "op": "StridedSlice", "input": ["StatefulPartitionedCall/functional_3/tf_op_layer_ZerosLike_8/ZerosLike_8", "StatefulPartitionedCall/functional_3/tf_op_layer_strided_slice_8/strided_slice_8/begin", "StatefulPartitionedCall/functional_3/tf_op_layer_strided_slice_8/strided_slice_8/end", "StatefulPartitionedCall/functional_3/tf_op_layer_strided_slice_8/strided_slice_8/strides"], "attr": {"end_mask": {"i": "0"}, "T": {"type": "DT_FLOAT"}, "begin_mask": {"i": "2"}, "shrink_axis_mask": {"i": "0"}, "ellipsis_mask": {"i": "1"}, "new_axis_mask": {"i": "0"}, "_cloned": {"b": true}, "Index": {"type": "DT_INT32"}}}, {"name": "StatefulPartitionedCall/functional_3/tf_op_layer_concat_8/concat_8", "op": "ConcatV2", "input": ["StatefulPartitionedCall/functional_3/activation_9/Relu", "StatefulPartitionedCall/functional_3/tf_op_layer_strided_slice_8/strided_slice_8", "StatefulPartitionedCall/functional_3/tf_op_layer_concat_8/concat_8/axis"], "attr": {"_cloned": {"b": true}, "Tidx": {"type": "DT_INT32"}, "T": {"type": "DT_FLOAT"}, "N": {"i": "2"}}}, {"name": "StatefulPartitionedCall/functional_3/add_9/add", "op": "AddV2", "input": ["StatefulPartitionedCall/functional_3/sequential_9/batch_normalization_10/FusedBatchNormV3", "StatefulPartitionedCall/functional_3/tf_op_layer_concat_8/concat_8"], "attr": {"T": {"type": "DT_FLOAT"}}}, {"name": "StatefulPartitionedCall/functional_3/activation_10/Relu", "op": "Relu", "input": ["StatefulPartitionedCall/functional_3/add_9/add"], "attr": {"T": {"type": "DT_FLOAT"}}}, {"name": "StatefulPartitionedCall/functional_3/sequential_10/separable_conv2d_10/separable_conv2d/depthwise", "op": "DepthwiseConv2dNative", "input": ["StatefulPartitionedCall/functional_3/activation_10/Relu", "unknown_75"], "attr": {"strides": {"list": {"i": ["1", "1", "1", "1"]}}, "T": {"type": "DT_FLOAT"}, "padding": {"s": "U0FNRQ=="}, "data_format": {"s": "TkhXQw=="}, "dilations": {"list": {"i": ["1", "1", "1", "1"]}}, "explicit_paddings": {"list": {}}}}, {"name": "StatefulPartitionedCall/functional_3/tf_op_layer_ZerosLike_9/ZerosLike_9", "op": "ZerosLike", "input": ["StatefulPartitionedCall/functional_3/activation_10/Relu"], "attr": {"_cloned": {"b": true}, "T": {"type": "DT_FLOAT"}}}, {"name": "StatefulPartitionedCall/functional_3/sequential_10/batch_normalization_11/FusedBatchNormV3", "op": "_FusedConv2D", "input": ["StatefulPartitionedCall/functional_3/sequential_10/separable_conv2d_10/separable_conv2d/depthwise", "StatefulPartitionedCall/functional_3/sequential_10/separable_conv2d_10/separable_conv2d_weights", "StatefulPartitionedCall/functional_3/sequential_10/separable_conv2d_10/separable_conv2d_bn_offset"], "device": "/device:CPU:0", "attr": {"explicit_paddings": {"list": {}}, "fused_ops": {"list": {"s": ["Qmlhc0FkZA=="]}}, "dilations": {"list": {"i": ["1", "1", "1", "1"]}}, "use_cudnn_on_gpu": {"b": true}, "strides": {"list": {"i": ["1", "1", "1", "1"]}}, "padding": {"s": "VkFMSUQ="}, "epsilon": {"f": 0.0}, "data_format": {"s": "TkhXQw=="}, "num_args": {"i": "1"}, "T": {"type": "DT_FLOAT"}}}, {"name": "StatefulPartitionedCall/functional_3/tf_op_layer_strided_slice_9/strided_slice_9", "op": "StridedSlice", "input": ["StatefulPartitionedCall/functional_3/tf_op_layer_ZerosLike_9/ZerosLike_9", "StatefulPartitionedCall/functional_3/tf_op_layer_strided_slice_9/strided_slice_9/begin", "StatefulPartitionedCall/functional_3/tf_op_layer_strided_slice_9/strided_slice_9/end", "StatefulPartitionedCall/functional_3/tf_op_layer_strided_slice_9/strided_slice_9/strides"], "attr": {"new_axis_mask": {"i": "0"}, "begin_mask": {"i": "2"}, "Index": {"type": "DT_INT32"}, "T": {"type": "DT_FLOAT"}, "end_mask": {"i": "0"}, "shrink_axis_mask": {"i": "0"}, "_cloned": {"b": true}, "ellipsis_mask": {"i": "1"}}}, {"name": "StatefulPartitionedCall/functional_3/tf_op_layer_concat_9/concat_9", "op": "ConcatV2", "input": ["StatefulPartitionedCall/functional_3/activation_10/Relu", "StatefulPartitionedCall/functional_3/tf_op_layer_strided_slice_9/strided_slice_9", "StatefulPartitionedCall/functional_3/tf_op_layer_concat_9/concat_9/axis"], "attr": {"N": {"i": "2"}, "Tidx": {"type": "DT_INT32"}, "T": {"type": "DT_FLOAT"}, "_cloned": {"b": true}}}, {"name": "StatefulPartitionedCall/functional_3/add_10/add", "op": "AddV2", "input": ["StatefulPartitionedCall/functional_3/sequential_10/batch_normalization_11/FusedBatchNormV3", "StatefulPartitionedCall/functional_3/tf_op_layer_concat_9/concat_9"], "attr": {"T": {"type": "DT_FLOAT"}}}, {"name": "StatefulPartitionedCall/functional_3/activation_11/Relu", "op": "Relu", "input": ["StatefulPartitionedCall/functional_3/add_10/add"], "attr": {"T": {"type": "DT_FLOAT"}}}, {"name": "StatefulPartitionedCall/functional_3/conv2d_1/BiasAdd", "op": "_FusedConv2D", "input": ["StatefulPartitionedCall/functional_3/activation_11/Relu", "unknown_123", "unknown_124"], "device": "/device:CPU:0", "attr": {"T": {"type": "DT_FLOAT"}, "strides": {"list": {"i": ["1", "1", "1", "1"]}}, "fused_ops": {"list": {"s": ["Qmlhc0FkZA=="]}}, "dilations": {"list": {"i": ["1", "1", "1", "1"]}}, "explicit_paddings": {"list": {}}, "epsilon": {"f": 0.0}, "data_format": {"s": "TkhXQw=="}, "num_args": {"i": "1"}, "use_cudnn_on_gpu": {"b": true}, "padding": {"s": "U0FNRQ=="}}}, {"name": "StatefulPartitionedCall/functional_3/conv2d_3/BiasAdd", "op": "_FusedConv2D", "input": ["StatefulPartitionedCall/functional_3/activation_11/Relu", "unknown_119", "unknown_120"], "device": "/device:CPU:0", "attr": {"explicit_paddings": {"list": {}}, "strides": {"list": {"i": ["1", "1", "1", "1"]}}, "data_format": {"s": "TkhXQw=="}, "fused_ops": {"list": {"s": ["Qmlhc0FkZA=="]}}, "epsilon": {"f": 0.0}, "use_cudnn_on_gpu": {"b": true}, "dilations": {"list": {"i": ["1", "1", "1", "1"]}}, "num_args": {"i": "1"}, "padding": {"s": "U0FNRQ=="}, "T": {"type": "DT_FLOAT"}}}, {"name": "StatefulPartitionedCall/functional_3/sequential_11/separable_conv2d_11/separable_conv2d/depthwise", "op": "DepthwiseConv2dNative", "input": ["StatefulPartitionedCall/functional_3/activation_11/Relu", "unknown_82"], "attr": {"dilations": {"list": {"i": ["1", "1", "1", "1"]}}, "T": {"type": "DT_FLOAT"}, "data_format": {"s": "TkhXQw=="}, "explicit_paddings": {"list": {}}, "strides": {"list": {"i": ["1", "2", "2", "1"]}}, "padding": {"s": "U0FNRQ=="}}}, {"name": "StatefulPartitionedCall/functional_3/max_pooling2d_2/MaxPool", "op": "MaxPool", "input": ["StatefulPartitionedCall/functional_3/activation_11/Relu"], "attr": {"data_format": {"s": "TkhXQw=="}, "ksize": {"list": {"i": ["1", "2", "2", "1"]}}, "T": {"type": "DT_FLOAT"}, "strides": {"list": {"i": ["1", "2", "2", "1"]}}, "padding": {"s": "VkFMSUQ="}}}, {"name": "StatefulPartitionedCall/functional_3/conv2d_1/Sigmoid", "op": "Sigmoid", "input": ["StatefulPartitionedCall/functional_3/conv2d_1/BiasAdd"], "attr": {"T": {"type": "DT_FLOAT"}}}, {"name": "StatefulPartitionedCall/functional_3/reshape_2/Shape", "op": "Shape", "input": ["StatefulPartitionedCall/functional_3/conv2d_3/BiasAdd"], "attr": {"T": {"type": "DT_FLOAT"}, "out_type": {"type": "DT_INT32"}}}, {"name": "StatefulPartitionedCall/functional_3/sequential_11/batch_normalization_12/FusedBatchNormV3", "op": "_FusedConv2D", "input": ["StatefulPartitionedCall/functional_3/sequential_11/separable_conv2d_11/separable_conv2d/depthwise", "StatefulPartitionedCall/functional_3/sequential_11/separable_conv2d_11/separable_conv2d_weights", "StatefulPartitionedCall/functional_3/sequential_11/separable_conv2d_11/separable_conv2d_bn_offset"], "device": "/device:CPU:0", "attr": {"strides": {"list": {"i": ["1", "1", "1", "1"]}}, "fused_ops": {"list": {"s": ["Qmlhc0FkZA=="]}}, "T": {"type": "DT_FLOAT"}, "data_format": {"s": "TkhXQw=="}, "dilations": {"list": {"i": ["1", "1", "1", "1"]}}, "explicit_paddings": {"list": {}}, "num_args": {"i": "1"}, "use_cudnn_on_gpu": {"b": true}, "padding": {"s": "VkFMSUQ="}, "epsilon": {"f": 0.0}}}, {"name": "StatefulPartitionedCall/functional_3/tf_op_layer_ZerosLike_10/ZerosLike_10", "op": "ZerosLike", "input": ["StatefulPartitionedCall/functional_3/max_pooling2d_2/MaxPool"], "attr": {"T": {"type": "DT_FLOAT"}, "_cloned": {"b": true}}}, {"name": "StatefulPartitionedCall/functional_3/reshape/Shape", "op": "Shape", "input": ["StatefulPartitionedCall/functional_3/conv2d_1/Sigmoid"], "attr": {"T": {"type": "DT_FLOAT"}, "out_type": {"type": "DT_INT32"}}}, {"name": "StatefulPartitionedCall/functional_3/reshape_2/strided_slice", "op": "StridedSlice", "input": ["StatefulPartitionedCall/functional_3/reshape_2/Shape", "StatefulPartitionedCall/functional_3/reshape_2/strided_slice/stack", "StatefulPartitionedCall/functional_3/reshape_2/strided_slice/stack_1", "StatefulPartitionedCall/functional_3/reshape_2/strided_slice/stack_2"], "attr": {"ellipsis_mask": {"i": "0"}, "end_mask": {"i": "0"}, "new_axis_mask": {"i": "0"}, "shrink_axis_mask": {"i": "1"}, "Index": {"type": "DT_INT32"}, "T": {"type": "DT_INT32"}, "begin_mask": {"i": "0"}}}, {"name": "StatefulPartitionedCall/functional_3/tf_op_layer_strided_slice_10/strided_slice_10", "op": "StridedSlice", "input": ["StatefulPartitionedCall/functional_3/tf_op_layer_ZerosLike_10/ZerosLike_10", "StatefulPartitionedCall/functional_3/tf_op_layer_strided_slice_10/strided_slice_10/begin", "StatefulPartitionedCall/functional_3/tf_op_layer_strided_slice_10/strided_slice_10/end", "StatefulPartitionedCall/functional_3/tf_op_layer_strided_slice_10/strided_slice_10/strides"], "attr": {"begin_mask": {"i": "2"}, "ellipsis_mask": {"i": "1"}, "T": {"type": "DT_FLOAT"}, "end_mask": {"i": "0"}, "new_axis_mask": {"i": "0"}, "shrink_axis_mask": {"i": "0"}, "Index": {"type": "DT_INT32"}, "_cloned": {"b": true}}}, {"name": "StatefulPartitionedCall/functional_3/reshape/strided_slice", "op": "StridedSlice", "input": ["StatefulPartitionedCall/functional_3/reshape/Shape", "StatefulPartitionedCall/functional_3/reshape/strided_slice/stack", "StatefulPartitionedCall/functional_3/reshape/strided_slice/stack_1", "StatefulPartitionedCall/functional_3/reshape/strided_slice/stack_2"], "attr": {"ellipsis_mask": {"i": "0"}, "new_axis_mask": {"i": "0"}, "shrink_axis_mask": {"i": "1"}, "Index": {"type": "DT_INT32"}, "end_mask": {"i": "0"}, "begin_mask": {"i": "0"}, "T": {"type": "DT_INT32"}}}, {"name": "StatefulPartitionedCall/functional_3/reshape_2/Reshape/shape", "op": "Pack", "input": ["StatefulPartitionedCall/functional_3/reshape_2/strided_slice", "StatefulPartitionedCall/functional_3/reshape_2/Reshape/shape/1", "StatefulPartitionedCall/functional_3/reshape_2/Reshape/shape/2"], "attr": {"T": {"type": "DT_INT32"}, "axis": {"i": "0"}, "N": {"i": "3"}}}, {"name": "StatefulPartitionedCall/functional_3/tf_op_layer_concat_10/concat_10", "op": "ConcatV2", "input": ["StatefulPartitionedCall/functional_3/max_pooling2d_2/MaxPool", "StatefulPartitionedCall/functional_3/tf_op_layer_strided_slice_10/strided_slice_10", "StatefulPartitionedCall/functional_3/tf_op_layer_concat_10/concat_10/axis"], "attr": {"Tidx": {"type": "DT_INT32"}, "_cloned": {"b": true}, "T": {"type": "DT_FLOAT"}, "N": {"i": "2"}}}, {"name": "StatefulPartitionedCall/functional_3/reshape/Reshape/shape", "op": "Pack", "input": ["StatefulPartitionedCall/functional_3/reshape/strided_slice", "StatefulPartitionedCall/functional_3/reshape/Reshape/shape/1", "StatefulPartitionedCall/functional_3/reshape/Reshape/shape/2"], "attr": {"T": {"type": "DT_INT32"}, "N": {"i": "3"}, "axis": {"i": "0"}}}, {"name": "StatefulPartitionedCall/functional_3/reshape_2/Reshape", "op": "Reshape", "input": ["StatefulPartitionedCall/functional_3/conv2d_3/BiasAdd", "StatefulPartitionedCall/functional_3/reshape_2/Reshape/shape"], "attr": {"Tshape": {"type": "DT_INT32"}, "T": {"type": "DT_FLOAT"}}}, {"name": "StatefulPartitionedCall/functional_3/add_11/add", "op": "AddV2", "input": ["StatefulPartitionedCall/functional_3/sequential_11/batch_normalization_12/FusedBatchNormV3", "StatefulPartitionedCall/functional_3/tf_op_layer_concat_10/concat_10"], "attr": {"T": {"type": "DT_FLOAT"}}}, {"name": "StatefulPartitionedCall/functional_3/reshape/Reshape", "op": "Reshape", "input": ["StatefulPartitionedCall/functional_3/conv2d_1/Sigmoid", "StatefulPartitionedCall/functional_3/reshape/Reshape/shape"], "attr": {"T": {"type": "DT_FLOAT"}, "Tshape": {"type": "DT_INT32"}}}, {"name": "StatefulPartitionedCall/functional_3/activation_12/Relu", "op": "Relu", "input": ["StatefulPartitionedCall/functional_3/add_11/add"], "attr": {"T": {"type": "DT_FLOAT"}}}, {"name": "StatefulPartitionedCall/functional_3/sequential_12/separable_conv2d_12/separable_conv2d/depthwise", "op": "DepthwiseConv2dNative", "input": ["StatefulPartitionedCall/functional_3/activation_12/Relu", "unknown_89"], "attr": {"explicit_paddings": {"list": {}}, "strides": {"list": {"i": ["1", "1", "1", "1"]}}, "T": {"type": "DT_FLOAT"}, "data_format": {"s": "TkhXQw=="}, "padding": {"s": "U0FNRQ=="}, "dilations": {"list": {"i": ["1", "1", "1", "1"]}}}}, {"name": "StatefulPartitionedCall/functional_3/sequential_12/batch_normalization_13/FusedBatchNormV3", "op": "_FusedConv2D", "input": ["StatefulPartitionedCall/functional_3/sequential_12/separable_conv2d_12/separable_conv2d/depthwise", "StatefulPartitionedCall/functional_3/sequential_12/separable_conv2d_12/separable_conv2d_weights", "StatefulPartitionedCall/functional_3/sequential_12/separable_conv2d_12/separable_conv2d_bn_offset"], "device": "/device:CPU:0", "attr": {"dilations": {"list": {"i": ["1", "1", "1", "1"]}}, "strides": {"list": {"i": ["1", "1", "1", "1"]}}, "data_format": {"s": "TkhXQw=="}, "explicit_paddings": {"list": {}}, "T": {"type": "DT_FLOAT"}, "num_args": {"i": "1"}, "fused_ops": {"list": {"s": ["Qmlhc0FkZA=="]}}, "epsilon": {"f": 0.0}, "padding": {"s": "VkFMSUQ="}, "use_cudnn_on_gpu": {"b": true}}}, {"name": "StatefulPartitionedCall/functional_3/add_12/add", "op": "AddV2", "input": ["StatefulPartitionedCall/functional_3/sequential_12/batch_normalization_13/FusedBatchNormV3", "StatefulPartitionedCall/functional_3/activation_12/Relu"], "attr": {"T": {"type": "DT_FLOAT"}}}, {"name": "StatefulPartitionedCall/functional_3/activation_13/Relu", "op": "Relu", "input": ["StatefulPartitionedCall/functional_3/add_12/add"], "attr": {"T": {"type": "DT_FLOAT"}}}, {"name": "StatefulPartitionedCall/functional_3/sequential_13/separable_conv2d_13/separable_conv2d/depthwise", "op": "DepthwiseConv2dNative", "input": ["StatefulPartitionedCall/functional_3/activation_13/Relu", "unknown_96"], "attr": {"padding": {"s": "U0FNRQ=="}, "explicit_paddings": {"list": {}}, "strides": {"list": {"i": ["1", "1", "1", "1"]}}, "dilations": {"list": {"i": ["1", "1", "1", "1"]}}, "T": {"type": "DT_FLOAT"}, "data_format": {"s": "TkhXQw=="}}}, {"name": "StatefulPartitionedCall/functional_3/sequential_13/batch_normalization_14/FusedBatchNormV3", "op": "_FusedConv2D", "input": ["StatefulPartitionedCall/functional_3/sequential_13/separable_conv2d_13/separable_conv2d/depthwise", "StatefulPartitionedCall/functional_3/sequential_13/separable_conv2d_13/separable_conv2d_weights", "StatefulPartitionedCall/functional_3/sequential_13/separable_conv2d_13/separable_conv2d_bn_offset"], "device": "/device:CPU:0", "attr": {"data_format": {"s": "TkhXQw=="}, "T": {"type": "DT_FLOAT"}, "padding": {"s": "VkFMSUQ="}, "num_args": {"i": "1"}, "use_cudnn_on_gpu": {"b": true}, "fused_ops": {"list": {"s": ["Qmlhc0FkZA=="]}}, "dilations": {"list": {"i": ["1", "1", "1", "1"]}}, "epsilon": {"f": 0.0}, "explicit_paddings": {"list": {}}, "strides": {"list": {"i": ["1", "1", "1", "1"]}}}}, {"name": "StatefulPartitionedCall/functional_3/add_13/add", "op": "AddV2", "input": ["StatefulPartitionedCall/functional_3/sequential_13/batch_normalization_14/FusedBatchNormV3", "StatefulPartitionedCall/functional_3/activation_13/Relu"], "attr": {"T": {"type": "DT_FLOAT"}}}, {"name": "StatefulPartitionedCall/functional_3/activation_14/Relu", "op": "Relu", "input": ["StatefulPartitionedCall/functional_3/add_13/add"], "attr": {"T": {"type": "DT_FLOAT"}}}, {"name": "StatefulPartitionedCall/functional_3/sequential_14/separable_conv2d_14/separable_conv2d/depthwise", "op": "DepthwiseConv2dNative", "input": ["StatefulPartitionedCall/functional_3/activation_14/Relu", "unknown_103"], "attr": {"strides": {"list": {"i": ["1", "1", "1", "1"]}}, "T": {"type": "DT_FLOAT"}, "explicit_paddings": {"list": {}}, "padding": {"s": "U0FNRQ=="}, "dilations": {"list": {"i": ["1", "1", "1", "1"]}}, "data_format": {"s": "TkhXQw=="}}}, {"name": "StatefulPartitionedCall/functional_3/sequential_14/batch_normalization_15/FusedBatchNormV3", "op": "_FusedConv2D", "input": ["StatefulPartitionedCall/functional_3/sequential_14/separable_conv2d_14/separable_conv2d/depthwise", "StatefulPartitionedCall/functional_3/sequential_14/separable_conv2d_14/separable_conv2d_weights", "StatefulPartitionedCall/functional_3/sequential_14/separable_conv2d_14/separable_conv2d_bn_offset"], "device": "/device:CPU:0", "attr": {"T": {"type": "DT_FLOAT"}, "strides": {"list": {"i": ["1", "1", "1", "1"]}}, "padding": {"s": "VkFMSUQ="}, "data_format": {"s": "TkhXQw=="}, "dilations": {"list": {"i": ["1", "1", "1", "1"]}}, "epsilon": {"f": 0.0}, "fused_ops": {"list": {"s": ["Qmlhc0FkZA=="]}}, "num_args": {"i": "1"}, "explicit_paddings": {"list": {}}, "use_cudnn_on_gpu": {"b": true}}}, {"name": "StatefulPartitionedCall/functional_3/add_14/add", "op": "AddV2", "input": ["StatefulPartitionedCall/functional_3/sequential_14/batch_normalization_15/FusedBatchNormV3", "StatefulPartitionedCall/functional_3/activation_14/Relu"], "attr": {"T": {"type": "DT_FLOAT"}}}, {"name": "StatefulPartitionedCall/functional_3/activation_15/Relu", "op": "Relu", "input": ["StatefulPartitionedCall/functional_3/add_14/add"], "attr": {"T": {"type": "DT_FLOAT"}}}, {"name": "StatefulPartitionedCall/functional_3/sequential_15/separable_conv2d_15/separable_conv2d/depthwise", "op": "DepthwiseConv2dNative", "input": ["StatefulPartitionedCall/functional_3/activation_15/Relu", "unknown_110"], "attr": {"explicit_paddings": {"list": {}}, "dilations": {"list": {"i": ["1", "1", "1", "1"]}}, "T": {"type": "DT_FLOAT"}, "strides": {"list": {"i": ["1", "1", "1", "1"]}}, "data_format": {"s": "TkhXQw=="}, "padding": {"s": "U0FNRQ=="}}}, {"name": "StatefulPartitionedCall/functional_3/sequential_15/batch_normalization_16/FusedBatchNormV3", "op": "_FusedConv2D", "input": ["StatefulPartitionedCall/functional_3/sequential_15/separable_conv2d_15/separable_conv2d/depthwise", "StatefulPartitionedCall/functional_3/sequential_15/separable_conv2d_15/separable_conv2d_weights", "StatefulPartitionedCall/functional_3/sequential_15/separable_conv2d_15/separable_conv2d_bn_offset"], "device": "/device:CPU:0", "attr": {"num_args": {"i": "1"}, "padding": {"s": "VkFMSUQ="}, "use_cudnn_on_gpu": {"b": true}, "dilations": {"list": {"i": ["1", "1", "1", "1"]}}, "data_format": {"s": "TkhXQw=="}, "fused_ops": {"list": {"s": ["Qmlhc0FkZA=="]}}, "explicit_paddings": {"list": {}}, "epsilon": {"f": 0.0}, "T": {"type": "DT_FLOAT"}, "strides": {"list": {"i": ["1", "1", "1", "1"]}}}}, {"name": "StatefulPartitionedCall/functional_3/add_15/add", "op": "AddV2", "input": ["StatefulPartitionedCall/functional_3/sequential_15/batch_normalization_16/FusedBatchNormV3", "StatefulPartitionedCall/functional_3/activation_15/Relu"], "attr": {"T": {"type": "DT_FLOAT"}}}, {"name": "StatefulPartitionedCall/functional_3/activation_16/Relu", "op": "Relu", "input": ["StatefulPartitionedCall/functional_3/add_15/add"], "attr": {"T": {"type": "DT_FLOAT"}}}, {"name": "StatefulPartitionedCall/functional_3/conv2d_2/BiasAdd", "op": "_FusedConv2D", "input": ["StatefulPartitionedCall/functional_3/activation_16/Relu", "unknown_121", "unknown_122"], "device": "/device:CPU:0", "attr": {"dilations": {"list": {"i": ["1", "1", "1", "1"]}}, "num_args": {"i": "1"}, "T": {"type": "DT_FLOAT"}, "epsilon": {"f": 0.0}, "data_format": {"s": "TkhXQw=="}, "explicit_paddings": {"list": {}}, "fused_ops": {"list": {"s": ["Qmlhc0FkZA=="]}}, "use_cudnn_on_gpu": {"b": true}, "strides": {"list": {"i": ["1", "1", "1", "1"]}}, "padding": {"s": "U0FNRQ=="}}}, {"name": "StatefulPartitionedCall/functional_3/conv2d_4/BiasAdd", "op": "_FusedConv2D", "input": ["StatefulPartitionedCall/functional_3/activation_16/Relu", "unknown_117", "unknown_118"], "device": "/device:CPU:0", "attr": {"padding": {"s": "U0FNRQ=="}, "epsilon": {"f": 0.0}, "num_args": {"i": "1"}, "dilations": {"list": {"i": ["1", "1", "1", "1"]}}, "explicit_paddings": {"list": {}}, "fused_ops": {"list": {"s": ["Qmlhc0FkZA=="]}}, "T": {"type": "DT_FLOAT"}, "use_cudnn_on_gpu": {"b": true}, "strides": {"list": {"i": ["1", "1", "1", "1"]}}, "data_format": {"s": "TkhXQw=="}}}, {"name": "StatefulPartitionedCall/functional_3/conv2d_2/Sigmoid", "op": "Sigmoid", "input": ["StatefulPartitionedCall/functional_3/conv2d_2/BiasAdd"], "attr": {"T": {"type": "DT_FLOAT"}}}, {"name": "StatefulPartitionedCall/functional_3/reshape_3/Shape", "op": "Shape", "input": ["StatefulPartitionedCall/functional_3/conv2d_4/BiasAdd"], "attr": {"out_type": {"type": "DT_INT32"}, "T": {"type": "DT_FLOAT"}}}, {"name": "StatefulPartitionedCall/functional_3/reshape_1/Shape", "op": "Shape", "input": ["StatefulPartitionedCall/functional_3/conv2d_2/Sigmoid"], "attr": {"T": {"type": "DT_FLOAT"}, "out_type": {"type": "DT_INT32"}}}, {"name": "StatefulPartitionedCall/functional_3/reshape_3/strided_slice", "op": "StridedSlice", "input": ["StatefulPartitionedCall/functional_3/reshape_3/Shape", "StatefulPartitionedCall/functional_3/reshape_3/strided_slice/stack", "StatefulPartitionedCall/functional_3/reshape_3/strided_slice/stack_1", "StatefulPartitionedCall/functional_3/reshape_3/strided_slice/stack_2"], "attr": {"ellipsis_mask": {"i": "0"}, "Index": {"type": "DT_INT32"}, "shrink_axis_mask": {"i": "1"}, "begin_mask": {"i": "0"}, "new_axis_mask": {"i": "0"}, "T": {"type": "DT_INT32"}, "end_mask": {"i": "0"}}}, {"name": "StatefulPartitionedCall/functional_3/reshape_1/strided_slice", "op": "StridedSlice", "input": ["StatefulPartitionedCall/functional_3/reshape_1/Shape", "StatefulPartitionedCall/functional_3/reshape_1/strided_slice/stack", "StatefulPartitionedCall/functional_3/reshape_1/strided_slice/stack_1", "StatefulPartitionedCall/functional_3/reshape_1/strided_slice/stack_2"], "attr": {"shrink_axis_mask": {"i": "1"}, "end_mask": {"i": "0"}, "Index": {"type": "DT_INT32"}, "T": {"type": "DT_INT32"}, "new_axis_mask": {"i": "0"}, "ellipsis_mask": {"i": "0"}, "begin_mask": {"i": "0"}}}, {"name": "StatefulPartitionedCall/functional_3/reshape_3/Reshape/shape", "op": "Pack", "input": ["StatefulPartitionedCall/functional_3/reshape_3/strided_slice", "StatefulPartitionedCall/functional_3/reshape_3/Reshape/shape/1", "StatefulPartitionedCall/functional_3/reshape_3/Reshape/shape/2"], "attr": {"T": {"type": "DT_INT32"}, "axis": {"i": "0"}, "N": {"i": "3"}}}, {"name": "StatefulPartitionedCall/functional_3/reshape_1/Reshape/shape", "op": "Pack", "input": ["StatefulPartitionedCall/functional_3/reshape_1/strided_slice", "StatefulPartitionedCall/functional_3/reshape_1/Reshape/shape/1", "StatefulPartitionedCall/functional_3/reshape_1/Reshape/shape/2"], "attr": {"axis": {"i": "0"}, "T": {"type": "DT_INT32"}, "N": {"i": "3"}}}, {"name": "StatefulPartitionedCall/functional_3/reshape_3/Reshape", "op": "Reshape", "input": ["StatefulPartitionedCall/functional_3/conv2d_4/BiasAdd", "StatefulPartitionedCall/functional_3/reshape_3/Reshape/shape"], "attr": {"T": {"type": "DT_FLOAT"}, "Tshape": {"type": "DT_INT32"}}}, {"name": "StatefulPartitionedCall/functional_3/reshape_1/Reshape", "op": "Reshape", "input": ["StatefulPartitionedCall/functional_3/conv2d_2/Sigmoid", "StatefulPartitionedCall/functional_3/reshape_1/Reshape/shape"], "attr": {"Tshape": {"type": "DT_INT32"}, "T": {"type": "DT_FLOAT"}}}, {"name": "StatefulPartitionedCall/functional_3/tf_op_layer_concat_12/concat_12", "op": "ConcatV2", "input": ["StatefulPartitionedCall/functional_3/reshape_2/Reshape", "StatefulPartitionedCall/functional_3/reshape_3/Reshape", "StatefulPartitionedCall/functional_3/tf_op_layer_concat_12/concat_12/axis"], "attr": {"N": {"i": "2"}, "Tidx": {"type": "DT_INT32"}, "T": {"type": "DT_FLOAT"}, "_cloned": {"b": true}}}, {"name": "StatefulPartitionedCall/functional_3/tf_op_layer_concat_11/concat_11", "op": "ConcatV2", "input": ["StatefulPartitionedCall/functional_3/reshape/Reshape", "StatefulPartitionedCall/functional_3/reshape_1/Reshape", "StatefulPartitionedCall/functional_3/tf_op_layer_concat_11/concat_11/axis"], "attr": {"Tidx": {"type": "DT_INT32"}, "N": {"i": "2"}, "T": {"type": "DT_FLOAT"}, "_cloned": {"b": true}}}, {"name": "StatefulPartitionedCall/functional_3/tf_op_layer_concat_13/concat_13", "op": "ConcatV2", "input": ["StatefulPartitionedCall/functional_3/tf_op_layer_concat_11/concat_11", "StatefulPartitionedCall/functional_3/tf_op_layer_concat_12/concat_12", "StatefulPartitionedCall/functional_3/tf_op_layer_concat_13/concat_13/axis"], "attr": {"Tidx": {"type": "DT_INT32"}, "_cloned": {"b": true}, "T": {"type": "DT_FLOAT"}, "N": {"i": "2"}}}, {"name": "Identity", "op": "Identity", "input": ["StatefulPartitionedCall/functional_3/tf_op_layer_concat_13/concat_13"], "attr": {"T": {"type": "DT_FLOAT"}}}], "library": {}, "versions": {"producer": 440}}, "weightsManifest": [{"paths": ["group1-shard1of1.bin"], "weights": [{"name": "unknown_123", "shape": [3, 3, 88, 2], "dtype": "float32", "quantization": {"dtype": "uint8", "min": -0.7361464937527975, "scale": 0.004688831170399984, "original_dtype": "float32"}}, {"name": "unknown_124", "shape": [2], "dtype": "float32", "quantization": {"dtype": "uint8", "min": -0.12405343353748322, "scale": 0.00035265606700205334, "original_dtype": "float32"}}, {"name": "StatefulPartitionedCall/functional_3/reshape/strided_slice/stack", "shape": [1], "dtype": "int32"}, {"name": "StatefulPartitionedCall/functional_3/reshape/strided_slice/stack_1", "shape": [1], "dtype": "int32"}, {"name": "StatefulPartitionedCall/functional_3/reshape/strided_slice/stack_2", "shape": [1], "dtype": "int32"}, {"name": "StatefulPartitionedCall/functional_3/reshape/Reshape/shape/1", "shape": [], "dtype": "int32"}, {"name": "StatefulPartitionedCall/functional_3/reshape/Reshape/shape/2", "shape": [], "dtype": "int32"}, {"name": "unknown_121", "shape": [3, 3, 96, 6], "dtype": "float32", "quantization": {"dtype": "uint8", "min": -0.7037567853927612, "scale": 0.0045997175515866745, "original_dtype": "float32"}}, {"name": "unknown_122", "shape": [6], "dtype": "float32", "quantization": {"dtype": "uint8", "min": -0.8594095706939697, "scale": 0.0033399619563829665, "original_dtype": "float32"}}, {"name": "StatefulPartitionedCall/functional_3/reshape_1/strided_slice/stack", "shape": [1], "dtype": "int32"}, {"name": "StatefulPartitionedCall/functional_3/reshape_1/strided_slice/stack_1", "shape": [1], "dtype": "int32"}, {"name": "StatefulPartitionedCall/functional_3/reshape_1/strided_slice/stack_2", "shape": [1], "dtype": "int32"}, {"name": "StatefulPartitionedCall/functional_3/reshape_1/Reshape/shape/1", "shape": [], "dtype": "int32"}, {"name": "StatefulPartitionedCall/functional_3/reshape_1/Reshape/shape/2", "shape": [], "dtype": "int32"}, {"name": "StatefulPartitionedCall/functional_3/tf_op_layer_concat_11/concat_11/axis", "shape": [], "dtype": "int32"}, {"name": "unknown_119", "shape": [3, 3, 88, 8], "dtype": "float32", "quantization": {"dtype": "uint8", "min": -0.12673396444788165, "scale": 0.0009528869507359523, "original_dtype": "float32"}}, {"name": "unknown_120", "shape": [8], "dtype": "float32", "quantization": {"dtype": "uint8", "min": -0.054791920792822746, "scale": 0.0008561237623878554, "original_dtype": "float32"}}, {"name": "StatefulPartitionedCall/functional_3/reshape_2/strided_slice/stack", "shape": [1], "dtype": "int32"}, {"name": "StatefulPartitionedCall/functional_3/reshape_2/strided_slice/stack_1", "shape": [1], "dtype": "int32"}, {"name": "StatefulPartitionedCall/functional_3/reshape_2/strided_slice/stack_2", "shape": [1], "dtype": "int32"}, {"name": "StatefulPartitionedCall/functional_3/reshape_2/Reshape/shape/1", "shape": [], "dtype": "int32"}, {"name": "StatefulPartitionedCall/functional_3/reshape_2/Reshape/shape/2", "shape": [], "dtype": "int32"}, {"name": "unknown_110", "shape": [3, 3, 96, 1], "dtype": "float32", "quantization": {"dtype": "uint8", "min": -1.1267323204115325, "scale": 0.008601010079477348, "original_dtype": "float32"}}, {"name": "unknown_103", "shape": [3, 3, 96, 1], "dtype": "float32", "quantization": {"dtype": "uint8", "min": -1.6772103225483614, "scale": 0.010890976120443905, "original_dtype": "float32"}}, {"name": "unknown_96", "shape": [3, 3, 96, 1], "dtype": "float32", "quantization": {"dtype": "uint8", "min": -1.7571736672345328, "scale": 0.012733142516192267, "original_dtype": "float32"}}, {"name": "unknown_89", "shape": [3, 3, 96, 1], "dtype": "float32", "quantization": {"dtype": "uint8", "min": -1.3289787629071406, "scale": 0.012537535499123967, "original_dtype": "float32"}}, {"name": "unknown_82", "shape": [3, 3, 88, 1], "dtype": "float32", "quantization": {"dtype": "uint8", "min": -1.2411192417144776, "scale": 0.00899361769358317, "original_dtype": "float32"}}, {"name": "unknown_75", "shape": [3, 3, 80, 1], "dtype": "float32", "quantization": {"dtype": "uint8", "min": -1.11111099579755, "scale": 0.01058200948378619, "original_dtype": "float32"}}, {"name": "unknown_68", "shape": [3, 3, 72, 1], "dtype": "float32", "quantization": {"dtype": "uint8", "min": -1.4575895220625634, "scale": 0.011477082850886326, "original_dtype": "float32"}}, {"name": "unknown_61", "shape": [3, 3, 64, 1], "dtype": "float32", "quantization": {"dtype": "uint8", "min": -1.6218340107038909, "scale": 0.012670578208624148, "original_dtype": "float32"}}, {"name": "unknown_54", "shape": [3, 3, 56, 1], "dtype": "float32", "quantization": {"dtype": "uint8", "min": -1.4636379354140336, "scale": 0.01261756840874167, "original_dtype": "float32"}}, {"name": "unknown_47", "shape": [3, 3, 48, 1], "dtype": "float32", "quantization": {"dtype": "uint8", "min": -1.3378586189419617, "scale": 0.009039585263121363, "original_dtype": "float32"}}, {"name": "unknown_40", "shape": [3, 3, 40, 1], "dtype": "float32", "quantization": {"dtype": "uint8", "min": -1.0562716680414537, "scale": 0.0072347374523387235, "original_dtype": "float32"}}, {"name": "unknown_33", "shape": [3, 3, 36, 1], "dtype": "float32", "quantization": {"dtype": "uint8", "min": -1.1937424505458158, "scale": 0.009253817446091595, "original_dtype": "float32"}}, {"name": "unknown_26", "shape": [3, 3, 32, 1], "dtype": "float32", "quantization": {"dtype": "uint8", "min": -1.2976955301621382, "scale": 0.008537470593171961, "original_dtype": "float32"}}, {"name": "unknown_19", "shape": [3, 3, 28, 1], "dtype": "float32", "quantization": {"dtype": "uint8", "min": -0.76597939379075, "scale": 0.007092401794358796, "original_dtype": "float32"}}, {"name": "unknown_12", "shape": [3, 3, 24, 1], "dtype": "float32", "quantization": {"dtype": "uint8", "min": -1.2483035648570342, "scale": 0.010148809470382391, "original_dtype": "float32"}}, {"name": "unknown_5", "shape": [3, 3, 24, 1], "dtype": "float32", "quantization": {"dtype": "uint8", "min": -1.4992267360874252, "scale": 0.010943260847353468, "original_dtype": "float32"}}, {"name": "StatefulPartitionedCall/functional_3/tf_op_layer_strided_slice/strided_slice/begin", "shape": [2], "dtype": "int32"}, {"name": "StatefulPartitionedCall/functional_3/tf_op_layer_strided_slice/strided_slice/end", "shape": [2], "dtype": "int32"}, {"name": "StatefulPartitionedCall/functional_3/tf_op_layer_strided_slice/strided_slice/strides", "shape": [2], "dtype": "int32"}, {"name": "StatefulPartitionedCall/functional_3/tf_op_layer_concat/concat/axis", "shape": [], "dtype": "int32"}, {"name": "StatefulPartitionedCall/functional_3/tf_op_layer_strided_slice_1/strided_slice_1/begin", "shape": [2], "dtype": "int32"}, {"name": "StatefulPartitionedCall/functional_3/tf_op_layer_strided_slice_1/strided_slice_1/end", "shape": [2], "dtype": "int32"}, {"name": "StatefulPartitionedCall/functional_3/tf_op_layer_strided_slice_1/strided_slice_1/strides", "shape": [2], "dtype": "int32"}, {"name": "StatefulPartitionedCall/functional_3/tf_op_layer_concat_1/concat_1/axis", "shape": [], "dtype": "int32"}, {"name": "StatefulPartitionedCall/functional_3/tf_op_layer_strided_slice_2/strided_slice_2/begin", "shape": [2], "dtype": "int32"}, {"name": "StatefulPartitionedCall/functional_3/tf_op_layer_strided_slice_2/strided_slice_2/end", "shape": [2], "dtype": "int32"}, {"name": "StatefulPartitionedCall/functional_3/tf_op_layer_strided_slice_2/strided_slice_2/strides", "shape": [2], "dtype": "int32"}, {"name": "StatefulPartitionedCall/functional_3/tf_op_layer_concat_2/concat_2/axis", "shape": [], "dtype": "int32"}, {"name": "StatefulPartitionedCall/functional_3/tf_op_layer_strided_slice_3/strided_slice_3/begin", "shape": [2], "dtype": "int32"}, {"name": "StatefulPartitionedCall/functional_3/tf_op_layer_strided_slice_3/strided_slice_3/end", "shape": [2], "dtype": "int32"}, {"name": "StatefulPartitionedCall/functional_3/tf_op_layer_strided_slice_3/strided_slice_3/strides", "shape": [2], "dtype": "int32"}, {"name": "StatefulPartitionedCall/functional_3/tf_op_layer_concat_3/concat_3/axis", "shape": [], "dtype": "int32"}, {"name": "StatefulPartitionedCall/functional_3/tf_op_layer_strided_slice_4/strided_slice_4/begin", "shape": [2], "dtype": "int32"}, {"name": "StatefulPartitionedCall/functional_3/tf_op_layer_strided_slice_4/strided_slice_4/end", "shape": [2], "dtype": "int32"}, {"name": "StatefulPartitionedCall/functional_3/tf_op_layer_strided_slice_4/strided_slice_4/strides", "shape": [2], "dtype": "int32"}, {"name": "StatefulPartitionedCall/functional_3/tf_op_layer_concat_4/concat_4/axis", "shape": [], "dtype": "int32"}, {"name": "StatefulPartitionedCall/functional_3/tf_op_layer_strided_slice_5/strided_slice_5/begin", "shape": [2], "dtype": "int32"}, {"name": "StatefulPartitionedCall/functional_3/tf_op_layer_strided_slice_5/strided_slice_5/end", "shape": [2], "dtype": "int32"}, {"name": "StatefulPartitionedCall/functional_3/tf_op_layer_strided_slice_5/strided_slice_5/strides", "shape": [2], "dtype": "int32"}, {"name": "StatefulPartitionedCall/functional_3/tf_op_layer_concat_5/concat_5/axis", "shape": [], "dtype": "int32"}, {"name": "StatefulPartitionedCall/functional_3/tf_op_layer_strided_slice_6/strided_slice_6/begin", "shape": [2], "dtype": "int32"}, {"name": "StatefulPartitionedCall/functional_3/tf_op_layer_strided_slice_6/strided_slice_6/end", "shape": [2], "dtype": "int32"}, {"name": "StatefulPartitionedCall/functional_3/tf_op_layer_strided_slice_6/strided_slice_6/strides", "shape": [2], "dtype": "int32"}, {"name": "StatefulPartitionedCall/functional_3/tf_op_layer_concat_6/concat_6/axis", "shape": [], "dtype": "int32"}, {"name": "StatefulPartitionedCall/functional_3/tf_op_layer_strided_slice_7/strided_slice_7/begin", "shape": [2], "dtype": "int32"}, {"name": "StatefulPartitionedCall/functional_3/tf_op_layer_strided_slice_7/strided_slice_7/end", "shape": [2], "dtype": "int32"}, {"name": "StatefulPartitionedCall/functional_3/tf_op_layer_strided_slice_7/strided_slice_7/strides", "shape": [2], "dtype": "int32"}, {"name": "StatefulPartitionedCall/functional_3/tf_op_layer_concat_7/concat_7/axis", "shape": [], "dtype": "int32"}, {"name": "StatefulPartitionedCall/functional_3/tf_op_layer_strided_slice_8/strided_slice_8/begin", "shape": [2], "dtype": "int32"}, {"name": "StatefulPartitionedCall/functional_3/tf_op_layer_strided_slice_8/strided_slice_8/end", "shape": [2], "dtype": "int32"}, {"name": "StatefulPartitionedCall/functional_3/tf_op_layer_strided_slice_8/strided_slice_8/strides", "shape": [2], "dtype": "int32"}, {"name": "StatefulPartitionedCall/functional_3/tf_op_layer_concat_8/concat_8/axis", "shape": [], "dtype": "int32"}, {"name": "StatefulPartitionedCall/functional_3/tf_op_layer_strided_slice_9/strided_slice_9/begin", "shape": [2], "dtype": "int32"}, {"name": "StatefulPartitionedCall/functional_3/tf_op_layer_strided_slice_9/strided_slice_9/end", "shape": [2], "dtype": "int32"}, {"name": "StatefulPartitionedCall/functional_3/tf_op_layer_strided_slice_9/strided_slice_9/strides", "shape": [2], "dtype": "int32"}, {"name": "StatefulPartitionedCall/functional_3/tf_op_layer_concat_9/concat_9/axis", "shape": [], "dtype": "int32"}, {"name": "StatefulPartitionedCall/functional_3/tf_op_layer_strided_slice_10/strided_slice_10/begin", "shape": [2], "dtype": "int32"}, {"name": "StatefulPartitionedCall/functional_3/tf_op_layer_strided_slice_10/strided_slice_10/end", "shape": [2], "dtype": "int32"}, {"name": "StatefulPartitionedCall/functional_3/tf_op_layer_strided_slice_10/strided_slice_10/strides", "shape": [2], "dtype": "int32"}, {"name": "StatefulPartitionedCall/functional_3/tf_op_layer_concat_10/concat_10/axis", "shape": [], "dtype": "int32"}, {"name": "unknown_117", "shape": [3, 3, 96, 24], "dtype": "float32", "quantization": {"dtype": "uint8", "min": -0.11298955030301037, "scale": 0.0007336983785909765, "original_dtype": "float32"}}, {"name": "unknown_118", "shape": [24], "dtype": "float32", "quantization": {"dtype": "uint8", "min": -0.23293772620313308, "scale": 0.0017383412403218887, "original_dtype": "float32"}}, {"name": "StatefulPartitionedCall/functional_3/reshape_3/strided_slice/stack", "shape": [1], "dtype": "int32"}, {"name": "StatefulPartitionedCall/functional_3/reshape_3/strided_slice/stack_1", "shape": [1], "dtype": "int32"}, {"name": "StatefulPartitionedCall/functional_3/reshape_3/strided_slice/stack_2", "shape": [1], "dtype": "int32"}, {"name": "StatefulPartitionedCall/functional_3/reshape_3/Reshape/shape/1", "shape": [], "dtype": "int32"}, {"name": "StatefulPartitionedCall/functional_3/reshape_3/Reshape/shape/2", "shape": [], "dtype": "int32"}, {"name": "StatefulPartitionedCall/functional_3/tf_op_layer_concat_12/concat_12/axis", "shape": [], "dtype": "int32"}, {"name": "StatefulPartitionedCall/functional_3/tf_op_layer_concat_13/concat_13/axis", "shape": [], "dtype": "int32"}, {"name": "StatefulPartitionedCall/functional_3/conv2d/Conv2D_weights", "shape": [5, 5, 3, 24], "dtype": "float32", "quantization": {"dtype": "uint8", "min": -0.8332514538484461, "scale": 0.00688637565164005, "original_dtype": "float32"}}, {"name": "StatefulPartitionedCall/functional_3/conv2d/Conv2D_bn_offset", "shape": [24], "dtype": "float32", "quantization": {"dtype": "uint8", "min": -1.9200502760270064, "scale": 0.01207578789954092, "original_dtype": "float32"}}, {"name": "StatefulPartitionedCall/functional_3/sequential_15/separable_conv2d_15/separable_conv2d_bn_offset", "shape": [96], "dtype": "float32", "quantization": {"dtype": "uint8", "min": -2.177103936438467, "scale": 0.01327502400267358, "original_dtype": "float32"}}, {"name": "StatefulPartitionedCall/functional_3/sequential/separable_conv2d/separable_conv2d_weights", "shape": [1, 1, 24, 24], "dtype": "float32", "quantization": {"dtype": "uint8", "min": -1.75594444695641, "scale": 0.014275971113466748, "original_dtype": "float32"}}, {"name": "StatefulPartitionedCall/functional_3/sequential/separable_conv2d/separable_conv2d_bn_offset", "shape": [24], "dtype": "float32", "quantization": {"dtype": "uint8", "min": -1.4890320759193572, "scale": 0.012836483413097906, "original_dtype": "float32"}}, {"name": "StatefulPartitionedCall/functional_3/sequential_1/separable_conv2d_1/separable_conv2d_weights", "shape": [1, 1, 24, 28], "dtype": "float32", "quantization": {"dtype": "uint8", "min": -1.0541555481798508, "scale": 0.007476280483545042, "original_dtype": "float32"}}, {"name": "StatefulPartitionedCall/functional_3/sequential_1/separable_conv2d_1/separable_conv2d_bn_offset", "shape": [28], "dtype": "float32", "quantization": {"dtype": "uint8", "min": -1.4476491292317708, "scale": 0.01130975882212321, "original_dtype": "float32"}}, {"name": "StatefulPartitionedCall/functional_3/sequential_2/separable_conv2d_2/separable_conv2d_weights", "shape": [1, 1, 28, 32], "dtype": "float32", "quantization": {"dtype": "uint8", "min": -0.9488831211538875, "scale": 0.006082584109960818, "original_dtype": "float32"}}, {"name": "StatefulPartitionedCall/functional_3/sequential_2/separable_conv2d_2/separable_conv2d_bn_offset", "shape": [32], "dtype": "float32", "quantization": {"dtype": "uint8", "min": -3.0275197421803193, "scale": 0.017104631311753216, "original_dtype": "float32"}}, {"name": "StatefulPartitionedCall/functional_3/sequential_3/separable_conv2d_3/separable_conv2d_weights", "shape": [1, 1, 32, 36], "dtype": "float32", "quantization": {"dtype": "uint8", "min": -1.5716866462838417, "scale": 0.009084893909155154, "original_dtype": "float32"}}, {"name": "StatefulPartitionedCall/functional_3/sequential_3/separable_conv2d_3/separable_conv2d_bn_offset", "shape": [36], "dtype": "float32", "quantization": {"dtype": "uint8", "min": -0.972013131309958, "scale": 0.013135312585269704, "original_dtype": "float32"}}, {"name": "StatefulPartitionedCall/functional_3/sequential_4/separable_conv2d_4/separable_conv2d_weights", "shape": [1, 1, 36, 40], "dtype": "float32", "quantization": {"dtype": "uint8", "min": -0.6131330798653994, "scale": 0.005331591998829561, "original_dtype": "float32"}}, {"name": "StatefulPartitionedCall/functional_3/sequential_4/separable_conv2d_4/separable_conv2d_bn_offset", "shape": [40], "dtype": "float32", "quantization": {"dtype": "uint8", "min": -1.5772835086373722, "scale": 0.014209761339075425, "original_dtype": "float32"}}, {"name": "StatefulPartitionedCall/functional_3/sequential_5/separable_conv2d_5/separable_conv2d_weights", "shape": [1, 1, 40, 48], "dtype": "float32", "quantization": {"dtype": "uint8", "min": -0.6633001958622652, "scale": 0.005669232443267224, "original_dtype": "float32"}}, {"name": "StatefulPartitionedCall/functional_3/sequential_5/separable_conv2d_5/separable_conv2d_bn_offset", "shape": [48], "dtype": "float32", "quantization": {"dtype": "uint8", "min": -1.729916579583112, "scale": 0.023065554394441492, "original_dtype": "float32"}}, {"name": "StatefulPartitionedCall/functional_3/sequential_6/separable_conv2d_6/separable_conv2d_weights", "shape": [1, 1, 48, 56], "dtype": "float32", "quantization": {"dtype": "uint8", "min": -0.49685492375317747, "scale": 0.0040068945463965925, "original_dtype": "float32"}}, {"name": "StatefulPartitionedCall/functional_3/sequential_6/separable_conv2d_6/separable_conv2d_bn_offset", "shape": [56], "dtype": "float32", "quantization": {"dtype": "uint8", "min": -1.9767389185288373, "scale": 0.018303138134526272, "original_dtype": "float32"}}, {"name": "StatefulPartitionedCall/functional_3/sequential_7/separable_conv2d_7/separable_conv2d_weights", "shape": [1, 1, 56, 64], "dtype": "float32", "quantization": {"dtype": "uint8", "min": -0.9005734920501709, "scale": 0.006210851669311524, "original_dtype": "float32"}}, {"name": "StatefulPartitionedCall/functional_3/sequential_7/separable_conv2d_7/separable_conv2d_bn_offset", "shape": [64], "dtype": "float32", "quantization": {"dtype": "uint8", "min": -1.571147932725794, "scale": 0.012085753328659955, "original_dtype": "float32"}}, {"name": "StatefulPartitionedCall/functional_3/sequential_8/separable_conv2d_8/separable_conv2d_weights", "shape": [1, 1, 64, 72], "dtype": "float32", "quantization": {"dtype": "uint8", "min": -0.723983133540434, "scale": 0.004992987127865062, "original_dtype": "float32"}}, {"name": "StatefulPartitionedCall/functional_3/sequential_8/separable_conv2d_8/separable_conv2d_bn_offset", "shape": [72], "dtype": "float32", "quantization": {"dtype": "uint8", "min": -1.853225128323424, "scale": 0.014255577910180185, "original_dtype": "float32"}}, {"name": "StatefulPartitionedCall/functional_3/sequential_9/separable_conv2d_9/separable_conv2d_weights", "shape": [1, 1, 72, 80], "dtype": "float32", "quantization": {"dtype": "uint8", "min": -0.5061177926905015, "scale": 0.004559619753968482, "original_dtype": "float32"}}, {"name": "StatefulPartitionedCall/functional_3/sequential_9/separable_conv2d_9/separable_conv2d_bn_offset", "shape": [80], "dtype": "float32", "quantization": {"dtype": "uint8", "min": -1.8629612562703153, "scale": 0.017410852862339395, "original_dtype": "float32"}}, {"name": "StatefulPartitionedCall/functional_3/sequential_10/separable_conv2d_10/separable_conv2d_weights", "shape": [1, 1, 80, 88], "dtype": "float32", "quantization": {"dtype": "uint8", "min": -0.9230973159565645, "scale": 0.007957735482384177, "original_dtype": "float32"}}, {"name": "StatefulPartitionedCall/functional_3/sequential_10/separable_conv2d_10/separable_conv2d_bn_offset", "shape": [88], "dtype": "float32", "quantization": {"dtype": "uint8", "min": -1.9403263035942526, "scale": 0.014060335533291685, "original_dtype": "float32"}}, {"name": "StatefulPartitionedCall/functional_3/sequential_11/separable_conv2d_11/separable_conv2d_weights", "shape": [1, 1, 88, 96], "dtype": "float32", "quantization": {"dtype": "uint8", "min": -0.47405314340310933, "scale": 0.005097345627990423, "original_dtype": "float32"}}, {"name": "StatefulPartitionedCall/functional_3/sequential_11/separable_conv2d_11/separable_conv2d_bn_offset", "shape": [96], "dtype": "float32", "quantization": {"dtype": "uint8", "min": -1.9372892029145183, "scale": 0.014350290391959395, "original_dtype": "float32"}}, {"name": "StatefulPartitionedCall/functional_3/sequential_12/separable_conv2d_12/separable_conv2d_weights", "shape": [1, 1, 96, 96], "dtype": "float32", "quantization": {"dtype": "uint8", "min": -1.0094207726272884, "scale": 0.00870190321230421, "original_dtype": "float32"}}, {"name": "StatefulPartitionedCall/functional_3/sequential_12/separable_conv2d_12/separable_conv2d_bn_offset", "shape": [96], "dtype": "float32", "quantization": {"dtype": "uint8", "min": -1.8899187723795572, "scale": 0.013896461561614391, "original_dtype": "float32"}}, {"name": "StatefulPartitionedCall/functional_3/sequential_13/separable_conv2d_13/separable_conv2d_weights", "shape": [1, 1, 96, 96], "dtype": "float32", "quantization": {"dtype": "uint8", "min": -0.806765085809371, "scale": 0.006667480048011331, "original_dtype": "float32"}}, {"name": "StatefulPartitionedCall/functional_3/sequential_13/separable_conv2d_13/separable_conv2d_bn_offset", "shape": [96], "dtype": "float32", "quantization": {"dtype": "uint8", "min": -1.5213725636987125, "scale": 0.01322932664085837, "original_dtype": "float32"}}, {"name": "StatefulPartitionedCall/functional_3/sequential_14/separable_conv2d_14/separable_conv2d_weights", "shape": [1, 1, 96, 96], "dtype": "float32", "quantization": {"dtype": "uint8", "min": -1.257381747750675, "scale": 0.009525619301141477, "original_dtype": "float32"}}, {"name": "StatefulPartitionedCall/functional_3/sequential_14/separable_conv2d_14/separable_conv2d_bn_offset", "shape": [96], "dtype": "float32", "quantization": {"dtype": "uint8", "min": -1.563964723138248, "scale": 0.014089772280524758, "original_dtype": "float32"}}, {"name": "StatefulPartitionedCall/functional_3/sequential_15/separable_conv2d_15/separable_conv2d_weights", "shape": [1, 1, 96, 96], "dtype": "float32", "quantization": {"dtype": "uint8", "min": -1.0287105826770557, "scale": 0.008945309414583094, "original_dtype": "float32"}}]}]}