{"format": "graph-model", "generatedBy": "2.0.0", "convertedBy": "TensorFlow.js Converter v2.0.1.post1", "userDefinedMetadata": {"signature": {"inputs": {"images:0": {"name": "images:0", "dtype": "DT_FLOAT", "tensorShape": {"dim": [{"size": "-1"}, {"size": "160"}, {"size": "160"}, {"size": "3"}]}}}, "outputs": {"Identity:0": {"name": "Identity:0", "dtype": "DT_FLOAT", "tensorShape": {"dim": [{"size": "-1"}, {"size": "4"}]}}, "Identity_1:0": {"name": "Identity_1:0", "dtype": "DT_FLOAT", "tensorShape": {"dim": [{"size": "-1"}, {"size": "3"}]}}, "Identity_2:0": {"name": "Identity_2:0", "dtype": "DT_FLOAT", "tensorShape": {"dim": [{"size": "-1"}, {"size": "136"}]}}}}}, "modelTopology": {"node": [{"name": "StatefulPartitionedCall/strided_slice_2/stack", "op": "Const", "attr": {"value": {"tensor": {"dtype": "DT_INT32", "tensorShape": {"dim": [{"size": "2"}]}}}, "dtype": {"type": "DT_INT32"}}}, {"name": "StatefulPartitionedCall/strided_slice_2/stack_1", "op": "Const", "attr": {"value": {"tensor": {"dtype": "DT_INT32", "tensorShape": {"dim": [{"size": "2"}]}}}, "dtype": {"type": "DT_INT32"}}}, {"name": "StatefulPartitionedCall/strided_slice_2/stack_2", "op": "Const", "attr": {"value": {"tensor": {"dtype": "DT_INT32", "tensorShape": {"dim": [{"size": "2"}]}}}, "dtype": {"type": "DT_INT32"}}}, {"name": "StatefulPartitionedCall/strided_slice_1/stack", "op": "Const", "attr": {"value": {"tensor": {"dtype": "DT_INT32", "tensorShape": {"dim": [{"size": "2"}]}}}, "dtype": {"type": "DT_INT32"}}}, {"name": "StatefulPartitionedCall/strided_slice_1/stack_1", "op": "Const", "attr": {"value": {"tensor": {"dtype": "DT_INT32", "tensorShape": {"dim": [{"size": "2"}]}}}, "dtype": {"type": "DT_INT32"}}}, {"name": "StatefulPartitionedCall/strided_slice_1/stack_2", "op": "Const", "attr": {"value": {"tensor": {"dtype": "DT_INT32", "tensorShape": {"dim": [{"size": "2"}]}}}, "dtype": {"type": "DT_INT32"}}}, {"name": "StatefulPartitionedCall/global_average_pooling2d/Mean/reduction_indices", "op": "Const", "attr": {"value": {"tensor": {"dtype": "DT_INT32", "tensorShape": {"dim": [{"size": "2"}]}}}, "dtype": {"type": "DT_INT32"}}}, {"name": "StatefulPartitionedCall/global_average_pooling2d_1/Mean/reduction_indices", "op": "Const", "attr": {"value": {"tensor": {"dtype": "DT_INT32", "tensorShape": {"dim": [{"size": "2"}]}}}, "dtype": {"type": "DT_INT32"}}}, {"name": "StatefulPartitionedCall/shufflenet/shufflenet_block_2/basic_unit_12/sequential_19/separable_conv2d_18/separable_conv2d/ReadVariableOp", "op": "Const", "attr": {"value": {"tensor": {"dtype": "DT_FLOAT", "tensorShape": {"dim": [{"size": "3"}, {"size": "3"}, {"size": "192"}, {"size": "1"}]}}}, "dtype": {"type": "DT_FLOAT"}}}, {"name": "StatefulPartitionedCall/shufflenet/shufflenet_block_2/basic_unit_11/sequential_18/separable_conv2d_17/separable_conv2d/ReadVariableOp", "op": "Const", "attr": {"value": {"tensor": {"dtype": "DT_FLOAT", "tensorShape": {"dim": [{"size": "3"}, {"size": "3"}, {"size": "192"}, {"size": "1"}]}}}, "dtype": {"type": "DT_FLOAT"}}}, {"name": "StatefulPartitionedCall/shufflenet/shufflenet_block_2/strided_slice_8/stack", "op": "Const", "attr": {"value": {"tensor": {"dtype": "DT_INT32", "tensorShape": {"dim": [{"size": "4"}]}}}, "dtype": {"type": "DT_INT32"}}}, {"name": "StatefulPartitionedCall/shufflenet/shufflenet_block_2/strided_slice_8/stack_1", "op": "Const", "attr": {"value": {"tensor": {"dtype": "DT_INT32", "tensorShape": {"dim": [{"size": "4"}]}}}, "dtype": {"type": "DT_INT32"}}}, {"name": "StatefulPartitionedCall/shufflenet/shufflenet_block_2/strided_slice_8/stack_2", "op": "Const", "attr": {"value": {"tensor": {"dtype": "DT_INT32", "tensorShape": {"dim": [{"size": "4"}]}}}, "dtype": {"type": "DT_INT32"}}}, {"name": "StatefulPartitionedCall/shufflenet/shufflenet_block_2/strided_slice_9/stack", "op": "Const", "attr": {"value": {"tensor": {"dtype": "DT_INT32", "tensorShape": {"dim": [{"size": "4"}]}}}, "dtype": {"type": "DT_INT32"}}}, {"name": "StatefulPartitionedCall/shufflenet/shufflenet_block_2/strided_slice_9/stack_1", "op": "Const", "attr": {"value": {"tensor": {"dtype": "DT_INT32", "tensorShape": {"dim": [{"size": "4"}]}}}, "dtype": {"type": "DT_INT32"}}}, {"name": "StatefulPartitionedCall/shufflenet/shufflenet_block_2/strided_slice_9/stack_2", "op": "Const", "attr": {"value": {"tensor": {"dtype": "DT_INT32", "tensorShape": {"dim": [{"size": "4"}]}}}, "dtype": {"type": "DT_INT32"}}}, {"name": "StatefulPartitionedCall/shufflenet/shufflenet_block_2/concat_4/axis", "op": "Const", "attr": {"value": {"tensor": {"dtype": "DT_INT32", "tensorShape": {}}}, "dtype": {"type": "DT_INT32"}}}, {"name": "StatefulPartitionedCall/shufflenet/shufflenet_block_2/strided_slice_10/stack", "op": "Const", "attr": {"value": {"tensor": {"dtype": "DT_INT32", "tensorShape": {"dim": [{"size": "4"}]}}}, "dtype": {"type": "DT_INT32"}}}, {"name": "StatefulPartitionedCall/shufflenet/shufflenet_block_2/strided_slice_10/stack_1", "op": "Const", "attr": {"value": {"tensor": {"dtype": "DT_INT32", "tensorShape": {"dim": [{"size": "4"}]}}}, "dtype": {"type": "DT_INT32"}}}, {"name": "StatefulPartitionedCall/shufflenet/shufflenet_block_2/strided_slice_10/stack_2", "op": "Const", "attr": {"value": {"tensor": {"dtype": "DT_INT32", "tensorShape": {"dim": [{"size": "4"}]}}}, "dtype": {"type": "DT_INT32"}}}, {"name": "StatefulPartitionedCall/shufflenet/shufflenet_block_2/basic_unit_10/sequential_17/separable_conv2d_16/separable_conv2d/ReadVariableOp", "op": "Const", "attr": {"value": {"tensor": {"dtype": "DT_FLOAT", "tensorShape": {"dim": [{"size": "3"}, {"size": "3"}, {"size": "192"}, {"size": "1"}]}}}, "dtype": {"type": "DT_FLOAT"}}}, {"name": "StatefulPartitionedCall/shufflenet/shufflenet_block_2/strided_slice_4/stack", "op": "Const", "attr": {"value": {"tensor": {"dtype": "DT_INT32", "tensorShape": {"dim": [{"size": "4"}]}}}, "dtype": {"type": "DT_INT32"}}}, {"name": "StatefulPartitionedCall/shufflenet/shufflenet_block_2/strided_slice_4/stack_1", "op": "Const", "attr": {"value": {"tensor": {"dtype": "DT_INT32", "tensorShape": {"dim": [{"size": "4"}]}}}, "dtype": {"type": "DT_INT32"}}}, {"name": "StatefulPartitionedCall/shufflenet/shufflenet_block_2/strided_slice_4/stack_2", "op": "Const", "attr": {"value": {"tensor": {"dtype": "DT_INT32", "tensorShape": {"dim": [{"size": "4"}]}}}, "dtype": {"type": "DT_INT32"}}}, {"name": "StatefulPartitionedCall/shufflenet/shufflenet_block_2/strided_slice_5/stack", "op": "Const", "attr": {"value": {"tensor": {"dtype": "DT_INT32", "tensorShape": {"dim": [{"size": "4"}]}}}, "dtype": {"type": "DT_INT32"}}}, {"name": "StatefulPartitionedCall/shufflenet/shufflenet_block_2/strided_slice_5/stack_1", "op": "Const", "attr": {"value": {"tensor": {"dtype": "DT_INT32", "tensorShape": {"dim": [{"size": "4"}]}}}, "dtype": {"type": "DT_INT32"}}}, {"name": "StatefulPartitionedCall/shufflenet/shufflenet_block_2/strided_slice_5/stack_2", "op": "Const", "attr": {"value": {"tensor": {"dtype": "DT_INT32", "tensorShape": {"dim": [{"size": "4"}]}}}, "dtype": {"type": "DT_INT32"}}}, {"name": "StatefulPartitionedCall/shufflenet/shufflenet_block_2/concat_2/axis", "op": "Const", "attr": {"value": {"tensor": {"dtype": "DT_INT32", "tensorShape": {}}}, "dtype": {"type": "DT_INT32"}}}, {"name": "StatefulPartitionedCall/shufflenet/shufflenet_block_2/strided_slice_6/stack", "op": "Const", "attr": {"value": {"tensor": {"dtype": "DT_INT32", "tensorShape": {"dim": [{"size": "4"}]}}}, "dtype": {"type": "DT_INT32"}}}, {"name": "StatefulPartitionedCall/shufflenet/shufflenet_block_2/strided_slice_6/stack_1", "op": "Const", "attr": {"value": {"tensor": {"dtype": "DT_INT32", "tensorShape": {"dim": [{"size": "4"}]}}}, "dtype": {"type": "DT_INT32"}}}, {"name": "StatefulPartitionedCall/shufflenet/shufflenet_block_2/strided_slice_6/stack_2", "op": "Const", "attr": {"value": {"tensor": {"dtype": "DT_INT32", "tensorShape": {"dim": [{"size": "4"}]}}}, "dtype": {"type": "DT_INT32"}}}, {"name": "StatefulPartitionedCall/shufflenet/shufflenet_block_2/basic_unit_with_downsampling_2/sequential_15/separable_conv2d_14/separable_conv2d/ReadVariableOp", "op": "Const", "attr": {"value": {"tensor": {"dtype": "DT_FLOAT", "tensorShape": {"dim": [{"size": "3"}, {"size": "3"}, {"size": "192"}, {"size": "1"}]}}}, "dtype": {"type": "DT_FLOAT"}}}, {"name": "StatefulPartitionedCall/shufflenet/shufflenet_block_2/strided_slice/stack", "op": "Const", "attr": {"value": {"tensor": {"dtype": "DT_INT32", "tensorShape": {"dim": [{"size": "4"}]}}}, "dtype": {"type": "DT_INT32"}}}, {"name": "StatefulPartitionedCall/shufflenet/shufflenet_block_2/strided_slice/stack_1", "op": "Const", "attr": {"value": {"tensor": {"dtype": "DT_INT32", "tensorShape": {"dim": [{"size": "4"}]}}}, "dtype": {"type": "DT_INT32"}}}, {"name": "StatefulPartitionedCall/shufflenet/shufflenet_block_2/strided_slice/stack_2", "op": "Const", "attr": {"value": {"tensor": {"dtype": "DT_INT32", "tensorShape": {"dim": [{"size": "4"}]}}}, "dtype": {"type": "DT_INT32"}}}, {"name": "StatefulPartitionedCall/shufflenet/shufflenet_block_2/strided_slice_1/stack", "op": "Const", "attr": {"value": {"tensor": {"dtype": "DT_INT32", "tensorShape": {"dim": [{"size": "4"}]}}}, "dtype": {"type": "DT_INT32"}}}, {"name": "StatefulPartitionedCall/shufflenet/shufflenet_block_2/strided_slice_1/stack_1", "op": "Const", "attr": {"value": {"tensor": {"dtype": "DT_INT32", "tensorShape": {"dim": [{"size": "4"}]}}}, "dtype": {"type": "DT_INT32"}}}, {"name": "StatefulPartitionedCall/shufflenet/shufflenet_block_2/strided_slice_1/stack_2", "op": "Const", "attr": {"value": {"tensor": {"dtype": "DT_INT32", "tensorShape": {"dim": [{"size": "4"}]}}}, "dtype": {"type": "DT_INT32"}}}, {"name": "StatefulPartitionedCall/shufflenet/shufflenet_block_2/concat/axis", "op": "Const", "attr": {"value": {"tensor": {"dtype": "DT_INT32", "tensorShape": {}}}, "dtype": {"type": "DT_INT32"}}}, {"name": "StatefulPartitionedCall/shufflenet/shufflenet_block_2/strided_slice_2/stack", "op": "Const", "attr": {"value": {"tensor": {"dtype": "DT_INT32", "tensorShape": {"dim": [{"size": "4"}]}}}, "dtype": {"type": "DT_INT32"}}}, {"name": "StatefulPartitionedCall/shufflenet/shufflenet_block_2/strided_slice_2/stack_1", "op": "Const", "attr": {"value": {"tensor": {"dtype": "DT_INT32", "tensorShape": {"dim": [{"size": "4"}]}}}, "dtype": {"type": "DT_INT32"}}}, {"name": "StatefulPartitionedCall/shufflenet/shufflenet_block_2/strided_slice_2/stack_2", "op": "Const", "attr": {"value": {"tensor": {"dtype": "DT_INT32", "tensorShape": {"dim": [{"size": "4"}]}}}, "dtype": {"type": "DT_INT32"}}}, {"name": "StatefulPartitionedCall/shufflenet/shufflenet_block_1/basic_unit_9/sequential_14/separable_conv2d_13/separable_conv2d/ReadVariableOp", "op": "Const", "attr": {"value": {"tensor": {"dtype": "DT_FLOAT", "tensorShape": {"dim": [{"size": "3"}, {"size": "3"}, {"size": "96"}, {"size": "1"}]}}}, "dtype": {"type": "DT_FLOAT"}}}, {"name": "StatefulPartitionedCall/shufflenet/shufflenet_block_1/basic_unit_8/sequential_13/separable_conv2d_12/separable_conv2d/ReadVariableOp", "op": "Const", "attr": {"value": {"tensor": {"dtype": "DT_FLOAT", "tensorShape": {"dim": [{"size": "3"}, {"size": "3"}, {"size": "96"}, {"size": "1"}]}}}, "dtype": {"type": "DT_FLOAT"}}}, {"name": "StatefulPartitionedCall/shufflenet/shufflenet_block_1/strided_slice_24/stack", "op": "Const", "attr": {"value": {"tensor": {"dtype": "DT_INT32", "tensorShape": {"dim": [{"size": "4"}]}}}, "dtype": {"type": "DT_INT32"}}}, {"name": "StatefulPartitionedCall/shufflenet/shufflenet_block_1/strided_slice_24/stack_1", "op": "Const", "attr": {"value": {"tensor": {"dtype": "DT_INT32", "tensorShape": {"dim": [{"size": "4"}]}}}, "dtype": {"type": "DT_INT32"}}}, {"name": "StatefulPartitionedCall/shufflenet/shufflenet_block_1/strided_slice_24/stack_2", "op": "Const", "attr": {"value": {"tensor": {"dtype": "DT_INT32", "tensorShape": {"dim": [{"size": "4"}]}}}, "dtype": {"type": "DT_INT32"}}}, {"name": "StatefulPartitionedCall/shufflenet/shufflenet_block_1/strided_slice_25/stack", "op": "Const", "attr": {"value": {"tensor": {"dtype": "DT_INT32", "tensorShape": {"dim": [{"size": "4"}]}}}, "dtype": {"type": "DT_INT32"}}}, {"name": "StatefulPartitionedCall/shufflenet/shufflenet_block_1/strided_slice_25/stack_1", "op": "Const", "attr": {"value": {"tensor": {"dtype": "DT_INT32", "tensorShape": {"dim": [{"size": "4"}]}}}, "dtype": {"type": "DT_INT32"}}}, {"name": "StatefulPartitionedCall/shufflenet/shufflenet_block_1/strided_slice_25/stack_2", "op": "Const", "attr": {"value": {"tensor": {"dtype": "DT_INT32", "tensorShape": {"dim": [{"size": "4"}]}}}, "dtype": {"type": "DT_INT32"}}}, {"name": "StatefulPartitionedCall/shufflenet/shufflenet_block_1/concat_12/axis", "op": "Const", "attr": {"value": {"tensor": {"dtype": "DT_INT32", "tensorShape": {}}}, "dtype": {"type": "DT_INT32"}}}, {"name": "StatefulPartitionedCall/shufflenet/shufflenet_block_1/strided_slice_26/stack", "op": "Const", "attr": {"value": {"tensor": {"dtype": "DT_INT32", "tensorShape": {"dim": [{"size": "4"}]}}}, "dtype": {"type": "DT_INT32"}}}, {"name": "StatefulPartitionedCall/shufflenet/shufflenet_block_1/strided_slice_26/stack_1", "op": "Const", "attr": {"value": {"tensor": {"dtype": "DT_INT32", "tensorShape": {"dim": [{"size": "4"}]}}}, "dtype": {"type": "DT_INT32"}}}, {"name": "StatefulPartitionedCall/shufflenet/shufflenet_block_1/strided_slice_26/stack_2", "op": "Const", "attr": {"value": {"tensor": {"dtype": "DT_INT32", "tensorShape": {"dim": [{"size": "4"}]}}}, "dtype": {"type": "DT_INT32"}}}, {"name": "StatefulPartitionedCall/shufflenet/shufflenet_block_1/basic_unit_7/sequential_12/separable_conv2d_11/separable_conv2d/ReadVariableOp", "op": "Const", "attr": {"value": {"tensor": {"dtype": "DT_FLOAT", "tensorShape": {"dim": [{"size": "3"}, {"size": "3"}, {"size": "96"}, {"size": "1"}]}}}, "dtype": {"type": "DT_FLOAT"}}}, {"name": "StatefulPartitionedCall/shufflenet/shufflenet_block_1/strided_slice_20/stack", "op": "Const", "attr": {"value": {"tensor": {"dtype": "DT_INT32", "tensorShape": {"dim": [{"size": "4"}]}}}, "dtype": {"type": "DT_INT32"}}}, {"name": "StatefulPartitionedCall/shufflenet/shufflenet_block_1/strided_slice_20/stack_1", "op": "Const", "attr": {"value": {"tensor": {"dtype": "DT_INT32", "tensorShape": {"dim": [{"size": "4"}]}}}, "dtype": {"type": "DT_INT32"}}}, {"name": "StatefulPartitionedCall/shufflenet/shufflenet_block_1/strided_slice_20/stack_2", "op": "Const", "attr": {"value": {"tensor": {"dtype": "DT_INT32", "tensorShape": {"dim": [{"size": "4"}]}}}, "dtype": {"type": "DT_INT32"}}}, {"name": "StatefulPartitionedCall/shufflenet/shufflenet_block_1/strided_slice_21/stack", "op": "Const", "attr": {"value": {"tensor": {"dtype": "DT_INT32", "tensorShape": {"dim": [{"size": "4"}]}}}, "dtype": {"type": "DT_INT32"}}}, {"name": "StatefulPartitionedCall/shufflenet/shufflenet_block_1/strided_slice_21/stack_1", "op": "Const", "attr": {"value": {"tensor": {"dtype": "DT_INT32", "tensorShape": {"dim": [{"size": "4"}]}}}, "dtype": {"type": "DT_INT32"}}}, {"name": "StatefulPartitionedCall/shufflenet/shufflenet_block_1/strided_slice_21/stack_2", "op": "Const", "attr": {"value": {"tensor": {"dtype": "DT_INT32", "tensorShape": {"dim": [{"size": "4"}]}}}, "dtype": {"type": "DT_INT32"}}}, {"name": "StatefulPartitionedCall/shufflenet/shufflenet_block_1/concat_10/axis", "op": "Const", "attr": {"value": {"tensor": {"dtype": "DT_INT32", "tensorShape": {}}}, "dtype": {"type": "DT_INT32"}}}, {"name": "StatefulPartitionedCall/shufflenet/shufflenet_block_1/strided_slice_22/stack", "op": "Const", "attr": {"value": {"tensor": {"dtype": "DT_INT32", "tensorShape": {"dim": [{"size": "4"}]}}}, "dtype": {"type": "DT_INT32"}}}, {"name": "StatefulPartitionedCall/shufflenet/shufflenet_block_1/strided_slice_22/stack_1", "op": "Const", "attr": {"value": {"tensor": {"dtype": "DT_INT32", "tensorShape": {"dim": [{"size": "4"}]}}}, "dtype": {"type": "DT_INT32"}}}, {"name": "StatefulPartitionedCall/shufflenet/shufflenet_block_1/strided_slice_22/stack_2", "op": "Const", "attr": {"value": {"tensor": {"dtype": "DT_INT32", "tensorShape": {"dim": [{"size": "4"}]}}}, "dtype": {"type": "DT_INT32"}}}, {"name": "StatefulPartitionedCall/shufflenet/shufflenet_block_1/basic_unit_6/sequential_11/separable_conv2d_10/separable_conv2d/ReadVariableOp", "op": "Const", "attr": {"value": {"tensor": {"dtype": "DT_FLOAT", "tensorShape": {"dim": [{"size": "3"}, {"size": "3"}, {"size": "96"}, {"size": "1"}]}}}, "dtype": {"type": "DT_FLOAT"}}}, {"name": "StatefulPartitionedCall/shufflenet/shufflenet_block_1/strided_slice_16/stack", "op": "Const", "attr": {"value": {"tensor": {"dtype": "DT_INT32", "tensorShape": {"dim": [{"size": "4"}]}}}, "dtype": {"type": "DT_INT32"}}}, {"name": "StatefulPartitionedCall/shufflenet/shufflenet_block_1/strided_slice_16/stack_1", "op": "Const", "attr": {"value": {"tensor": {"dtype": "DT_INT32", "tensorShape": {"dim": [{"size": "4"}]}}}, "dtype": {"type": "DT_INT32"}}}, {"name": "StatefulPartitionedCall/shufflenet/shufflenet_block_1/strided_slice_16/stack_2", "op": "Const", "attr": {"value": {"tensor": {"dtype": "DT_INT32", "tensorShape": {"dim": [{"size": "4"}]}}}, "dtype": {"type": "DT_INT32"}}}, {"name": "StatefulPartitionedCall/shufflenet/shufflenet_block_1/strided_slice_17/stack", "op": "Const", "attr": {"value": {"tensor": {"dtype": "DT_INT32", "tensorShape": {"dim": [{"size": "4"}]}}}, "dtype": {"type": "DT_INT32"}}}, {"name": "StatefulPartitionedCall/shufflenet/shufflenet_block_1/strided_slice_17/stack_1", "op": "Const", "attr": {"value": {"tensor": {"dtype": "DT_INT32", "tensorShape": {"dim": [{"size": "4"}]}}}, "dtype": {"type": "DT_INT32"}}}, {"name": "StatefulPartitionedCall/shufflenet/shufflenet_block_1/strided_slice_17/stack_2", "op": "Const", "attr": {"value": {"tensor": {"dtype": "DT_INT32", "tensorShape": {"dim": [{"size": "4"}]}}}, "dtype": {"type": "DT_INT32"}}}, {"name": "StatefulPartitionedCall/shufflenet/shufflenet_block_1/concat_8/axis", "op": "Const", "attr": {"value": {"tensor": {"dtype": "DT_INT32", "tensorShape": {}}}, "dtype": {"type": "DT_INT32"}}}, {"name": "StatefulPartitionedCall/shufflenet/shufflenet_block_1/strided_slice_18/stack", "op": "Const", "attr": {"value": {"tensor": {"dtype": "DT_INT32", "tensorShape": {"dim": [{"size": "4"}]}}}, "dtype": {"type": "DT_INT32"}}}, {"name": "StatefulPartitionedCall/shufflenet/shufflenet_block_1/strided_slice_18/stack_1", "op": "Const", "attr": {"value": {"tensor": {"dtype": "DT_INT32", "tensorShape": {"dim": [{"size": "4"}]}}}, "dtype": {"type": "DT_INT32"}}}, {"name": "StatefulPartitionedCall/shufflenet/shufflenet_block_1/strided_slice_18/stack_2", "op": "Const", "attr": {"value": {"tensor": {"dtype": "DT_INT32", "tensorShape": {"dim": [{"size": "4"}]}}}, "dtype": {"type": "DT_INT32"}}}, {"name": "StatefulPartitionedCall/shufflenet/shufflenet_block_1/basic_unit_5/sequential_10/separable_conv2d_9/separable_conv2d/ReadVariableOp", "op": "Const", "attr": {"value": {"tensor": {"dtype": "DT_FLOAT", "tensorShape": {"dim": [{"size": "3"}, {"size": "3"}, {"size": "96"}, {"size": "1"}]}}}, "dtype": {"type": "DT_FLOAT"}}}, {"name": "StatefulPartitionedCall/shufflenet/shufflenet_block_1/strided_slice_12/stack", "op": "Const", "attr": {"value": {"tensor": {"dtype": "DT_INT32", "tensorShape": {"dim": [{"size": "4"}]}}}, "dtype": {"type": "DT_INT32"}}}, {"name": "StatefulPartitionedCall/shufflenet/shufflenet_block_1/strided_slice_12/stack_1", "op": "Const", "attr": {"value": {"tensor": {"dtype": "DT_INT32", "tensorShape": {"dim": [{"size": "4"}]}}}, "dtype": {"type": "DT_INT32"}}}, {"name": "StatefulPartitionedCall/shufflenet/shufflenet_block_1/strided_slice_12/stack_2", "op": "Const", "attr": {"value": {"tensor": {"dtype": "DT_INT32", "tensorShape": {"dim": [{"size": "4"}]}}}, "dtype": {"type": "DT_INT32"}}}, {"name": "StatefulPartitionedCall/shufflenet/shufflenet_block_1/strided_slice_13/stack", "op": "Const", "attr": {"value": {"tensor": {"dtype": "DT_INT32", "tensorShape": {"dim": [{"size": "4"}]}}}, "dtype": {"type": "DT_INT32"}}}, {"name": "StatefulPartitionedCall/shufflenet/shufflenet_block_1/strided_slice_13/stack_1", "op": "Const", "attr": {"value": {"tensor": {"dtype": "DT_INT32", "tensorShape": {"dim": [{"size": "4"}]}}}, "dtype": {"type": "DT_INT32"}}}, {"name": "StatefulPartitionedCall/shufflenet/shufflenet_block_1/strided_slice_13/stack_2", "op": "Const", "attr": {"value": {"tensor": {"dtype": "DT_INT32", "tensorShape": {"dim": [{"size": "4"}]}}}, "dtype": {"type": "DT_INT32"}}}, {"name": "StatefulPartitionedCall/shufflenet/shufflenet_block_1/concat_6/axis", "op": "Const", "attr": {"value": {"tensor": {"dtype": "DT_INT32", "tensorShape": {}}}, "dtype": {"type": "DT_INT32"}}}, {"name": "StatefulPartitionedCall/shufflenet/shufflenet_block_1/strided_slice_14/stack", "op": "Const", "attr": {"value": {"tensor": {"dtype": "DT_INT32", "tensorShape": {"dim": [{"size": "4"}]}}}, "dtype": {"type": "DT_INT32"}}}, {"name": "StatefulPartitionedCall/shufflenet/shufflenet_block_1/strided_slice_14/stack_1", "op": "Const", "attr": {"value": {"tensor": {"dtype": "DT_INT32", "tensorShape": {"dim": [{"size": "4"}]}}}, "dtype": {"type": "DT_INT32"}}}, {"name": "StatefulPartitionedCall/shufflenet/shufflenet_block_1/strided_slice_14/stack_2", "op": "Const", "attr": {"value": {"tensor": {"dtype": "DT_INT32", "tensorShape": {"dim": [{"size": "4"}]}}}, "dtype": {"type": "DT_INT32"}}}, {"name": "StatefulPartitionedCall/shufflenet/shufflenet_block_1/basic_unit_4/sequential_9/separable_conv2d_8/separable_conv2d/ReadVariableOp", "op": "Const", "attr": {"value": {"tensor": {"dtype": "DT_FLOAT", "tensorShape": {"dim": [{"size": "3"}, {"size": "3"}, {"size": "96"}, {"size": "1"}]}}}, "dtype": {"type": "DT_FLOAT"}}}, {"name": "StatefulPartitionedCall/shufflenet/shufflenet_block_1/strided_slice_8/stack", "op": "Const", "attr": {"value": {"tensor": {"dtype": "DT_INT32", "tensorShape": {"dim": [{"size": "4"}]}}}, "dtype": {"type": "DT_INT32"}}}, {"name": "StatefulPartitionedCall/shufflenet/shufflenet_block_1/strided_slice_8/stack_1", "op": "Const", "attr": {"value": {"tensor": {"dtype": "DT_INT32", "tensorShape": {"dim": [{"size": "4"}]}}}, "dtype": {"type": "DT_INT32"}}}, {"name": "StatefulPartitionedCall/shufflenet/shufflenet_block_1/strided_slice_8/stack_2", "op": "Const", "attr": {"value": {"tensor": {"dtype": "DT_INT32", "tensorShape": {"dim": [{"size": "4"}]}}}, "dtype": {"type": "DT_INT32"}}}, {"name": "StatefulPartitionedCall/shufflenet/shufflenet_block_1/strided_slice_9/stack", "op": "Const", "attr": {"value": {"tensor": {"dtype": "DT_INT32", "tensorShape": {"dim": [{"size": "4"}]}}}, "dtype": {"type": "DT_INT32"}}}, {"name": "StatefulPartitionedCall/shufflenet/shufflenet_block_1/strided_slice_9/stack_1", "op": "Const", "attr": {"value": {"tensor": {"dtype": "DT_INT32", "tensorShape": {"dim": [{"size": "4"}]}}}, "dtype": {"type": "DT_INT32"}}}, {"name": "StatefulPartitionedCall/shufflenet/shufflenet_block_1/strided_slice_9/stack_2", "op": "Const", "attr": {"value": {"tensor": {"dtype": "DT_INT32", "tensorShape": {"dim": [{"size": "4"}]}}}, "dtype": {"type": "DT_INT32"}}}, {"name": "StatefulPartitionedCall/shufflenet/shufflenet_block_1/concat_4/axis", "op": "Const", "attr": {"value": {"tensor": {"dtype": "DT_INT32", "tensorShape": {}}}, "dtype": {"type": "DT_INT32"}}}, {"name": "StatefulPartitionedCall/shufflenet/shufflenet_block_1/strided_slice_10/stack", "op": "Const", "attr": {"value": {"tensor": {"dtype": "DT_INT32", "tensorShape": {"dim": [{"size": "4"}]}}}, "dtype": {"type": "DT_INT32"}}}, {"name": "StatefulPartitionedCall/shufflenet/shufflenet_block_1/strided_slice_10/stack_1", "op": "Const", "attr": {"value": {"tensor": {"dtype": "DT_INT32", "tensorShape": {"dim": [{"size": "4"}]}}}, "dtype": {"type": "DT_INT32"}}}, {"name": "StatefulPartitionedCall/shufflenet/shufflenet_block_1/strided_slice_10/stack_2", "op": "Const", "attr": {"value": {"tensor": {"dtype": "DT_INT32", "tensorShape": {"dim": [{"size": "4"}]}}}, "dtype": {"type": "DT_INT32"}}}, {"name": "StatefulPartitionedCall/shufflenet/shufflenet_block_1/basic_unit_3/sequential_8/separable_conv2d_7/separable_conv2d/ReadVariableOp", "op": "Const", "attr": {"value": {"tensor": {"dtype": "DT_FLOAT", "tensorShape": {"dim": [{"size": "3"}, {"size": "3"}, {"size": "96"}, {"size": "1"}]}}}, "dtype": {"type": "DT_FLOAT"}}}, {"name": "StatefulPartitionedCall/shufflenet/shufflenet_block_1/strided_slice_4/stack", "op": "Const", "attr": {"value": {"tensor": {"dtype": "DT_INT32", "tensorShape": {"dim": [{"size": "4"}]}}}, "dtype": {"type": "DT_INT32"}}}, {"name": "StatefulPartitionedCall/shufflenet/shufflenet_block_1/strided_slice_4/stack_1", "op": "Const", "attr": {"value": {"tensor": {"dtype": "DT_INT32", "tensorShape": {"dim": [{"size": "4"}]}}}, "dtype": {"type": "DT_INT32"}}}, {"name": "StatefulPartitionedCall/shufflenet/shufflenet_block_1/strided_slice_4/stack_2", "op": "Const", "attr": {"value": {"tensor": {"dtype": "DT_INT32", "tensorShape": {"dim": [{"size": "4"}]}}}, "dtype": {"type": "DT_INT32"}}}, {"name": "StatefulPartitionedCall/shufflenet/shufflenet_block_1/strided_slice_5/stack", "op": "Const", "attr": {"value": {"tensor": {"dtype": "DT_INT32", "tensorShape": {"dim": [{"size": "4"}]}}}, "dtype": {"type": "DT_INT32"}}}, {"name": "StatefulPartitionedCall/shufflenet/shufflenet_block_1/strided_slice_5/stack_1", "op": "Const", "attr": {"value": {"tensor": {"dtype": "DT_INT32", "tensorShape": {"dim": [{"size": "4"}]}}}, "dtype": {"type": "DT_INT32"}}}, {"name": "StatefulPartitionedCall/shufflenet/shufflenet_block_1/strided_slice_5/stack_2", "op": "Const", "attr": {"value": {"tensor": {"dtype": "DT_INT32", "tensorShape": {"dim": [{"size": "4"}]}}}, "dtype": {"type": "DT_INT32"}}}, {"name": "StatefulPartitionedCall/shufflenet/shufflenet_block_1/concat_2/axis", "op": "Const", "attr": {"value": {"tensor": {"dtype": "DT_INT32", "tensorShape": {}}}, "dtype": {"type": "DT_INT32"}}}, {"name": "StatefulPartitionedCall/shufflenet/shufflenet_block_1/strided_slice_6/stack", "op": "Const", "attr": {"value": {"tensor": {"dtype": "DT_INT32", "tensorShape": {"dim": [{"size": "4"}]}}}, "dtype": {"type": "DT_INT32"}}}, {"name": "StatefulPartitionedCall/shufflenet/shufflenet_block_1/strided_slice_6/stack_1", "op": "Const", "attr": {"value": {"tensor": {"dtype": "DT_INT32", "tensorShape": {"dim": [{"size": "4"}]}}}, "dtype": {"type": "DT_INT32"}}}, {"name": "StatefulPartitionedCall/shufflenet/shufflenet_block_1/strided_slice_6/stack_2", "op": "Const", "attr": {"value": {"tensor": {"dtype": "DT_INT32", "tensorShape": {"dim": [{"size": "4"}]}}}, "dtype": {"type": "DT_INT32"}}}, {"name": "StatefulPartitionedCall/shufflenet/shufflenet_block_1/basic_unit_with_downsampling_1/sequential_6/separable_conv2d_5/separable_conv2d/ReadVariableOp", "op": "Const", "attr": {"value": {"tensor": {"dtype": "DT_FLOAT", "tensorShape": {"dim": [{"size": "3"}, {"size": "3"}, {"size": "96"}, {"size": "1"}]}}}, "dtype": {"type": "DT_FLOAT"}}}, {"name": "StatefulPartitionedCall/shufflenet/shufflenet_block_1/strided_slice/stack", "op": "Const", "attr": {"value": {"tensor": {"dtype": "DT_INT32", "tensorShape": {"dim": [{"size": "4"}]}}}, "dtype": {"type": "DT_INT32"}}}, {"name": "StatefulPartitionedCall/shufflenet/shufflenet_block_1/strided_slice/stack_1", "op": "Const", "attr": {"value": {"tensor": {"dtype": "DT_INT32", "tensorShape": {"dim": [{"size": "4"}]}}}, "dtype": {"type": "DT_INT32"}}}, {"name": "StatefulPartitionedCall/shufflenet/shufflenet_block_1/strided_slice/stack_2", "op": "Const", "attr": {"value": {"tensor": {"dtype": "DT_INT32", "tensorShape": {"dim": [{"size": "4"}]}}}, "dtype": {"type": "DT_INT32"}}}, {"name": "StatefulPartitionedCall/shufflenet/shufflenet_block_1/strided_slice_1/stack", "op": "Const", "attr": {"value": {"tensor": {"dtype": "DT_INT32", "tensorShape": {"dim": [{"size": "4"}]}}}, "dtype": {"type": "DT_INT32"}}}, {"name": "StatefulPartitionedCall/shufflenet/shufflenet_block_1/strided_slice_1/stack_1", "op": "Const", "attr": {"value": {"tensor": {"dtype": "DT_INT32", "tensorShape": {"dim": [{"size": "4"}]}}}, "dtype": {"type": "DT_INT32"}}}, {"name": "StatefulPartitionedCall/shufflenet/shufflenet_block_1/strided_slice_1/stack_2", "op": "Const", "attr": {"value": {"tensor": {"dtype": "DT_INT32", "tensorShape": {"dim": [{"size": "4"}]}}}, "dtype": {"type": "DT_INT32"}}}, {"name": "StatefulPartitionedCall/shufflenet/shufflenet_block_1/concat/axis", "op": "Const", "attr": {"value": {"tensor": {"dtype": "DT_INT32", "tensorShape": {}}}, "dtype": {"type": "DT_INT32"}}}, {"name": "StatefulPartitionedCall/shufflenet/shufflenet_block_1/strided_slice_2/stack", "op": "Const", "attr": {"value": {"tensor": {"dtype": "DT_INT32", "tensorShape": {"dim": [{"size": "4"}]}}}, "dtype": {"type": "DT_INT32"}}}, {"name": "StatefulPartitionedCall/shufflenet/shufflenet_block_1/strided_slice_2/stack_1", "op": "Const", "attr": {"value": {"tensor": {"dtype": "DT_INT32", "tensorShape": {"dim": [{"size": "4"}]}}}, "dtype": {"type": "DT_INT32"}}}, {"name": "StatefulPartitionedCall/shufflenet/shufflenet_block_1/strided_slice_2/stack_2", "op": "Const", "attr": {"value": {"tensor": {"dtype": "DT_INT32", "tensorShape": {"dim": [{"size": "4"}]}}}, "dtype": {"type": "DT_INT32"}}}, {"name": "StatefulPartitionedCall/shufflenet/shufflenet_block/basic_unit_2/sequential_5/separable_conv2d_4/separable_conv2d/ReadVariableOp", "op": "Const", "attr": {"value": {"tensor": {"dtype": "DT_FLOAT", "tensorShape": {"dim": [{"size": "3"}, {"size": "3"}, {"size": "48"}, {"size": "1"}]}}}, "dtype": {"type": "DT_FLOAT"}}}, {"name": "StatefulPartitionedCall/shufflenet/shufflenet_block/basic_unit_1/sequential_4/separable_conv2d_3/separable_conv2d/ReadVariableOp", "op": "Const", "attr": {"value": {"tensor": {"dtype": "DT_FLOAT", "tensorShape": {"dim": [{"size": "3"}, {"size": "3"}, {"size": "48"}, {"size": "1"}]}}}, "dtype": {"type": "DT_FLOAT"}}}, {"name": "StatefulPartitionedCall/shufflenet/shufflenet_block/strided_slice_8/stack", "op": "Const", "attr": {"value": {"tensor": {"dtype": "DT_INT32", "tensorShape": {"dim": [{"size": "4"}]}}}, "dtype": {"type": "DT_INT32"}}}, {"name": "StatefulPartitionedCall/shufflenet/shufflenet_block/strided_slice_8/stack_1", "op": "Const", "attr": {"value": {"tensor": {"dtype": "DT_INT32", "tensorShape": {"dim": [{"size": "4"}]}}}, "dtype": {"type": "DT_INT32"}}}, {"name": "StatefulPartitionedCall/shufflenet/shufflenet_block/strided_slice_8/stack_2", "op": "Const", "attr": {"value": {"tensor": {"dtype": "DT_INT32", "tensorShape": {"dim": [{"size": "4"}]}}}, "dtype": {"type": "DT_INT32"}}}, {"name": "StatefulPartitionedCall/shufflenet/shufflenet_block/strided_slice_9/stack", "op": "Const", "attr": {"value": {"tensor": {"dtype": "DT_INT32", "tensorShape": {"dim": [{"size": "4"}]}}}, "dtype": {"type": "DT_INT32"}}}, {"name": "StatefulPartitionedCall/shufflenet/shufflenet_block/strided_slice_9/stack_1", "op": "Const", "attr": {"value": {"tensor": {"dtype": "DT_INT32", "tensorShape": {"dim": [{"size": "4"}]}}}, "dtype": {"type": "DT_INT32"}}}, {"name": "StatefulPartitionedCall/shufflenet/shufflenet_block/strided_slice_9/stack_2", "op": "Const", "attr": {"value": {"tensor": {"dtype": "DT_INT32", "tensorShape": {"dim": [{"size": "4"}]}}}, "dtype": {"type": "DT_INT32"}}}, {"name": "StatefulPartitionedCall/shufflenet/shufflenet_block/concat_4/axis", "op": "Const", "attr": {"value": {"tensor": {"dtype": "DT_INT32", "tensorShape": {}}}, "dtype": {"type": "DT_INT32"}}}, {"name": "StatefulPartitionedCall/shufflenet/shufflenet_block/strided_slice_10/stack", "op": "Const", "attr": {"value": {"tensor": {"dtype": "DT_INT32", "tensorShape": {"dim": [{"size": "4"}]}}}, "dtype": {"type": "DT_INT32"}}}, {"name": "StatefulPartitionedCall/shufflenet/shufflenet_block/strided_slice_10/stack_1", "op": "Const", "attr": {"value": {"tensor": {"dtype": "DT_INT32", "tensorShape": {"dim": [{"size": "4"}]}}}, "dtype": {"type": "DT_INT32"}}}, {"name": "StatefulPartitionedCall/shufflenet/shufflenet_block/strided_slice_10/stack_2", "op": "Const", "attr": {"value": {"tensor": {"dtype": "DT_INT32", "tensorShape": {"dim": [{"size": "4"}]}}}, "dtype": {"type": "DT_INT32"}}}, {"name": "StatefulPartitionedCall/shufflenet/shufflenet_block/basic_unit/sequential_3/separable_conv2d_2/separable_conv2d/ReadVariableOp", "op": "Const", "attr": {"value": {"tensor": {"dtype": "DT_FLOAT", "tensorShape": {"dim": [{"size": "3"}, {"size": "3"}, {"size": "48"}, {"size": "1"}]}}}, "dtype": {"type": "DT_FLOAT"}}}, {"name": "StatefulPartitionedCall/shufflenet/shufflenet_block/strided_slice_4/stack", "op": "Const", "attr": {"value": {"tensor": {"dtype": "DT_INT32", "tensorShape": {"dim": [{"size": "4"}]}}}, "dtype": {"type": "DT_INT32"}}}, {"name": "StatefulPartitionedCall/shufflenet/shufflenet_block/strided_slice_4/stack_1", "op": "Const", "attr": {"value": {"tensor": {"dtype": "DT_INT32", "tensorShape": {"dim": [{"size": "4"}]}}}, "dtype": {"type": "DT_INT32"}}}, {"name": "StatefulPartitionedCall/shufflenet/shufflenet_block/strided_slice_4/stack_2", "op": "Const", "attr": {"value": {"tensor": {"dtype": "DT_INT32", "tensorShape": {"dim": [{"size": "4"}]}}}, "dtype": {"type": "DT_INT32"}}}, {"name": "StatefulPartitionedCall/shufflenet/shufflenet_block/strided_slice_5/stack", "op": "Const", "attr": {"value": {"tensor": {"dtype": "DT_INT32", "tensorShape": {"dim": [{"size": "4"}]}}}, "dtype": {"type": "DT_INT32"}}}, {"name": "StatefulPartitionedCall/shufflenet/shufflenet_block/strided_slice_5/stack_1", "op": "Const", "attr": {"value": {"tensor": {"dtype": "DT_INT32", "tensorShape": {"dim": [{"size": "4"}]}}}, "dtype": {"type": "DT_INT32"}}}, {"name": "StatefulPartitionedCall/shufflenet/shufflenet_block/strided_slice_5/stack_2", "op": "Const", "attr": {"value": {"tensor": {"dtype": "DT_INT32", "tensorShape": {"dim": [{"size": "4"}]}}}, "dtype": {"type": "DT_INT32"}}}, {"name": "StatefulPartitionedCall/shufflenet/shufflenet_block/concat_2/axis", "op": "Const", "attr": {"value": {"tensor": {"dtype": "DT_INT32", "tensorShape": {}}}, "dtype": {"type": "DT_INT32"}}}, {"name": "StatefulPartitionedCall/shufflenet/shufflenet_block/strided_slice_6/stack", "op": "Const", "attr": {"value": {"tensor": {"dtype": "DT_INT32", "tensorShape": {"dim": [{"size": "4"}]}}}, "dtype": {"type": "DT_INT32"}}}, {"name": "StatefulPartitionedCall/shufflenet/shufflenet_block/strided_slice_6/stack_1", "op": "Const", "attr": {"value": {"tensor": {"dtype": "DT_INT32", "tensorShape": {"dim": [{"size": "4"}]}}}, "dtype": {"type": "DT_INT32"}}}, {"name": "StatefulPartitionedCall/shufflenet/shufflenet_block/strided_slice_6/stack_2", "op": "Const", "attr": {"value": {"tensor": {"dtype": "DT_INT32", "tensorShape": {"dim": [{"size": "4"}]}}}, "dtype": {"type": "DT_INT32"}}}, {"name": "StatefulPartitionedCall/shufflenet/shufflenet_block/basic_unit_with_downsampling/sequential_1/separable_conv2d/separable_conv2d/ReadVariableOp", "op": "Const", "attr": {"value": {"tensor": {"dtype": "DT_FLOAT", "tensorShape": {"dim": [{"size": "3"}, {"size": "3"}, {"size": "48"}, {"size": "1"}]}}}, "dtype": {"type": "DT_FLOAT"}}}, {"name": "StatefulPartitionedCall/shufflenet/shufflenet_block/strided_slice/stack", "op": "Const", "attr": {"value": {"tensor": {"dtype": "DT_INT32", "tensorShape": {"dim": [{"size": "4"}]}}}, "dtype": {"type": "DT_INT32"}}}, {"name": "StatefulPartitionedCall/shufflenet/shufflenet_block/strided_slice/stack_1", "op": "Const", "attr": {"value": {"tensor": {"dtype": "DT_INT32", "tensorShape": {"dim": [{"size": "4"}]}}}, "dtype": {"type": "DT_INT32"}}}, {"name": "StatefulPartitionedCall/shufflenet/shufflenet_block/strided_slice/stack_2", "op": "Const", "attr": {"value": {"tensor": {"dtype": "DT_INT32", "tensorShape": {"dim": [{"size": "4"}]}}}, "dtype": {"type": "DT_INT32"}}}, {"name": "StatefulPartitionedCall/shufflenet/shufflenet_block/strided_slice_1/stack", "op": "Const", "attr": {"value": {"tensor": {"dtype": "DT_INT32", "tensorShape": {"dim": [{"size": "4"}]}}}, "dtype": {"type": "DT_INT32"}}}, {"name": "StatefulPartitionedCall/shufflenet/shufflenet_block/strided_slice_1/stack_1", "op": "Const", "attr": {"value": {"tensor": {"dtype": "DT_INT32", "tensorShape": {"dim": [{"size": "4"}]}}}, "dtype": {"type": "DT_INT32"}}}, {"name": "StatefulPartitionedCall/shufflenet/shufflenet_block/strided_slice_1/stack_2", "op": "Const", "attr": {"value": {"tensor": {"dtype": "DT_INT32", "tensorShape": {"dim": [{"size": "4"}]}}}, "dtype": {"type": "DT_INT32"}}}, {"name": "StatefulPartitionedCall/shufflenet/shufflenet_block/concat/axis", "op": "Const", "attr": {"value": {"tensor": {"dtype": "DT_INT32", "tensorShape": {}}}, "dtype": {"type": "DT_INT32"}}}, {"name": "StatefulPartitionedCall/shufflenet/shufflenet_block/strided_slice_2/stack", "op": "Const", "attr": {"value": {"tensor": {"dtype": "DT_INT32", "tensorShape": {"dim": [{"size": "4"}]}}}, "dtype": {"type": "DT_INT32"}}}, {"name": "StatefulPartitionedCall/shufflenet/shufflenet_block/strided_slice_2/stack_1", "op": "Const", "attr": {"value": {"tensor": {"dtype": "DT_INT32", "tensorShape": {"dim": [{"size": "4"}]}}}, "dtype": {"type": "DT_INT32"}}}, {"name": "StatefulPartitionedCall/shufflenet/shufflenet_block/strided_slice_2/stack_2", "op": "Const", "attr": {"value": {"tensor": {"dtype": "DT_INT32", "tensorShape": {"dim": [{"size": "4"}]}}}, "dtype": {"type": "DT_INT32"}}}, {"name": "StatefulPartitionedCall/Const", "op": "Const", "attr": {"value": {"tensor": {"dtype": "DT_FLOAT", "tensorShape": {"dim": [{"size": "3"}]}}}, "dtype": {"type": "DT_FLOAT"}}}, {"name": "ConstantFolding/StatefulPartitionedCall/truediv_recip", "op": "Const", "attr": {"value": {"tensor": {"dtype": "DT_FLOAT", "tensorShape": {"dim": [{"size": "3"}]}}}, "dtype": {"type": "DT_FLOAT"}}}, {"name": "StatefulPartitionedCall/shufflenet/shufflenet_block/basic_unit_with_downsampling/sequential_2/separable_conv2d_1/separable_conv2d/ReadVariableOp", "op": "Const", "attr": {"value": {"tensor": {"dtype": "DT_FLOAT", "tensorShape": {"dim": [{"size": "3"}, {"size": "3"}, {"size": "24"}, {"size": "1"}]}}}, "dtype": {"type": "DT_FLOAT"}}}, {"name": "StatefulPartitionedCall/shufflenet/shufflenet_block/strided_slice_3/stack", "op": "Const", "attr": {"value": {"tensor": {"dtype": "DT_INT32", "tensorShape": {"dim": [{"size": "4"}]}}}, "dtype": {"type": "DT_INT32"}}}, {"name": "StatefulPartitionedCall/shufflenet/shufflenet_block/strided_slice_3/stack_1", "op": "Const", "attr": {"value": {"tensor": {"dtype": "DT_INT32", "tensorShape": {"dim": [{"size": "4"}]}}}, "dtype": {"type": "DT_INT32"}}}, {"name": "StatefulPartitionedCall/shufflenet/shufflenet_block/strided_slice_3/stack_2", "op": "Const", "attr": {"value": {"tensor": {"dtype": "DT_INT32", "tensorShape": {"dim": [{"size": "4"}]}}}, "dtype": {"type": "DT_INT32"}}}, {"name": "StatefulPartitionedCall/shufflenet/shufflenet_block/concat_1/axis", "op": "Const", "attr": {"value": {"tensor": {"dtype": "DT_INT32", "tensorShape": {}}}, "dtype": {"type": "DT_INT32"}}}, {"name": "StatefulPartitionedCall/shufflenet/shufflenet_block/strided_slice_7/stack", "op": "Const", "attr": {"value": {"tensor": {"dtype": "DT_INT32", "tensorShape": {"dim": [{"size": "4"}]}}}, "dtype": {"type": "DT_INT32"}}}, {"name": "StatefulPartitionedCall/shufflenet/shufflenet_block/strided_slice_7/stack_1", "op": "Const", "attr": {"value": {"tensor": {"dtype": "DT_INT32", "tensorShape": {"dim": [{"size": "4"}]}}}, "dtype": {"type": "DT_INT32"}}}, {"name": "StatefulPartitionedCall/shufflenet/shufflenet_block/strided_slice_7/stack_2", "op": "Const", "attr": {"value": {"tensor": {"dtype": "DT_INT32", "tensorShape": {"dim": [{"size": "4"}]}}}, "dtype": {"type": "DT_INT32"}}}, {"name": "StatefulPartitionedCall/shufflenet/shufflenet_block/concat_3/axis", "op": "Const", "attr": {"value": {"tensor": {"dtype": "DT_INT32", "tensorShape": {}}}, "dtype": {"type": "DT_INT32"}}}, {"name": "StatefulPartitionedCall/shufflenet/shufflenet_block/strided_slice_11/stack", "op": "Const", "attr": {"value": {"tensor": {"dtype": "DT_INT32", "tensorShape": {"dim": [{"size": "4"}]}}}, "dtype": {"type": "DT_INT32"}}}, {"name": "StatefulPartitionedCall/shufflenet/shufflenet_block/strided_slice_11/stack_1", "op": "Const", "attr": {"value": {"tensor": {"dtype": "DT_INT32", "tensorShape": {"dim": [{"size": "4"}]}}}, "dtype": {"type": "DT_INT32"}}}, {"name": "StatefulPartitionedCall/shufflenet/shufflenet_block/strided_slice_11/stack_2", "op": "Const", "attr": {"value": {"tensor": {"dtype": "DT_INT32", "tensorShape": {"dim": [{"size": "4"}]}}}, "dtype": {"type": "DT_INT32"}}}, {"name": "StatefulPartitionedCall/shufflenet/shufflenet_block/concat_6/axis", "op": "Const", "attr": {"value": {"tensor": {"dtype": "DT_INT32", "tensorShape": {}}}, "dtype": {"type": "DT_INT32"}}}, {"name": "StatefulPartitionedCall/shufflenet/shufflenet_block_1/basic_unit_with_downsampling_1/sequential_7/separable_conv2d_6/separable_conv2d/ReadVariableOp", "op": "Const", "attr": {"value": {"tensor": {"dtype": "DT_FLOAT", "tensorShape": {"dim": [{"size": "3"}, {"size": "3"}, {"size": "96"}, {"size": "1"}]}}}, "dtype": {"type": "DT_FLOAT"}}}, {"name": "StatefulPartitionedCall/shufflenet/shufflenet_block_1/strided_slice_3/stack", "op": "Const", "attr": {"value": {"tensor": {"dtype": "DT_INT32", "tensorShape": {"dim": [{"size": "4"}]}}}, "dtype": {"type": "DT_INT32"}}}, {"name": "StatefulPartitionedCall/shufflenet/shufflenet_block_1/strided_slice_3/stack_1", "op": "Const", "attr": {"value": {"tensor": {"dtype": "DT_INT32", "tensorShape": {"dim": [{"size": "4"}]}}}, "dtype": {"type": "DT_INT32"}}}, {"name": "StatefulPartitionedCall/shufflenet/shufflenet_block_1/strided_slice_3/stack_2", "op": "Const", "attr": {"value": {"tensor": {"dtype": "DT_INT32", "tensorShape": {"dim": [{"size": "4"}]}}}, "dtype": {"type": "DT_INT32"}}}, {"name": "StatefulPartitionedCall/shufflenet/shufflenet_block_1/concat_1/axis", "op": "Const", "attr": {"value": {"tensor": {"dtype": "DT_INT32", "tensorShape": {}}}, "dtype": {"type": "DT_INT32"}}}, {"name": "StatefulPartitionedCall/shufflenet/shufflenet_block_1/strided_slice_7/stack", "op": "Const", "attr": {"value": {"tensor": {"dtype": "DT_INT32", "tensorShape": {"dim": [{"size": "4"}]}}}, "dtype": {"type": "DT_INT32"}}}, {"name": "StatefulPartitionedCall/shufflenet/shufflenet_block_1/strided_slice_7/stack_1", "op": "Const", "attr": {"value": {"tensor": {"dtype": "DT_INT32", "tensorShape": {"dim": [{"size": "4"}]}}}, "dtype": {"type": "DT_INT32"}}}, {"name": "StatefulPartitionedCall/shufflenet/shufflenet_block_1/strided_slice_7/stack_2", "op": "Const", "attr": {"value": {"tensor": {"dtype": "DT_INT32", "tensorShape": {"dim": [{"size": "4"}]}}}, "dtype": {"type": "DT_INT32"}}}, {"name": "StatefulPartitionedCall/shufflenet/shufflenet_block_1/concat_3/axis", "op": "Const", "attr": {"value": {"tensor": {"dtype": "DT_INT32", "tensorShape": {}}}, "dtype": {"type": "DT_INT32"}}}, {"name": "StatefulPartitionedCall/shufflenet/shufflenet_block_1/strided_slice_11/stack", "op": "Const", "attr": {"value": {"tensor": {"dtype": "DT_INT32", "tensorShape": {"dim": [{"size": "4"}]}}}, "dtype": {"type": "DT_INT32"}}}, {"name": "StatefulPartitionedCall/shufflenet/shufflenet_block_1/strided_slice_11/stack_1", "op": "Const", "attr": {"value": {"tensor": {"dtype": "DT_INT32", "tensorShape": {"dim": [{"size": "4"}]}}}, "dtype": {"type": "DT_INT32"}}}, {"name": "StatefulPartitionedCall/shufflenet/shufflenet_block_1/strided_slice_11/stack_2", "op": "Const", "attr": {"value": {"tensor": {"dtype": "DT_INT32", "tensorShape": {"dim": [{"size": "4"}]}}}, "dtype": {"type": "DT_INT32"}}}, {"name": "StatefulPartitionedCall/shufflenet/shufflenet_block_1/concat_5/axis", "op": "Const", "attr": {"value": {"tensor": {"dtype": "DT_INT32", "tensorShape": {}}}, "dtype": {"type": "DT_INT32"}}}, {"name": "StatefulPartitionedCall/shufflenet/shufflenet_block_1/strided_slice_15/stack", "op": "Const", "attr": {"value": {"tensor": {"dtype": "DT_INT32", "tensorShape": {"dim": [{"size": "4"}]}}}, "dtype": {"type": "DT_INT32"}}}, {"name": "StatefulPartitionedCall/shufflenet/shufflenet_block_1/strided_slice_15/stack_1", "op": "Const", "attr": {"value": {"tensor": {"dtype": "DT_INT32", "tensorShape": {"dim": [{"size": "4"}]}}}, "dtype": {"type": "DT_INT32"}}}, {"name": "StatefulPartitionedCall/shufflenet/shufflenet_block_1/strided_slice_15/stack_2", "op": "Const", "attr": {"value": {"tensor": {"dtype": "DT_INT32", "tensorShape": {"dim": [{"size": "4"}]}}}, "dtype": {"type": "DT_INT32"}}}, {"name": "StatefulPartitionedCall/shufflenet/shufflenet_block_1/concat_7/axis", "op": "Const", "attr": {"value": {"tensor": {"dtype": "DT_INT32", "tensorShape": {}}}, "dtype": {"type": "DT_INT32"}}}, {"name": "StatefulPartitionedCall/shufflenet/shufflenet_block_1/strided_slice_19/stack", "op": "Const", "attr": {"value": {"tensor": {"dtype": "DT_INT32", "tensorShape": {"dim": [{"size": "4"}]}}}, "dtype": {"type": "DT_INT32"}}}, {"name": "StatefulPartitionedCall/shufflenet/shufflenet_block_1/strided_slice_19/stack_1", "op": "Const", "attr": {"value": {"tensor": {"dtype": "DT_INT32", "tensorShape": {"dim": [{"size": "4"}]}}}, "dtype": {"type": "DT_INT32"}}}, {"name": "StatefulPartitionedCall/shufflenet/shufflenet_block_1/strided_slice_19/stack_2", "op": "Const", "attr": {"value": {"tensor": {"dtype": "DT_INT32", "tensorShape": {"dim": [{"size": "4"}]}}}, "dtype": {"type": "DT_INT32"}}}, {"name": "StatefulPartitionedCall/shufflenet/shufflenet_block_1/concat_9/axis", "op": "Const", "attr": {"value": {"tensor": {"dtype": "DT_INT32", "tensorShape": {}}}, "dtype": {"type": "DT_INT32"}}}, {"name": "StatefulPartitionedCall/shufflenet/shufflenet_block_1/strided_slice_23/stack", "op": "Const", "attr": {"value": {"tensor": {"dtype": "DT_INT32", "tensorShape": {"dim": [{"size": "4"}]}}}, "dtype": {"type": "DT_INT32"}}}, {"name": "StatefulPartitionedCall/shufflenet/shufflenet_block_1/strided_slice_23/stack_1", "op": "Const", "attr": {"value": {"tensor": {"dtype": "DT_INT32", "tensorShape": {"dim": [{"size": "4"}]}}}, "dtype": {"type": "DT_INT32"}}}, {"name": "StatefulPartitionedCall/shufflenet/shufflenet_block_1/strided_slice_23/stack_2", "op": "Const", "attr": {"value": {"tensor": {"dtype": "DT_INT32", "tensorShape": {"dim": [{"size": "4"}]}}}, "dtype": {"type": "DT_INT32"}}}, {"name": "StatefulPartitionedCall/shufflenet/shufflenet_block_1/concat_11/axis", "op": "Const", "attr": {"value": {"tensor": {"dtype": "DT_INT32", "tensorShape": {}}}, "dtype": {"type": "DT_INT32"}}}, {"name": "StatefulPartitionedCall/shufflenet/shufflenet_block_1/strided_slice_27/stack", "op": "Const", "attr": {"value": {"tensor": {"dtype": "DT_INT32", "tensorShape": {"dim": [{"size": "4"}]}}}, "dtype": {"type": "DT_INT32"}}}, {"name": "StatefulPartitionedCall/shufflenet/shufflenet_block_1/strided_slice_27/stack_1", "op": "Const", "attr": {"value": {"tensor": {"dtype": "DT_INT32", "tensorShape": {"dim": [{"size": "4"}]}}}, "dtype": {"type": "DT_INT32"}}}, {"name": "StatefulPartitionedCall/shufflenet/shufflenet_block_1/strided_slice_27/stack_2", "op": "Const", "attr": {"value": {"tensor": {"dtype": "DT_INT32", "tensorShape": {"dim": [{"size": "4"}]}}}, "dtype": {"type": "DT_INT32"}}}, {"name": "StatefulPartitionedCall/shufflenet/shufflenet_block_1/concat_14/axis", "op": "Const", "attr": {"value": {"tensor": {"dtype": "DT_INT32", "tensorShape": {}}}, "dtype": {"type": "DT_INT32"}}}, {"name": "StatefulPartitionedCall/shufflenet/shufflenet_block_2/basic_unit_with_downsampling_2/sequential_16/separable_conv2d_15/separable_conv2d/ReadVariableOp", "op": "Const", "attr": {"value": {"tensor": {"dtype": "DT_FLOAT", "tensorShape": {"dim": [{"size": "3"}, {"size": "3"}, {"size": "192"}, {"size": "1"}]}}}, "dtype": {"type": "DT_FLOAT"}}}, {"name": "StatefulPartitionedCall/shufflenet/shufflenet_block_2/strided_slice_3/stack", "op": "Const", "attr": {"value": {"tensor": {"dtype": "DT_INT32", "tensorShape": {"dim": [{"size": "4"}]}}}, "dtype": {"type": "DT_INT32"}}}, {"name": "StatefulPartitionedCall/shufflenet/shufflenet_block_2/strided_slice_3/stack_1", "op": "Const", "attr": {"value": {"tensor": {"dtype": "DT_INT32", "tensorShape": {"dim": [{"size": "4"}]}}}, "dtype": {"type": "DT_INT32"}}}, {"name": "StatefulPartitionedCall/shufflenet/shufflenet_block_2/strided_slice_3/stack_2", "op": "Const", "attr": {"value": {"tensor": {"dtype": "DT_INT32", "tensorShape": {"dim": [{"size": "4"}]}}}, "dtype": {"type": "DT_INT32"}}}, {"name": "StatefulPartitionedCall/shufflenet/shufflenet_block_2/concat_1/axis", "op": "Const", "attr": {"value": {"tensor": {"dtype": "DT_INT32", "tensorShape": {}}}, "dtype": {"type": "DT_INT32"}}}, {"name": "StatefulPartitionedCall/shufflenet/shufflenet_block_2/strided_slice_7/stack", "op": "Const", "attr": {"value": {"tensor": {"dtype": "DT_INT32", "tensorShape": {"dim": [{"size": "4"}]}}}, "dtype": {"type": "DT_INT32"}}}, {"name": "StatefulPartitionedCall/shufflenet/shufflenet_block_2/strided_slice_7/stack_1", "op": "Const", "attr": {"value": {"tensor": {"dtype": "DT_INT32", "tensorShape": {"dim": [{"size": "4"}]}}}, "dtype": {"type": "DT_INT32"}}}, {"name": "StatefulPartitionedCall/shufflenet/shufflenet_block_2/strided_slice_7/stack_2", "op": "Const", "attr": {"value": {"tensor": {"dtype": "DT_INT32", "tensorShape": {"dim": [{"size": "4"}]}}}, "dtype": {"type": "DT_INT32"}}}, {"name": "StatefulPartitionedCall/shufflenet/shufflenet_block_2/concat_3/axis", "op": "Const", "attr": {"value": {"tensor": {"dtype": "DT_INT32", "tensorShape": {}}}, "dtype": {"type": "DT_INT32"}}}, {"name": "StatefulPartitionedCall/shufflenet/shufflenet_block_2/strided_slice_11/stack", "op": "Const", "attr": {"value": {"tensor": {"dtype": "DT_INT32", "tensorShape": {"dim": [{"size": "4"}]}}}, "dtype": {"type": "DT_INT32"}}}, {"name": "StatefulPartitionedCall/shufflenet/shufflenet_block_2/strided_slice_11/stack_1", "op": "Const", "attr": {"value": {"tensor": {"dtype": "DT_INT32", "tensorShape": {"dim": [{"size": "4"}]}}}, "dtype": {"type": "DT_INT32"}}}, {"name": "StatefulPartitionedCall/shufflenet/shufflenet_block_2/strided_slice_11/stack_2", "op": "Const", "attr": {"value": {"tensor": {"dtype": "DT_INT32", "tensorShape": {"dim": [{"size": "4"}]}}}, "dtype": {"type": "DT_INT32"}}}, {"name": "StatefulPartitionedCall/shufflenet/shufflenet_block_2/concat_6/axis", "op": "Const", "attr": {"value": {"tensor": {"dtype": "DT_INT32", "tensorShape": {}}}, "dtype": {"type": "DT_INT32"}}}, {"name": "StatefulPartitionedCall/global_average_pooling2d_2/Mean/reduction_indices", "op": "Const", "attr": {"value": {"tensor": {"dtype": "DT_INT32", "tensorShape": {"dim": [{"size": "2"}]}}}, "dtype": {"type": "DT_INT32"}}}, {"name": "StatefulPartitionedCall/concat/axis", "op": "Const", "attr": {"value": {"tensor": {"dtype": "DT_INT32", "tensorShape": {}}}, "dtype": {"type": "DT_INT32"}}}, {"name": "StatefulPartitionedCall/simple_face_head/dense/MatMul/ReadVariableOp", "op": "Const", "attr": {"value": {"tensor": {"dtype": "DT_FLOAT", "tensorShape": {"dim": [{"size": "672"}, {"size": "143"}]}}}, "dtype": {"type": "DT_FLOAT"}}}, {"name": "StatefulPartitionedCall/simple_face_head/dense/BiasAdd/ReadVariableOp", "op": "Const", "attr": {"value": {"tensor": {"dtype": "DT_FLOAT", "tensorShape": {"dim": [{"size": "143"}]}}}, "dtype": {"type": "DT_FLOAT"}}}, {"name": "StatefulPartitionedCall/strided_slice/stack", "op": "Const", "attr": {"value": {"tensor": {"dtype": "DT_INT32", "tensorShape": {"dim": [{"size": "2"}]}}}, "dtype": {"type": "DT_INT32"}}}, {"name": "StatefulPartitionedCall/strided_slice/stack_1", "op": "Const", "attr": {"value": {"tensor": {"dtype": "DT_INT32", "tensorShape": {"dim": [{"size": "2"}]}}}, "dtype": {"type": "DT_INT32"}}}, {"name": "StatefulPartitionedCall/strided_slice/stack_2", "op": "Const", "attr": {"value": {"tensor": {"dtype": "DT_INT32", "tensorShape": {"dim": [{"size": "2"}]}}}, "dtype": {"type": "DT_INT32"}}}, {"name": "images", "op": "Placeholder", "attr": {"dtype": {"type": "DT_FLOAT"}, "shape": {"shape": {"dim": [{"size": "-1"}, {"size": "160"}, {"size": "160"}, {"size": "3"}]}}}}, {"name": "StatefulPartitionedCall/shufflenet/sequential/conv2d/Conv2D_weights", "op": "Const", "attr": {"value": {"tensor": {"dtype": "DT_FLOAT", "tensorShape": {"dim": [{"size": "3"}, {"size": "3"}, {"size": "3"}, {"size": "24"}]}}}, "dtype": {"type": "DT_FLOAT"}}}, {"name": "StatefulPartitionedCall/shufflenet/sequential/conv2d/Conv2D_bn_offset", "op": "Const", "attr": {"value": {"tensor": {"dtype": "DT_FLOAT", "tensorShape": {"dim": [{"size": "24"}]}}}, "dtype": {"type": "DT_FLOAT"}}}, {"name": "StatefulPartitionedCall/shufflenet/shufflenet_block/basic_unit_with_downsampling/sequential_1/conv2d_1/Conv2D_weights", "op": "Const", "attr": {"value": {"tensor": {"dtype": "DT_FLOAT", "tensorShape": {"dim": [{"size": "1"}, {"size": "1"}, {"size": "24"}, {"size": "48"}]}}}, "dtype": {"type": "DT_FLOAT"}}}, {"name": "StatefulPartitionedCall/shufflenet/shufflenet_block_2/basic_unit_with_downsampling_2/sequential_16/separable_conv2d_15/separable_conv2d_weights", "op": "Const", "attr": {"value": {"tensor": {"dtype": "DT_FLOAT", "tensorShape": {"dim": [{"size": "1"}, {"size": "1"}, {"size": "192"}, {"size": "192"}]}}}, "dtype": {"type": "DT_FLOAT"}}}, {"name": "StatefulPartitionedCall/shufflenet/shufflenet_block/basic_unit_with_downsampling/sequential_1/conv2d_1/Conv2D_bn_offset", "op": "Const", "attr": {"value": {"tensor": {"dtype": "DT_FLOAT", "tensorShape": {"dim": [{"size": "48"}]}}}, "dtype": {"type": "DT_FLOAT"}}}, {"name": "StatefulPartitionedCall/shufflenet/shufflenet_block/basic_unit_with_downsampling/sequential_2/separable_conv2d_1/separable_conv2d_weights", "op": "Const", "attr": {"value": {"tensor": {"dtype": "DT_FLOAT", "tensorShape": {"dim": [{"size": "1"}, {"size": "1"}, {"size": "24"}, {"size": "48"}]}}}, "dtype": {"type": "DT_FLOAT"}}}, {"name": "StatefulPartitionedCall/shufflenet/shufflenet_block_2/basic_unit_with_downsampling_2/sequential_16/separable_conv2d_15/separable_conv2d_bn_offset", "op": "Const", "attr": {"value": {"tensor": {"dtype": "DT_FLOAT", "tensorShape": {"dim": [{"size": "192"}]}}}, "dtype": {"type": "DT_FLOAT"}}}, {"name": "StatefulPartitionedCall/shufflenet/shufflenet_block/basic_unit_with_downsampling/sequential_2/separable_conv2d_1/separable_conv2d_bn_offset", "op": "Const", "attr": {"value": {"tensor": {"dtype": "DT_FLOAT", "tensorShape": {"dim": [{"size": "48"}]}}}, "dtype": {"type": "DT_FLOAT"}}}, {"name": "StatefulPartitionedCall/shufflenet/shufflenet_block_2/basic_unit_12/sequential_19/separable_conv2d_18/separable_conv2d_weights", "op": "Const", "attr": {"value": {"tensor": {"dtype": "DT_FLOAT", "tensorShape": {"dim": [{"size": "1"}, {"size": "1"}, {"size": "192"}, {"size": "192"}]}}}, "dtype": {"type": "DT_FLOAT"}}}, {"name": "StatefulPartitionedCall/shufflenet/shufflenet_block/basic_unit_with_downsampling/sequential_1/separable_conv2d/separable_conv2d_weights", "op": "Const", "attr": {"value": {"tensor": {"dtype": "DT_FLOAT", "tensorShape": {"dim": [{"size": "1"}, {"size": "1"}, {"size": "48"}, {"size": "48"}]}}}, "dtype": {"type": "DT_FLOAT"}}}, {"name": "StatefulPartitionedCall/shufflenet/shufflenet_block/basic_unit_with_downsampling/sequential_1/separable_conv2d/separable_conv2d_bn_offset", "op": "Const", "attr": {"value": {"tensor": {"dtype": "DT_FLOAT", "tensorShape": {"dim": [{"size": "48"}]}}}, "dtype": {"type": "DT_FLOAT"}}}, {"name": "StatefulPartitionedCall/shufflenet/shufflenet_block/basic_unit/sequential_3/conv2d_2/Conv2D_weights", "op": "Const", "attr": {"value": {"tensor": {"dtype": "DT_FLOAT", "tensorShape": {"dim": [{"size": "1"}, {"size": "1"}, {"size": "48"}, {"size": "48"}]}}}, "dtype": {"type": "DT_FLOAT"}}}, {"name": "StatefulPartitionedCall/shufflenet/shufflenet_block/basic_unit/sequential_3/conv2d_2/Conv2D_bn_offset", "op": "Const", "attr": {"value": {"tensor": {"dtype": "DT_FLOAT", "tensorShape": {"dim": [{"size": "48"}]}}}, "dtype": {"type": "DT_FLOAT"}}}, {"name": "StatefulPartitionedCall/shufflenet/shufflenet_block_2/basic_unit_with_downsampling_2/sequential_15/separable_conv2d_14/separable_conv2d_weights", "op": "Const", "attr": {"value": {"tensor": {"dtype": "DT_FLOAT", "tensorShape": {"dim": [{"size": "1"}, {"size": "1"}, {"size": "192"}, {"size": "192"}]}}}, "dtype": {"type": "DT_FLOAT"}}}, {"name": "StatefulPartitionedCall/shufflenet/shufflenet_block/basic_unit/sequential_3/separable_conv2d_2/separable_conv2d_weights", "op": "Const", "attr": {"value": {"tensor": {"dtype": "DT_FLOAT", "tensorShape": {"dim": [{"size": "1"}, {"size": "1"}, {"size": "48"}, {"size": "48"}]}}}, "dtype": {"type": "DT_FLOAT"}}}, {"name": "StatefulPartitionedCall/shufflenet/shufflenet_block/basic_unit/sequential_3/separable_conv2d_2/separable_conv2d_bn_offset", "op": "Const", "attr": {"value": {"tensor": {"dtype": "DT_FLOAT", "tensorShape": {"dim": [{"size": "48"}]}}}, "dtype": {"type": "DT_FLOAT"}}}, {"name": "StatefulPartitionedCall/shufflenet/shufflenet_block_2/basic_unit_with_downsampling_2/sequential_15/separable_conv2d_14/separable_conv2d_bn_offset", "op": "Const", "attr": {"value": {"tensor": {"dtype": "DT_FLOAT", "tensorShape": {"dim": [{"size": "192"}]}}}, "dtype": {"type": "DT_FLOAT"}}}, {"name": "StatefulPartitionedCall/shufflenet/shufflenet_block/basic_unit_1/sequential_4/conv2d_3/Conv2D_weights", "op": "Const", "attr": {"value": {"tensor": {"dtype": "DT_FLOAT", "tensorShape": {"dim": [{"size": "1"}, {"size": "1"}, {"size": "48"}, {"size": "48"}]}}}, "dtype": {"type": "DT_FLOAT"}}}, {"name": "StatefulPartitionedCall/shufflenet/shufflenet_block_2/basic_unit_12/sequential_19/separable_conv2d_18/separable_conv2d_bn_offset", "op": "Const", "attr": {"value": {"tensor": {"dtype": "DT_FLOAT", "tensorShape": {"dim": [{"size": "192"}]}}}, "dtype": {"type": "DT_FLOAT"}}}, {"name": "StatefulPartitionedCall/shufflenet/shufflenet_block/basic_unit_1/sequential_4/conv2d_3/Conv2D_bn_offset", "op": "Const", "attr": {"value": {"tensor": {"dtype": "DT_FLOAT", "tensorShape": {"dim": [{"size": "48"}]}}}, "dtype": {"type": "DT_FLOAT"}}}, {"name": "StatefulPartitionedCall/shufflenet/shufflenet_block/basic_unit_1/sequential_4/separable_conv2d_3/separable_conv2d_weights", "op": "Const", "attr": {"value": {"tensor": {"dtype": "DT_FLOAT", "tensorShape": {"dim": [{"size": "1"}, {"size": "1"}, {"size": "48"}, {"size": "48"}]}}}, "dtype": {"type": "DT_FLOAT"}}}, {"name": "StatefulPartitionedCall/shufflenet/shufflenet_block/basic_unit_1/sequential_4/separable_conv2d_3/separable_conv2d_bn_offset", "op": "Const", "attr": {"value": {"tensor": {"dtype": "DT_FLOAT", "tensorShape": {"dim": [{"size": "48"}]}}}, "dtype": {"type": "DT_FLOAT"}}}, {"name": "StatefulPartitionedCall/shufflenet/shufflenet_block/basic_unit_2/sequential_5/conv2d_4/Conv2D_weights", "op": "Const", "attr": {"value": {"tensor": {"dtype": "DT_FLOAT", "tensorShape": {"dim": [{"size": "1"}, {"size": "1"}, {"size": "48"}, {"size": "48"}]}}}, "dtype": {"type": "DT_FLOAT"}}}, {"name": "StatefulPartitionedCall/shufflenet/shufflenet_block/basic_unit_2/sequential_5/conv2d_4/Conv2D_bn_offset", "op": "Const", "attr": {"value": {"tensor": {"dtype": "DT_FLOAT", "tensorShape": {"dim": [{"size": "48"}]}}}, "dtype": {"type": "DT_FLOAT"}}}, {"name": "StatefulPartitionedCall/shufflenet/shufflenet_block/basic_unit_2/sequential_5/separable_conv2d_4/separable_conv2d_weights", "op": "Const", "attr": {"value": {"tensor": {"dtype": "DT_FLOAT", "tensorShape": {"dim": [{"size": "1"}, {"size": "1"}, {"size": "48"}, {"size": "48"}]}}}, "dtype": {"type": "DT_FLOAT"}}}, {"name": "StatefulPartitionedCall/shufflenet/shufflenet_block/basic_unit_2/sequential_5/separable_conv2d_4/separable_conv2d_bn_offset", "op": "Const", "attr": {"value": {"tensor": {"dtype": "DT_FLOAT", "tensorShape": {"dim": [{"size": "48"}]}}}, "dtype": {"type": "DT_FLOAT"}}}, {"name": "StatefulPartitionedCall/shufflenet/shufflenet_block_1/basic_unit_with_downsampling_1/sequential_6/conv2d_5/Conv2D_weights", "op": "Const", "attr": {"value": {"tensor": {"dtype": "DT_FLOAT", "tensorShape": {"dim": [{"size": "1"}, {"size": "1"}, {"size": "96"}, {"size": "96"}]}}}, "dtype": {"type": "DT_FLOAT"}}}, {"name": "StatefulPartitionedCall/shufflenet/shufflenet_block_2/basic_unit_10/sequential_17/conv2d_14/Conv2D_weights", "op": "Const", "attr": {"value": {"tensor": {"dtype": "DT_FLOAT", "tensorShape": {"dim": [{"size": "1"}, {"size": "1"}, {"size": "192"}, {"size": "192"}]}}}, "dtype": {"type": "DT_FLOAT"}}}, {"name": "StatefulPartitionedCall/shufflenet/shufflenet_block_1/basic_unit_with_downsampling_1/sequential_6/conv2d_5/Conv2D_bn_offset", "op": "Const", "attr": {"value": {"tensor": {"dtype": "DT_FLOAT", "tensorShape": {"dim": [{"size": "96"}]}}}, "dtype": {"type": "DT_FLOAT"}}}, {"name": "StatefulPartitionedCall/shufflenet/shufflenet_block_1/basic_unit_with_downsampling_1/sequential_7/separable_conv2d_6/separable_conv2d_weights", "op": "Const", "attr": {"value": {"tensor": {"dtype": "DT_FLOAT", "tensorShape": {"dim": [{"size": "1"}, {"size": "1"}, {"size": "96"}, {"size": "96"}]}}}, "dtype": {"type": "DT_FLOAT"}}}, {"name": "StatefulPartitionedCall/shufflenet/shufflenet_block_2/basic_unit_10/sequential_17/conv2d_14/Conv2D_bn_offset", "op": "Const", "attr": {"value": {"tensor": {"dtype": "DT_FLOAT", "tensorShape": {"dim": [{"size": "192"}]}}}, "dtype": {"type": "DT_FLOAT"}}}, {"name": "StatefulPartitionedCall/shufflenet/shufflenet_block_1/basic_unit_with_downsampling_1/sequential_7/separable_conv2d_6/separable_conv2d_bn_offset", "op": "Const", "attr": {"value": {"tensor": {"dtype": "DT_FLOAT", "tensorShape": {"dim": [{"size": "96"}]}}}, "dtype": {"type": "DT_FLOAT"}}}, {"name": "StatefulPartitionedCall/shufflenet/shufflenet_block_1/basic_unit_with_downsampling_1/sequential_6/separable_conv2d_5/separable_conv2d_weights", "op": "Const", "attr": {"value": {"tensor": {"dtype": "DT_FLOAT", "tensorShape": {"dim": [{"size": "1"}, {"size": "1"}, {"size": "96"}, {"size": "96"}]}}}, "dtype": {"type": "DT_FLOAT"}}}, {"name": "StatefulPartitionedCall/shufflenet/shufflenet_block_1/basic_unit_with_downsampling_1/sequential_6/separable_conv2d_5/separable_conv2d_bn_offset", "op": "Const", "attr": {"value": {"tensor": {"dtype": "DT_FLOAT", "tensorShape": {"dim": [{"size": "96"}]}}}, "dtype": {"type": "DT_FLOAT"}}}, {"name": "StatefulPartitionedCall/shufflenet/shufflenet_block_1/basic_unit_3/sequential_8/conv2d_6/Conv2D_weights", "op": "Const", "attr": {"value": {"tensor": {"dtype": "DT_FLOAT", "tensorShape": {"dim": [{"size": "1"}, {"size": "1"}, {"size": "96"}, {"size": "96"}]}}}, "dtype": {"type": "DT_FLOAT"}}}, {"name": "StatefulPartitionedCall/shufflenet/shufflenet_block_2/basic_unit_10/sequential_17/separable_conv2d_16/separable_conv2d_weights", "op": "Const", "attr": {"value": {"tensor": {"dtype": "DT_FLOAT", "tensorShape": {"dim": [{"size": "1"}, {"size": "1"}, {"size": "192"}, {"size": "192"}]}}}, "dtype": {"type": "DT_FLOAT"}}}, {"name": "StatefulPartitionedCall/shufflenet/shufflenet_block_1/basic_unit_3/sequential_8/conv2d_6/Conv2D_bn_offset", "op": "Const", "attr": {"value": {"tensor": {"dtype": "DT_FLOAT", "tensorShape": {"dim": [{"size": "96"}]}}}, "dtype": {"type": "DT_FLOAT"}}}, {"name": "StatefulPartitionedCall/shufflenet/shufflenet_block_1/basic_unit_3/sequential_8/separable_conv2d_7/separable_conv2d_weights", "op": "Const", "attr": {"value": {"tensor": {"dtype": "DT_FLOAT", "tensorShape": {"dim": [{"size": "1"}, {"size": "1"}, {"size": "96"}, {"size": "96"}]}}}, "dtype": {"type": "DT_FLOAT"}}}, {"name": "StatefulPartitionedCall/shufflenet/shufflenet_block_2/basic_unit_10/sequential_17/separable_conv2d_16/separable_conv2d_bn_offset", "op": "Const", "attr": {"value": {"tensor": {"dtype": "DT_FLOAT", "tensorShape": {"dim": [{"size": "192"}]}}}, "dtype": {"type": "DT_FLOAT"}}}, {"name": "StatefulPartitionedCall/shufflenet/shufflenet_block_1/basic_unit_3/sequential_8/separable_conv2d_7/separable_conv2d_bn_offset", "op": "Const", "attr": {"value": {"tensor": {"dtype": "DT_FLOAT", "tensorShape": {"dim": [{"size": "96"}]}}}, "dtype": {"type": "DT_FLOAT"}}}, {"name": "StatefulPartitionedCall/shufflenet/shufflenet_block_1/basic_unit_4/sequential_9/conv2d_7/Conv2D_weights", "op": "Const", "attr": {"value": {"tensor": {"dtype": "DT_FLOAT", "tensorShape": {"dim": [{"size": "1"}, {"size": "1"}, {"size": "96"}, {"size": "96"}]}}}, "dtype": {"type": "DT_FLOAT"}}}, {"name": "StatefulPartitionedCall/shufflenet/shufflenet_block_1/basic_unit_4/sequential_9/conv2d_7/Conv2D_bn_offset", "op": "Const", "attr": {"value": {"tensor": {"dtype": "DT_FLOAT", "tensorShape": {"dim": [{"size": "96"}]}}}, "dtype": {"type": "DT_FLOAT"}}}, {"name": "StatefulPartitionedCall/shufflenet/shufflenet_block_1/basic_unit_4/sequential_9/separable_conv2d_8/separable_conv2d_weights", "op": "Const", "attr": {"value": {"tensor": {"dtype": "DT_FLOAT", "tensorShape": {"dim": [{"size": "1"}, {"size": "1"}, {"size": "96"}, {"size": "96"}]}}}, "dtype": {"type": "DT_FLOAT"}}}, {"name": "StatefulPartitionedCall/shufflenet/shufflenet_block_1/basic_unit_4/sequential_9/separable_conv2d_8/separable_conv2d_bn_offset", "op": "Const", "attr": {"value": {"tensor": {"dtype": "DT_FLOAT", "tensorShape": {"dim": [{"size": "96"}]}}}, "dtype": {"type": "DT_FLOAT"}}}, {"name": "StatefulPartitionedCall/shufflenet/shufflenet_block_1/basic_unit_5/sequential_10/conv2d_8/Conv2D_weights", "op": "Const", "attr": {"value": {"tensor": {"dtype": "DT_FLOAT", "tensorShape": {"dim": [{"size": "1"}, {"size": "1"}, {"size": "96"}, {"size": "96"}]}}}, "dtype": {"type": "DT_FLOAT"}}}, {"name": "StatefulPartitionedCall/shufflenet/shufflenet_block_1/basic_unit_5/sequential_10/conv2d_8/Conv2D_bn_offset", "op": "Const", "attr": {"value": {"tensor": {"dtype": "DT_FLOAT", "tensorShape": {"dim": [{"size": "96"}]}}}, "dtype": {"type": "DT_FLOAT"}}}, {"name": "StatefulPartitionedCall/shufflenet/shufflenet_block_1/basic_unit_5/sequential_10/separable_conv2d_9/separable_conv2d_weights", "op": "Const", "attr": {"value": {"tensor": {"dtype": "DT_FLOAT", "tensorShape": {"dim": [{"size": "1"}, {"size": "1"}, {"size": "96"}, {"size": "96"}]}}}, "dtype": {"type": "DT_FLOAT"}}}, {"name": "StatefulPartitionedCall/shufflenet/shufflenet_block_1/basic_unit_5/sequential_10/separable_conv2d_9/separable_conv2d_bn_offset", "op": "Const", "attr": {"value": {"tensor": {"dtype": "DT_FLOAT", "tensorShape": {"dim": [{"size": "96"}]}}}, "dtype": {"type": "DT_FLOAT"}}}, {"name": "StatefulPartitionedCall/shufflenet/shufflenet_block_2/basic_unit_11/sequential_18/conv2d_15/Conv2D_weights", "op": "Const", "attr": {"value": {"tensor": {"dtype": "DT_FLOAT", "tensorShape": {"dim": [{"size": "1"}, {"size": "1"}, {"size": "192"}, {"size": "192"}]}}}, "dtype": {"type": "DT_FLOAT"}}}, {"name": "StatefulPartitionedCall/shufflenet/shufflenet_block_1/basic_unit_6/sequential_11/conv2d_9/Conv2D_weights", "op": "Const", "attr": {"value": {"tensor": {"dtype": "DT_FLOAT", "tensorShape": {"dim": [{"size": "1"}, {"size": "1"}, {"size": "96"}, {"size": "96"}]}}}, "dtype": {"type": "DT_FLOAT"}}}, {"name": "StatefulPartitionedCall/shufflenet/shufflenet_block_1/basic_unit_6/sequential_11/conv2d_9/Conv2D_bn_offset", "op": "Const", "attr": {"value": {"tensor": {"dtype": "DT_FLOAT", "tensorShape": {"dim": [{"size": "96"}]}}}, "dtype": {"type": "DT_FLOAT"}}}, {"name": "StatefulPartitionedCall/shufflenet/shufflenet_block_2/basic_unit_11/sequential_18/conv2d_15/Conv2D_bn_offset", "op": "Const", "attr": {"value": {"tensor": {"dtype": "DT_FLOAT", "tensorShape": {"dim": [{"size": "192"}]}}}, "dtype": {"type": "DT_FLOAT"}}}, {"name": "StatefulPartitionedCall/shufflenet/shufflenet_block_1/basic_unit_6/sequential_11/separable_conv2d_10/separable_conv2d_weights", "op": "Const", "attr": {"value": {"tensor": {"dtype": "DT_FLOAT", "tensorShape": {"dim": [{"size": "1"}, {"size": "1"}, {"size": "96"}, {"size": "96"}]}}}, "dtype": {"type": "DT_FLOAT"}}}, {"name": "StatefulPartitionedCall/shufflenet/shufflenet_block_1/basic_unit_6/sequential_11/separable_conv2d_10/separable_conv2d_bn_offset", "op": "Const", "attr": {"value": {"tensor": {"dtype": "DT_FLOAT", "tensorShape": {"dim": [{"size": "96"}]}}}, "dtype": {"type": "DT_FLOAT"}}}, {"name": "StatefulPartitionedCall/shufflenet/shufflenet_block_1/basic_unit_7/sequential_12/conv2d_10/Conv2D_weights", "op": "Const", "attr": {"value": {"tensor": {"dtype": "DT_FLOAT", "tensorShape": {"dim": [{"size": "1"}, {"size": "1"}, {"size": "96"}, {"size": "96"}]}}}, "dtype": {"type": "DT_FLOAT"}}}, {"name": "StatefulPartitionedCall/shufflenet/shufflenet_block_1/basic_unit_7/sequential_12/conv2d_10/Conv2D_bn_offset", "op": "Const", "attr": {"value": {"tensor": {"dtype": "DT_FLOAT", "tensorShape": {"dim": [{"size": "96"}]}}}, "dtype": {"type": "DT_FLOAT"}}}, {"name": "StatefulPartitionedCall/shufflenet/shufflenet_block_2/basic_unit_11/sequential_18/separable_conv2d_17/separable_conv2d_weights", "op": "Const", "attr": {"value": {"tensor": {"dtype": "DT_FLOAT", "tensorShape": {"dim": [{"size": "1"}, {"size": "1"}, {"size": "192"}, {"size": "192"}]}}}, "dtype": {"type": "DT_FLOAT"}}}, {"name": "StatefulPartitionedCall/shufflenet/shufflenet_block_1/basic_unit_7/sequential_12/separable_conv2d_11/separable_conv2d_weights", "op": "Const", "attr": {"value": {"tensor": {"dtype": "DT_FLOAT", "tensorShape": {"dim": [{"size": "1"}, {"size": "1"}, {"size": "96"}, {"size": "96"}]}}}, "dtype": {"type": "DT_FLOAT"}}}, {"name": "StatefulPartitionedCall/shufflenet/shufflenet_block_1/basic_unit_7/sequential_12/separable_conv2d_11/separable_conv2d_bn_offset", "op": "Const", "attr": {"value": {"tensor": {"dtype": "DT_FLOAT", "tensorShape": {"dim": [{"size": "96"}]}}}, "dtype": {"type": "DT_FLOAT"}}}, {"name": "StatefulPartitionedCall/shufflenet/shufflenet_block_2/basic_unit_11/sequential_18/separable_conv2d_17/separable_conv2d_bn_offset", "op": "Const", "attr": {"value": {"tensor": {"dtype": "DT_FLOAT", "tensorShape": {"dim": [{"size": "192"}]}}}, "dtype": {"type": "DT_FLOAT"}}}, {"name": "StatefulPartitionedCall/shufflenet/shufflenet_block_1/basic_unit_8/sequential_13/conv2d_11/Conv2D_weights", "op": "Const", "attr": {"value": {"tensor": {"dtype": "DT_FLOAT", "tensorShape": {"dim": [{"size": "1"}, {"size": "1"}, {"size": "96"}, {"size": "96"}]}}}, "dtype": {"type": "DT_FLOAT"}}}, {"name": "StatefulPartitionedCall/shufflenet/shufflenet_block_1/basic_unit_8/sequential_13/conv2d_11/Conv2D_bn_offset", "op": "Const", "attr": {"value": {"tensor": {"dtype": "DT_FLOAT", "tensorShape": {"dim": [{"size": "96"}]}}}, "dtype": {"type": "DT_FLOAT"}}}, {"name": "StatefulPartitionedCall/shufflenet/shufflenet_block_1/basic_unit_8/sequential_13/separable_conv2d_12/separable_conv2d_weights", "op": "Const", "attr": {"value": {"tensor": {"dtype": "DT_FLOAT", "tensorShape": {"dim": [{"size": "1"}, {"size": "1"}, {"size": "96"}, {"size": "96"}]}}}, "dtype": {"type": "DT_FLOAT"}}}, {"name": "StatefulPartitionedCall/shufflenet/shufflenet_block_1/basic_unit_8/sequential_13/separable_conv2d_12/separable_conv2d_bn_offset", "op": "Const", "attr": {"value": {"tensor": {"dtype": "DT_FLOAT", "tensorShape": {"dim": [{"size": "96"}]}}}, "dtype": {"type": "DT_FLOAT"}}}, {"name": "StatefulPartitionedCall/shufflenet/shufflenet_block_1/basic_unit_9/sequential_14/conv2d_12/Conv2D_weights", "op": "Const", "attr": {"value": {"tensor": {"dtype": "DT_FLOAT", "tensorShape": {"dim": [{"size": "1"}, {"size": "1"}, {"size": "96"}, {"size": "96"}]}}}, "dtype": {"type": "DT_FLOAT"}}}, {"name": "StatefulPartitionedCall/shufflenet/shufflenet_block_1/basic_unit_9/sequential_14/conv2d_12/Conv2D_bn_offset", "op": "Const", "attr": {"value": {"tensor": {"dtype": "DT_FLOAT", "tensorShape": {"dim": [{"size": "96"}]}}}, "dtype": {"type": "DT_FLOAT"}}}, {"name": "StatefulPartitionedCall/shufflenet/shufflenet_block_2/basic_unit_12/sequential_19/conv2d_16/Conv2D_weights", "op": "Const", "attr": {"value": {"tensor": {"dtype": "DT_FLOAT", "tensorShape": {"dim": [{"size": "1"}, {"size": "1"}, {"size": "192"}, {"size": "192"}]}}}, "dtype": {"type": "DT_FLOAT"}}}, {"name": "StatefulPartitionedCall/shufflenet/shufflenet_block_1/basic_unit_9/sequential_14/separable_conv2d_13/separable_conv2d_weights", "op": "Const", "attr": {"value": {"tensor": {"dtype": "DT_FLOAT", "tensorShape": {"dim": [{"size": "1"}, {"size": "1"}, {"size": "96"}, {"size": "96"}]}}}, "dtype": {"type": "DT_FLOAT"}}}, {"name": "StatefulPartitionedCall/shufflenet/shufflenet_block_1/basic_unit_9/sequential_14/separable_conv2d_13/separable_conv2d_bn_offset", "op": "Const", "attr": {"value": {"tensor": {"dtype": "DT_FLOAT", "tensorShape": {"dim": [{"size": "96"}]}}}, "dtype": {"type": "DT_FLOAT"}}}, {"name": "StatefulPartitionedCall/shufflenet/shufflenet_block_2/basic_unit_12/sequential_19/conv2d_16/Conv2D_bn_offset", "op": "Const", "attr": {"value": {"tensor": {"dtype": "DT_FLOAT", "tensorShape": {"dim": [{"size": "192"}]}}}, "dtype": {"type": "DT_FLOAT"}}}, {"name": "StatefulPartitionedCall/shufflenet/shufflenet_block_2/basic_unit_with_downsampling_2/sequential_15/conv2d_13/Conv2D_weights", "op": "Const", "attr": {"value": {"tensor": {"dtype": "DT_FLOAT", "tensorShape": {"dim": [{"size": "1"}, {"size": "1"}, {"size": "192"}, {"size": "192"}]}}}, "dtype": {"type": "DT_FLOAT"}}}, {"name": "StatefulPartitionedCall/shufflenet/shufflenet_block_2/basic_unit_with_downsampling_2/sequential_15/conv2d_13/Conv2D_bn_offset", "op": "Const", "attr": {"value": {"tensor": {"dtype": "DT_FLOAT", "tensorShape": {"dim": [{"size": "192"}]}}}, "dtype": {"type": "DT_FLOAT"}}}, {"name": "StatefulPartitionedCall/sub", "op": "Sub", "input": ["images", "StatefulPartitionedCall/Const"], "attr": {"T": {"type": "DT_FLOAT"}}}, {"name": "StatefulPartitionedCall/truediv", "op": "Mul", "input": ["StatefulPartitionedCall/sub", "ConstantFolding/StatefulPartitionedCall/truediv_recip"], "attr": {"T": {"type": "DT_FLOAT"}}}, {"name": "StatefulPartitionedCall/shufflenet/sequential/re_lu/Relu", "op": "_FusedConv2D", "input": ["StatefulPartitionedCall/truediv", "StatefulPartitionedCall/shufflenet/sequential/conv2d/Conv2D_weights", "StatefulPartitionedCall/shufflenet/sequential/conv2d/Conv2D_bn_offset"], "device": "/device:CPU:0", "attr": {"explicit_paddings": {"list": {}}, "use_cudnn_on_gpu": {"b": true}, "num_args": {"i": "1"}, "epsilon": {"f": 0.0}, "padding": {"s": "U0FNRQ=="}, "fused_ops": {"list": {"s": ["Qmlhc0FkZA==", "UmVsdQ=="]}}, "dilations": {"list": {"i": ["1", "1", "1", "1"]}}, "T": {"type": "DT_FLOAT"}, "data_format": {"s": "TkhXQw=="}, "strides": {"list": {"i": ["1", "2", "2", "1"]}}}}, {"name": "StatefulPartitionedCall/shufflenet/sequential/max_pooling2d/MaxPool", "op": "MaxPool", "input": ["StatefulPartitionedCall/shufflenet/sequential/re_lu/Relu"], "attr": {"padding": {"s": "VkFMSUQ="}, "T": {"type": "DT_FLOAT"}, "data_format": {"s": "TkhXQw=="}, "strides": {"list": {"i": ["1", "2", "2", "1"]}}, "ksize": {"list": {"i": ["1", "3", "3", "1"]}}}}, {"name": "StatefulPartitionedCall/shufflenet/shufflenet_block/basic_unit_with_downsampling/sequential_2/separable_conv2d_1/separable_conv2d/depthwise", "op": "DepthwiseConv2dNative", "input": ["StatefulPartitionedCall/shufflenet/sequential/max_pooling2d/MaxPool", "StatefulPartitionedCall/shufflenet/shufflenet_block/basic_unit_with_downsampling/sequential_2/separable_conv2d_1/separable_conv2d/ReadVariableOp"], "attr": {"data_format": {"s": "TkhXQw=="}, "strides": {"list": {"i": ["1", "2", "2", "1"]}}, "explicit_paddings": {"list": {}}, "padding": {"s": "U0FNRQ=="}, "dilations": {"list": {"i": ["1", "1", "1", "1"]}}, "T": {"type": "DT_FLOAT"}}}, {"name": "StatefulPartitionedCall/shufflenet/shufflenet_block/basic_unit_with_downsampling/sequential_1/re_lu_1/Relu", "op": "_FusedConv2D", "input": ["StatefulPartitionedCall/shufflenet/sequential/max_pooling2d/MaxPool", "StatefulPartitionedCall/shufflenet/shufflenet_block/basic_unit_with_downsampling/sequential_1/conv2d_1/Conv2D_weights", "StatefulPartitionedCall/shufflenet/shufflenet_block/basic_unit_with_downsampling/sequential_1/conv2d_1/Conv2D_bn_offset"], "device": "/device:CPU:0", "attr": {"dilations": {"list": {"i": ["1", "1", "1", "1"]}}, "T": {"type": "DT_FLOAT"}, "strides": {"list": {"i": ["1", "1", "1", "1"]}}, "data_format": {"s": "TkhXQw=="}, "explicit_paddings": {"list": {}}, "use_cudnn_on_gpu": {"b": true}, "num_args": {"i": "1"}, "epsilon": {"f": 0.0}, "padding": {"s": "U0FNRQ=="}, "fused_ops": {"list": {"s": ["Qmlhc0FkZA==", "UmVsdQ=="]}}}}, {"name": "StatefulPartitionedCall/shufflenet/shufflenet_block/basic_unit_with_downsampling/sequential_2/re_lu_3/Relu", "op": "_FusedConv2D", "input": ["StatefulPartitionedCall/shufflenet/shufflenet_block/basic_unit_with_downsampling/sequential_2/separable_conv2d_1/separable_conv2d/depthwise", "StatefulPartitionedCall/shufflenet/shufflenet_block/basic_unit_with_downsampling/sequential_2/separable_conv2d_1/separable_conv2d_weights", "StatefulPartitionedCall/shufflenet/shufflenet_block/basic_unit_with_downsampling/sequential_2/separable_conv2d_1/separable_conv2d_bn_offset"], "device": "/device:CPU:0", "attr": {"padding": {"s": "VkFMSUQ="}, "fused_ops": {"list": {"s": ["Qmlhc0FkZA==", "UmVsdQ=="]}}, "dilations": {"list": {"i": ["1", "1", "1", "1"]}}, "T": {"type": "DT_FLOAT"}, "strides": {"list": {"i": ["1", "1", "1", "1"]}}, "data_format": {"s": "TkhXQw=="}, "use_cudnn_on_gpu": {"b": true}, "explicit_paddings": {"list": {}}, "num_args": {"i": "1"}, "epsilon": {"f": 0.0}}}, {"name": "StatefulPartitionedCall/shufflenet/shufflenet_block/basic_unit_with_downsampling/sequential_1/separable_conv2d/separable_conv2d/depthwise", "op": "DepthwiseConv2dNative", "input": ["StatefulPartitionedCall/shufflenet/shufflenet_block/basic_unit_with_downsampling/sequential_1/re_lu_1/Relu", "StatefulPartitionedCall/shufflenet/shufflenet_block/basic_unit_with_downsampling/sequential_1/separable_conv2d/separable_conv2d/ReadVariableOp"], "attr": {"explicit_paddings": {"list": {}}, "padding": {"s": "U0FNRQ=="}, "dilations": {"list": {"i": ["1", "1", "1", "1"]}}, "T": {"type": "DT_FLOAT"}, "strides": {"list": {"i": ["1", "2", "2", "1"]}}, "data_format": {"s": "TkhXQw=="}}}, {"name": "StatefulPartitionedCall/shufflenet/shufflenet_block/strided_slice_1", "op": "StridedSlice", "input": ["StatefulPartitionedCall/shufflenet/shufflenet_block/basic_unit_with_downsampling/sequential_2/re_lu_3/Relu", "StatefulPartitionedCall/shufflenet/shufflenet_block/strided_slice_1/stack", "StatefulPartitionedCall/shufflenet/shufflenet_block/strided_slice_1/stack_1", "StatefulPartitionedCall/shufflenet/shufflenet_block/strided_slice_1/stack_2"], "attr": {"new_axis_mask": {"i": "0"}, "end_mask": {"i": "15"}, "T": {"type": "DT_FLOAT"}, "Index": {"type": "DT_INT32"}, "shrink_axis_mask": {"i": "0"}, "begin_mask": {"i": "7"}, "ellipsis_mask": {"i": "0"}}}, {"name": "StatefulPartitionedCall/shufflenet/shufflenet_block/strided_slice_3", "op": "StridedSlice", "input": ["StatefulPartitionedCall/shufflenet/shufflenet_block/basic_unit_with_downsampling/sequential_2/re_lu_3/Relu", "StatefulPartitionedCall/shufflenet/shufflenet_block/strided_slice_3/stack", "StatefulPartitionedCall/shufflenet/shufflenet_block/strided_slice_3/stack_1", "StatefulPartitionedCall/shufflenet/shufflenet_block/strided_slice_3/stack_2"], "attr": {"Index": {"type": "DT_INT32"}, "T": {"type": "DT_FLOAT"}, "shrink_axis_mask": {"i": "0"}, "ellipsis_mask": {"i": "0"}, "begin_mask": {"i": "7"}, "new_axis_mask": {"i": "0"}, "end_mask": {"i": "15"}}}, {"name": "StatefulPartitionedCall/shufflenet/shufflenet_block/basic_unit_with_downsampling/sequential_1/re_lu_2/Relu", "op": "_FusedConv2D", "input": ["StatefulPartitionedCall/shufflenet/shufflenet_block/basic_unit_with_downsampling/sequential_1/separable_conv2d/separable_conv2d/depthwise", "StatefulPartitionedCall/shufflenet/shufflenet_block/basic_unit_with_downsampling/sequential_1/separable_conv2d/separable_conv2d_weights", "StatefulPartitionedCall/shufflenet/shufflenet_block/basic_unit_with_downsampling/sequential_1/separable_conv2d/separable_conv2d_bn_offset"], "device": "/device:CPU:0", "attr": {"padding": {"s": "VkFMSUQ="}, "fused_ops": {"list": {"s": ["Qmlhc0FkZA==", "UmVsdQ=="]}}, "dilations": {"list": {"i": ["1", "1", "1", "1"]}}, "T": {"type": "DT_FLOAT"}, "strides": {"list": {"i": ["1", "1", "1", "1"]}}, "data_format": {"s": "TkhXQw=="}, "use_cudnn_on_gpu": {"b": true}, "explicit_paddings": {"list": {}}, "num_args": {"i": "1"}, "epsilon": {"f": 0.0}}}, {"name": "StatefulPartitionedCall/shufflenet/shufflenet_block/strided_slice", "op": "StridedSlice", "input": ["StatefulPartitionedCall/shufflenet/shufflenet_block/basic_unit_with_downsampling/sequential_1/re_lu_2/Relu", "StatefulPartitionedCall/shufflenet/shufflenet_block/strided_slice/stack", "StatefulPartitionedCall/shufflenet/shufflenet_block/strided_slice/stack_1", "StatefulPartitionedCall/shufflenet/shufflenet_block/strided_slice/stack_2"], "attr": {"begin_mask": {"i": "7"}, "ellipsis_mask": {"i": "0"}, "new_axis_mask": {"i": "0"}, "end_mask": {"i": "15"}, "Index": {"type": "DT_INT32"}, "T": {"type": "DT_FLOAT"}, "shrink_axis_mask": {"i": "0"}}}, {"name": "StatefulPartitionedCall/shufflenet/shufflenet_block/concat", "op": "ConcatV2", "input": ["StatefulPartitionedCall/shufflenet/shufflenet_block/strided_slice", "StatefulPartitionedCall/shufflenet/shufflenet_block/strided_slice_1", "StatefulPartitionedCall/shufflenet/shufflenet_block/concat/axis"], "attr": {"N": {"i": "2"}, "Tidx": {"type": "DT_INT32"}, "T": {"type": "DT_FLOAT"}}}, {"name": "StatefulPartitionedCall/shufflenet/shufflenet_block/strided_slice_2", "op": "StridedSlice", "input": ["StatefulPartitionedCall/shufflenet/shufflenet_block/concat", "StatefulPartitionedCall/shufflenet/shufflenet_block/strided_slice_2/stack", "StatefulPartitionedCall/shufflenet/shufflenet_block/strided_slice_2/stack_1", "StatefulPartitionedCall/shufflenet/shufflenet_block/strided_slice_2/stack_2"], "attr": {"new_axis_mask": {"i": "0"}, "end_mask": {"i": "15"}, "T": {"type": "DT_FLOAT"}, "Index": {"type": "DT_INT32"}, "shrink_axis_mask": {"i": "0"}, "ellipsis_mask": {"i": "0"}, "begin_mask": {"i": "7"}}}, {"name": "StatefulPartitionedCall/shufflenet/shufflenet_block/basic_unit/sequential_3/re_lu_4/Relu", "op": "_FusedConv2D", "input": ["StatefulPartitionedCall/shufflenet/shufflenet_block/concat", "StatefulPartitionedCall/shufflenet/shufflenet_block/basic_unit/sequential_3/conv2d_2/Conv2D_weights", "StatefulPartitionedCall/shufflenet/shufflenet_block/basic_unit/sequential_3/conv2d_2/Conv2D_bn_offset"], "device": "/device:CPU:0", "attr": {"use_cudnn_on_gpu": {"b": true}, "explicit_paddings": {"list": {}}, "num_args": {"i": "1"}, "epsilon": {"f": 0.0}, "padding": {"s": "U0FNRQ=="}, "fused_ops": {"list": {"s": ["Qmlhc0FkZA==", "UmVsdQ=="]}}, "dilations": {"list": {"i": ["1", "1", "1", "1"]}}, "T": {"type": "DT_FLOAT"}, "data_format": {"s": "TkhXQw=="}, "strides": {"list": {"i": ["1", "1", "1", "1"]}}}}, {"name": "StatefulPartitionedCall/shufflenet/shufflenet_block/concat_1", "op": "ConcatV2", "input": ["StatefulPartitionedCall/shufflenet/shufflenet_block/strided_slice_2", "StatefulPartitionedCall/shufflenet/shufflenet_block/strided_slice_3", "StatefulPartitionedCall/shufflenet/shufflenet_block/concat_1/axis"], "attr": {"Tidx": {"type": "DT_INT32"}, "T": {"type": "DT_FLOAT"}, "N": {"i": "2"}}}, {"name": "StatefulPartitionedCall/shufflenet/shufflenet_block/basic_unit/sequential_3/separable_conv2d_2/separable_conv2d/depthwise", "op": "DepthwiseConv2dNative", "input": ["StatefulPartitionedCall/shufflenet/shufflenet_block/basic_unit/sequential_3/re_lu_4/Relu", "StatefulPartitionedCall/shufflenet/shufflenet_block/basic_unit/sequential_3/separable_conv2d_2/separable_conv2d/ReadVariableOp"], "attr": {"padding": {"s": "U0FNRQ=="}, "dilations": {"list": {"i": ["1", "1", "1", "1"]}}, "T": {"type": "DT_FLOAT"}, "strides": {"list": {"i": ["1", "1", "1", "1"]}}, "data_format": {"s": "TkhXQw=="}, "explicit_paddings": {"list": {}}}}, {"name": "StatefulPartitionedCall/shufflenet/shufflenet_block/strided_slice_5", "op": "StridedSlice", "input": ["StatefulPartitionedCall/shufflenet/shufflenet_block/concat_1", "StatefulPartitionedCall/shufflenet/shufflenet_block/strided_slice_5/stack", "StatefulPartitionedCall/shufflenet/shufflenet_block/strided_slice_5/stack_1", "StatefulPartitionedCall/shufflenet/shufflenet_block/strided_slice_5/stack_2"], "attr": {"shrink_axis_mask": {"i": "0"}, "begin_mask": {"i": "7"}, "ellipsis_mask": {"i": "0"}, "new_axis_mask": {"i": "0"}, "end_mask": {"i": "15"}, "T": {"type": "DT_FLOAT"}, "Index": {"type": "DT_INT32"}}}, {"name": "StatefulPartitionedCall/shufflenet/shufflenet_block/strided_slice_7", "op": "StridedSlice", "input": ["StatefulPartitionedCall/shufflenet/shufflenet_block/concat_1", "StatefulPartitionedCall/shufflenet/shufflenet_block/strided_slice_7/stack", "StatefulPartitionedCall/shufflenet/shufflenet_block/strided_slice_7/stack_1", "StatefulPartitionedCall/shufflenet/shufflenet_block/strided_slice_7/stack_2"], "attr": {"T": {"type": "DT_FLOAT"}, "Index": {"type": "DT_INT32"}, "shrink_axis_mask": {"i": "0"}, "begin_mask": {"i": "7"}, "ellipsis_mask": {"i": "0"}, "new_axis_mask": {"i": "0"}, "end_mask": {"i": "15"}}}, {"name": "StatefulPartitionedCall/shufflenet/shufflenet_block/basic_unit/sequential_3/re_lu_5/Relu", "op": "_FusedConv2D", "input": ["StatefulPartitionedCall/shufflenet/shufflenet_block/basic_unit/sequential_3/separable_conv2d_2/separable_conv2d/depthwise", "StatefulPartitionedCall/shufflenet/shufflenet_block/basic_unit/sequential_3/separable_conv2d_2/separable_conv2d_weights", "StatefulPartitionedCall/shufflenet/shufflenet_block/basic_unit/sequential_3/separable_conv2d_2/separable_conv2d_bn_offset"], "device": "/device:CPU:0", "attr": {"dilations": {"list": {"i": ["1", "1", "1", "1"]}}, "T": {"type": "DT_FLOAT"}, "data_format": {"s": "TkhXQw=="}, "strides": {"list": {"i": ["1", "1", "1", "1"]}}, "explicit_paddings": {"list": {}}, "use_cudnn_on_gpu": {"b": true}, "num_args": {"i": "1"}, "epsilon": {"f": 0.0}, "padding": {"s": "VkFMSUQ="}, "fused_ops": {"list": {"s": ["Qmlhc0FkZA==", "UmVsdQ=="]}}}}, {"name": "StatefulPartitionedCall/shufflenet/shufflenet_block/strided_slice_4", "op": "StridedSlice", "input": ["StatefulPartitionedCall/shufflenet/shufflenet_block/basic_unit/sequential_3/re_lu_5/Relu", "StatefulPartitionedCall/shufflenet/shufflenet_block/strided_slice_4/stack", "StatefulPartitionedCall/shufflenet/shufflenet_block/strided_slice_4/stack_1", "StatefulPartitionedCall/shufflenet/shufflenet_block/strided_slice_4/stack_2"], "attr": {"new_axis_mask": {"i": "0"}, "end_mask": {"i": "15"}, "T": {"type": "DT_FLOAT"}, "Index": {"type": "DT_INT32"}, "shrink_axis_mask": {"i": "0"}, "ellipsis_mask": {"i": "0"}, "begin_mask": {"i": "7"}}}, {"name": "StatefulPartitionedCall/shufflenet/shufflenet_block/concat_2", "op": "ConcatV2", "input": ["StatefulPartitionedCall/shufflenet/shufflenet_block/strided_slice_4", "StatefulPartitionedCall/shufflenet/shufflenet_block/strided_slice_5", "StatefulPartitionedCall/shufflenet/shufflenet_block/concat_2/axis"], "attr": {"N": {"i": "2"}, "Tidx": {"type": "DT_INT32"}, "T": {"type": "DT_FLOAT"}}}, {"name": "StatefulPartitionedCall/shufflenet/shufflenet_block/strided_slice_6", "op": "StridedSlice", "input": ["StatefulPartitionedCall/shufflenet/shufflenet_block/concat_2", "StatefulPartitionedCall/shufflenet/shufflenet_block/strided_slice_6/stack", "StatefulPartitionedCall/shufflenet/shufflenet_block/strided_slice_6/stack_1", "StatefulPartitionedCall/shufflenet/shufflenet_block/strided_slice_6/stack_2"], "attr": {"T": {"type": "DT_FLOAT"}, "Index": {"type": "DT_INT32"}, "shrink_axis_mask": {"i": "0"}, "begin_mask": {"i": "7"}, "ellipsis_mask": {"i": "0"}, "new_axis_mask": {"i": "0"}, "end_mask": {"i": "15"}}}, {"name": "StatefulPartitionedCall/shufflenet/shufflenet_block/basic_unit_1/sequential_4/re_lu_6/Relu", "op": "_FusedConv2D", "input": ["StatefulPartitionedCall/shufflenet/shufflenet_block/concat_2", "StatefulPartitionedCall/shufflenet/shufflenet_block/basic_unit_1/sequential_4/conv2d_3/Conv2D_weights", "StatefulPartitionedCall/shufflenet/shufflenet_block/basic_unit_1/sequential_4/conv2d_3/Conv2D_bn_offset"], "device": "/device:CPU:0", "attr": {"dilations": {"list": {"i": ["1", "1", "1", "1"]}}, "T": {"type": "DT_FLOAT"}, "strides": {"list": {"i": ["1", "1", "1", "1"]}}, "data_format": {"s": "TkhXQw=="}, "explicit_paddings": {"list": {}}, "use_cudnn_on_gpu": {"b": true}, "num_args": {"i": "1"}, "epsilon": {"f": 0.0}, "padding": {"s": "U0FNRQ=="}, "fused_ops": {"list": {"s": ["Qmlhc0FkZA==", "UmVsdQ=="]}}}}, {"name": "StatefulPartitionedCall/shufflenet/shufflenet_block/concat_3", "op": "ConcatV2", "input": ["StatefulPartitionedCall/shufflenet/shufflenet_block/strided_slice_6", "StatefulPartitionedCall/shufflenet/shufflenet_block/strided_slice_7", "StatefulPartitionedCall/shufflenet/shufflenet_block/concat_3/axis"], "attr": {"Tidx": {"type": "DT_INT32"}, "T": {"type": "DT_FLOAT"}, "N": {"i": "2"}}}, {"name": "StatefulPartitionedCall/shufflenet/shufflenet_block/basic_unit_1/sequential_4/separable_conv2d_3/separable_conv2d/depthwise", "op": "DepthwiseConv2dNative", "input": ["StatefulPartitionedCall/shufflenet/shufflenet_block/basic_unit_1/sequential_4/re_lu_6/Relu", "StatefulPartitionedCall/shufflenet/shufflenet_block/basic_unit_1/sequential_4/separable_conv2d_3/separable_conv2d/ReadVariableOp"], "attr": {"explicit_paddings": {"list": {}}, "padding": {"s": "U0FNRQ=="}, "dilations": {"list": {"i": ["1", "1", "1", "1"]}}, "T": {"type": "DT_FLOAT"}, "strides": {"list": {"i": ["1", "1", "1", "1"]}}, "data_format": {"s": "TkhXQw=="}}}, {"name": "StatefulPartitionedCall/shufflenet/shufflenet_block/strided_slice_9", "op": "StridedSlice", "input": ["StatefulPartitionedCall/shufflenet/shufflenet_block/concat_3", "StatefulPartitionedCall/shufflenet/shufflenet_block/strided_slice_9/stack", "StatefulPartitionedCall/shufflenet/shufflenet_block/strided_slice_9/stack_1", "StatefulPartitionedCall/shufflenet/shufflenet_block/strided_slice_9/stack_2"], "attr": {"T": {"type": "DT_FLOAT"}, "Index": {"type": "DT_INT32"}, "shrink_axis_mask": {"i": "0"}, "ellipsis_mask": {"i": "0"}, "begin_mask": {"i": "7"}, "new_axis_mask": {"i": "0"}, "end_mask": {"i": "15"}}}, {"name": "StatefulPartitionedCall/shufflenet/shufflenet_block/strided_slice_11", "op": "StridedSlice", "input": ["StatefulPartitionedCall/shufflenet/shufflenet_block/concat_3", "StatefulPartitionedCall/shufflenet/shufflenet_block/strided_slice_11/stack", "StatefulPartitionedCall/shufflenet/shufflenet_block/strided_slice_11/stack_1", "StatefulPartitionedCall/shufflenet/shufflenet_block/strided_slice_11/stack_2"], "attr": {"shrink_axis_mask": {"i": "0"}, "begin_mask": {"i": "7"}, "ellipsis_mask": {"i": "0"}, "new_axis_mask": {"i": "0"}, "end_mask": {"i": "15"}, "T": {"type": "DT_FLOAT"}, "Index": {"type": "DT_INT32"}}}, {"name": "StatefulPartitionedCall/shufflenet/shufflenet_block/basic_unit_1/sequential_4/re_lu_7/Relu", "op": "_FusedConv2D", "input": ["StatefulPartitionedCall/shufflenet/shufflenet_block/basic_unit_1/sequential_4/separable_conv2d_3/separable_conv2d/depthwise", "StatefulPartitionedCall/shufflenet/shufflenet_block/basic_unit_1/sequential_4/separable_conv2d_3/separable_conv2d_weights", "StatefulPartitionedCall/shufflenet/shufflenet_block/basic_unit_1/sequential_4/separable_conv2d_3/separable_conv2d_bn_offset"], "device": "/device:CPU:0", "attr": {"use_cudnn_on_gpu": {"b": true}, "explicit_paddings": {"list": {}}, "num_args": {"i": "1"}, "epsilon": {"f": 0.0}, "padding": {"s": "VkFMSUQ="}, "fused_ops": {"list": {"s": ["Qmlhc0FkZA==", "UmVsdQ=="]}}, "dilations": {"list": {"i": ["1", "1", "1", "1"]}}, "T": {"type": "DT_FLOAT"}, "data_format": {"s": "TkhXQw=="}, "strides": {"list": {"i": ["1", "1", "1", "1"]}}}}, {"name": "StatefulPartitionedCall/shufflenet/shufflenet_block/strided_slice_8", "op": "StridedSlice", "input": ["StatefulPartitionedCall/shufflenet/shufflenet_block/basic_unit_1/sequential_4/re_lu_7/Relu", "StatefulPartitionedCall/shufflenet/shufflenet_block/strided_slice_8/stack", "StatefulPartitionedCall/shufflenet/shufflenet_block/strided_slice_8/stack_1", "StatefulPartitionedCall/shufflenet/shufflenet_block/strided_slice_8/stack_2"], "attr": {"begin_mask": {"i": "7"}, "ellipsis_mask": {"i": "0"}, "new_axis_mask": {"i": "0"}, "end_mask": {"i": "15"}, "Index": {"type": "DT_INT32"}, "T": {"type": "DT_FLOAT"}, "shrink_axis_mask": {"i": "0"}}}, {"name": "StatefulPartitionedCall/shufflenet/shufflenet_block/concat_4", "op": "ConcatV2", "input": ["StatefulPartitionedCall/shufflenet/shufflenet_block/strided_slice_8", "StatefulPartitionedCall/shufflenet/shufflenet_block/strided_slice_9", "StatefulPartitionedCall/shufflenet/shufflenet_block/concat_4/axis"], "attr": {"Tidx": {"type": "DT_INT32"}, "T": {"type": "DT_FLOAT"}, "N": {"i": "2"}}}, {"name": "StatefulPartitionedCall/shufflenet/shufflenet_block/strided_slice_10", "op": "StridedSlice", "input": ["StatefulPartitionedCall/shufflenet/shufflenet_block/concat_4", "StatefulPartitionedCall/shufflenet/shufflenet_block/strided_slice_10/stack", "StatefulPartitionedCall/shufflenet/shufflenet_block/strided_slice_10/stack_1", "StatefulPartitionedCall/shufflenet/shufflenet_block/strided_slice_10/stack_2"], "attr": {"new_axis_mask": {"i": "0"}, "end_mask": {"i": "15"}, "Index": {"type": "DT_INT32"}, "T": {"type": "DT_FLOAT"}, "shrink_axis_mask": {"i": "0"}, "ellipsis_mask": {"i": "0"}, "begin_mask": {"i": "7"}}}, {"name": "StatefulPartitionedCall/shufflenet/shufflenet_block/basic_unit_2/sequential_5/re_lu_8/Relu", "op": "_FusedConv2D", "input": ["StatefulPartitionedCall/shufflenet/shufflenet_block/concat_4", "StatefulPartitionedCall/shufflenet/shufflenet_block/basic_unit_2/sequential_5/conv2d_4/Conv2D_weights", "StatefulPartitionedCall/shufflenet/shufflenet_block/basic_unit_2/sequential_5/conv2d_4/Conv2D_bn_offset"], "device": "/device:CPU:0", "attr": {"dilations": {"list": {"i": ["1", "1", "1", "1"]}}, "T": {"type": "DT_FLOAT"}, "data_format": {"s": "TkhXQw=="}, "strides": {"list": {"i": ["1", "1", "1", "1"]}}, "explicit_paddings": {"list": {}}, "use_cudnn_on_gpu": {"b": true}, "num_args": {"i": "1"}, "epsilon": {"f": 0.0}, "padding": {"s": "U0FNRQ=="}, "fused_ops": {"list": {"s": ["Qmlhc0FkZA==", "UmVsdQ=="]}}}}, {"name": "StatefulPartitionedCall/shufflenet/shufflenet_block/basic_unit_2/sequential_5/separable_conv2d_4/separable_conv2d/depthwise", "op": "DepthwiseConv2dNative", "input": ["StatefulPartitionedCall/shufflenet/shufflenet_block/basic_unit_2/sequential_5/re_lu_8/Relu", "StatefulPartitionedCall/shufflenet/shufflenet_block/basic_unit_2/sequential_5/separable_conv2d_4/separable_conv2d/ReadVariableOp"], "attr": {"dilations": {"list": {"i": ["1", "1", "1", "1"]}}, "T": {"type": "DT_FLOAT"}, "strides": {"list": {"i": ["1", "1", "1", "1"]}}, "data_format": {"s": "TkhXQw=="}, "explicit_paddings": {"list": {}}, "padding": {"s": "U0FNRQ=="}}}, {"name": "StatefulPartitionedCall/shufflenet/shufflenet_block/basic_unit_2/sequential_5/re_lu_9/Relu", "op": "_FusedConv2D", "input": ["StatefulPartitionedCall/shufflenet/shufflenet_block/basic_unit_2/sequential_5/separable_conv2d_4/separable_conv2d/depthwise", "StatefulPartitionedCall/shufflenet/shufflenet_block/basic_unit_2/sequential_5/separable_conv2d_4/separable_conv2d_weights", "StatefulPartitionedCall/shufflenet/shufflenet_block/basic_unit_2/sequential_5/separable_conv2d_4/separable_conv2d_bn_offset"], "device": "/device:CPU:0", "attr": {"dilations": {"list": {"i": ["1", "1", "1", "1"]}}, "T": {"type": "DT_FLOAT"}, "strides": {"list": {"i": ["1", "1", "1", "1"]}}, "data_format": {"s": "TkhXQw=="}, "explicit_paddings": {"list": {}}, "use_cudnn_on_gpu": {"b": true}, "num_args": {"i": "1"}, "epsilon": {"f": 0.0}, "padding": {"s": "VkFMSUQ="}, "fused_ops": {"list": {"s": ["Qmlhc0FkZA==", "UmVsdQ=="]}}}}, {"name": "StatefulPartitionedCall/shufflenet/shufflenet_block/concat_6", "op": "ConcatV2", "input": ["StatefulPartitionedCall/shufflenet/shufflenet_block/basic_unit_2/sequential_5/re_lu_9/Relu", "StatefulPartitionedCall/shufflenet/shufflenet_block/strided_slice_10", "StatefulPartitionedCall/shufflenet/shufflenet_block/strided_slice_11", "StatefulPartitionedCall/shufflenet/shufflenet_block/concat_6/axis"], "attr": {"T": {"type": "DT_FLOAT"}, "N": {"i": "3"}, "Tidx": {"type": "DT_INT32"}}}, {"name": "StatefulPartitionedCall/global_average_pooling2d/Mean", "op": "Mean", "input": ["StatefulPartitionedCall/shufflenet/shufflenet_block/concat_6", "StatefulPartitionedCall/global_average_pooling2d/Mean/reduction_indices"], "attr": {"Tidx": {"type": "DT_INT32"}, "keep_dims": {"b": false}, "T": {"type": "DT_FLOAT"}}}, {"name": "StatefulPartitionedCall/shufflenet/shufflenet_block_1/basic_unit_with_downsampling_1/sequential_7/separable_conv2d_6/separable_conv2d/depthwise", "op": "DepthwiseConv2dNative", "input": ["StatefulPartitionedCall/shufflenet/shufflenet_block/concat_6", "StatefulPartitionedCall/shufflenet/shufflenet_block_1/basic_unit_with_downsampling_1/sequential_7/separable_conv2d_6/separable_conv2d/ReadVariableOp"], "attr": {"padding": {"s": "U0FNRQ=="}, "dilations": {"list": {"i": ["1", "1", "1", "1"]}}, "T": {"type": "DT_FLOAT"}, "data_format": {"s": "TkhXQw=="}, "strides": {"list": {"i": ["1", "2", "2", "1"]}}, "explicit_paddings": {"list": {}}}}, {"name": "StatefulPartitionedCall/shufflenet/shufflenet_block_1/basic_unit_with_downsampling_1/sequential_6/re_lu_10/Relu", "op": "_FusedConv2D", "input": ["StatefulPartitionedCall/shufflenet/shufflenet_block/concat_6", "StatefulPartitionedCall/shufflenet/shufflenet_block_1/basic_unit_with_downsampling_1/sequential_6/conv2d_5/Conv2D_weights", "StatefulPartitionedCall/shufflenet/shufflenet_block_1/basic_unit_with_downsampling_1/sequential_6/conv2d_5/Conv2D_bn_offset"], "device": "/device:CPU:0", "attr": {"strides": {"list": {"i": ["1", "1", "1", "1"]}}, "data_format": {"s": "TkhXQw=="}, "explicit_paddings": {"list": {}}, "use_cudnn_on_gpu": {"b": true}, "num_args": {"i": "1"}, "epsilon": {"f": 0.0}, "padding": {"s": "U0FNRQ=="}, "fused_ops": {"list": {"s": ["Qmlhc0FkZA==", "UmVsdQ=="]}}, "dilations": {"list": {"i": ["1", "1", "1", "1"]}}, "T": {"type": "DT_FLOAT"}}}, {"name": "StatefulPartitionedCall/shufflenet/shufflenet_block_1/basic_unit_with_downsampling_1/sequential_7/re_lu_12/Relu", "op": "_FusedConv2D", "input": ["StatefulPartitionedCall/shufflenet/shufflenet_block_1/basic_unit_with_downsampling_1/sequential_7/separable_conv2d_6/separable_conv2d/depthwise", "StatefulPartitionedCall/shufflenet/shufflenet_block_1/basic_unit_with_downsampling_1/sequential_7/separable_conv2d_6/separable_conv2d_weights", "StatefulPartitionedCall/shufflenet/shufflenet_block_1/basic_unit_with_downsampling_1/sequential_7/separable_conv2d_6/separable_conv2d_bn_offset"], "device": "/device:CPU:0", "attr": {"explicit_paddings": {"list": {}}, "use_cudnn_on_gpu": {"b": true}, "num_args": {"i": "1"}, "epsilon": {"f": 0.0}, "padding": {"s": "VkFMSUQ="}, "fused_ops": {"list": {"s": ["Qmlhc0FkZA==", "UmVsdQ=="]}}, "dilations": {"list": {"i": ["1", "1", "1", "1"]}}, "T": {"type": "DT_FLOAT"}, "strides": {"list": {"i": ["1", "1", "1", "1"]}}, "data_format": {"s": "TkhXQw=="}}}, {"name": "StatefulPartitionedCall/shufflenet/shufflenet_block_1/basic_unit_with_downsampling_1/sequential_6/separable_conv2d_5/separable_conv2d/depthwise", "op": "DepthwiseConv2dNative", "input": ["StatefulPartitionedCall/shufflenet/shufflenet_block_1/basic_unit_with_downsampling_1/sequential_6/re_lu_10/Relu", "StatefulPartitionedCall/shufflenet/shufflenet_block_1/basic_unit_with_downsampling_1/sequential_6/separable_conv2d_5/separable_conv2d/ReadVariableOp"], "attr": {"dilations": {"list": {"i": ["1", "1", "1", "1"]}}, "T": {"type": "DT_FLOAT"}, "data_format": {"s": "TkhXQw=="}, "strides": {"list": {"i": ["1", "2", "2", "1"]}}, "explicit_paddings": {"list": {}}, "padding": {"s": "U0FNRQ=="}}}, {"name": "StatefulPartitionedCall/shufflenet/shufflenet_block_1/strided_slice_1", "op": "StridedSlice", "input": ["StatefulPartitionedCall/shufflenet/shufflenet_block_1/basic_unit_with_downsampling_1/sequential_7/re_lu_12/Relu", "StatefulPartitionedCall/shufflenet/shufflenet_block_1/strided_slice_1/stack", "StatefulPartitionedCall/shufflenet/shufflenet_block_1/strided_slice_1/stack_1", "StatefulPartitionedCall/shufflenet/shufflenet_block_1/strided_slice_1/stack_2"], "attr": {"Index": {"type": "DT_INT32"}, "T": {"type": "DT_FLOAT"}, "shrink_axis_mask": {"i": "0"}, "ellipsis_mask": {"i": "0"}, "begin_mask": {"i": "7"}, "new_axis_mask": {"i": "0"}, "end_mask": {"i": "15"}}}, {"name": "StatefulPartitionedCall/shufflenet/shufflenet_block_1/strided_slice_3", "op": "StridedSlice", "input": ["StatefulPartitionedCall/shufflenet/shufflenet_block_1/basic_unit_with_downsampling_1/sequential_7/re_lu_12/Relu", "StatefulPartitionedCall/shufflenet/shufflenet_block_1/strided_slice_3/stack", "StatefulPartitionedCall/shufflenet/shufflenet_block_1/strided_slice_3/stack_1", "StatefulPartitionedCall/shufflenet/shufflenet_block_1/strided_slice_3/stack_2"], "attr": {"shrink_axis_mask": {"i": "0"}, "ellipsis_mask": {"i": "0"}, "begin_mask": {"i": "7"}, "new_axis_mask": {"i": "0"}, "end_mask": {"i": "15"}, "Index": {"type": "DT_INT32"}, "T": {"type": "DT_FLOAT"}}}, {"name": "StatefulPartitionedCall/shufflenet/shufflenet_block_1/basic_unit_with_downsampling_1/sequential_6/re_lu_11/Relu", "op": "_FusedConv2D", "input": ["StatefulPartitionedCall/shufflenet/shufflenet_block_1/basic_unit_with_downsampling_1/sequential_6/separable_conv2d_5/separable_conv2d/depthwise", "StatefulPartitionedCall/shufflenet/shufflenet_block_1/basic_unit_with_downsampling_1/sequential_6/separable_conv2d_5/separable_conv2d_weights", "StatefulPartitionedCall/shufflenet/shufflenet_block_1/basic_unit_with_downsampling_1/sequential_6/separable_conv2d_5/separable_conv2d_bn_offset"], "device": "/device:CPU:0", "attr": {"padding": {"s": "VkFMSUQ="}, "fused_ops": {"list": {"s": ["Qmlhc0FkZA==", "UmVsdQ=="]}}, "dilations": {"list": {"i": ["1", "1", "1", "1"]}}, "T": {"type": "DT_FLOAT"}, "data_format": {"s": "TkhXQw=="}, "strides": {"list": {"i": ["1", "1", "1", "1"]}}, "explicit_paddings": {"list": {}}, "use_cudnn_on_gpu": {"b": true}, "num_args": {"i": "1"}, "epsilon": {"f": 0.0}}}, {"name": "StatefulPartitionedCall/shufflenet/shufflenet_block_1/strided_slice", "op": "StridedSlice", "input": ["StatefulPartitionedCall/shufflenet/shufflenet_block_1/basic_unit_with_downsampling_1/sequential_6/re_lu_11/Relu", "StatefulPartitionedCall/shufflenet/shufflenet_block_1/strided_slice/stack", "StatefulPartitionedCall/shufflenet/shufflenet_block_1/strided_slice/stack_1", "StatefulPartitionedCall/shufflenet/shufflenet_block_1/strided_slice/stack_2"], "attr": {"T": {"type": "DT_FLOAT"}, "Index": {"type": "DT_INT32"}, "shrink_axis_mask": {"i": "0"}, "begin_mask": {"i": "7"}, "ellipsis_mask": {"i": "0"}, "new_axis_mask": {"i": "0"}, "end_mask": {"i": "15"}}}, {"name": "StatefulPartitionedCall/shufflenet/shufflenet_block_1/concat", "op": "ConcatV2", "input": ["StatefulPartitionedCall/shufflenet/shufflenet_block_1/strided_slice", "StatefulPartitionedCall/shufflenet/shufflenet_block_1/strided_slice_1", "StatefulPartitionedCall/shufflenet/shufflenet_block_1/concat/axis"], "attr": {"Tidx": {"type": "DT_INT32"}, "T": {"type": "DT_FLOAT"}, "N": {"i": "2"}}}, {"name": "StatefulPartitionedCall/shufflenet/shufflenet_block_1/strided_slice_2", "op": "StridedSlice", "input": ["StatefulPartitionedCall/shufflenet/shufflenet_block_1/concat", "StatefulPartitionedCall/shufflenet/shufflenet_block_1/strided_slice_2/stack", "StatefulPartitionedCall/shufflenet/shufflenet_block_1/strided_slice_2/stack_1", "StatefulPartitionedCall/shufflenet/shufflenet_block_1/strided_slice_2/stack_2"], "attr": {"begin_mask": {"i": "7"}, "ellipsis_mask": {"i": "0"}, "new_axis_mask": {"i": "0"}, "end_mask": {"i": "15"}, "T": {"type": "DT_FLOAT"}, "Index": {"type": "DT_INT32"}, "shrink_axis_mask": {"i": "0"}}}, {"name": "StatefulPartitionedCall/shufflenet/shufflenet_block_1/basic_unit_3/sequential_8/re_lu_13/Relu", "op": "_FusedConv2D", "input": ["StatefulPartitionedCall/shufflenet/shufflenet_block_1/concat", "StatefulPartitionedCall/shufflenet/shufflenet_block_1/basic_unit_3/sequential_8/conv2d_6/Conv2D_weights", "StatefulPartitionedCall/shufflenet/shufflenet_block_1/basic_unit_3/sequential_8/conv2d_6/Conv2D_bn_offset"], "device": "/device:CPU:0", "attr": {"dilations": {"list": {"i": ["1", "1", "1", "1"]}}, "T": {"type": "DT_FLOAT"}, "data_format": {"s": "TkhXQw=="}, "strides": {"list": {"i": ["1", "1", "1", "1"]}}, "explicit_paddings": {"list": {}}, "use_cudnn_on_gpu": {"b": true}, "num_args": {"i": "1"}, "epsilon": {"f": 0.0}, "padding": {"s": "U0FNRQ=="}, "fused_ops": {"list": {"s": ["Qmlhc0FkZA==", "UmVsdQ=="]}}}}, {"name": "StatefulPartitionedCall/shufflenet/shufflenet_block_1/concat_1", "op": "ConcatV2", "input": ["StatefulPartitionedCall/shufflenet/shufflenet_block_1/strided_slice_2", "StatefulPartitionedCall/shufflenet/shufflenet_block_1/strided_slice_3", "StatefulPartitionedCall/shufflenet/shufflenet_block_1/concat_1/axis"], "attr": {"Tidx": {"type": "DT_INT32"}, "T": {"type": "DT_FLOAT"}, "N": {"i": "2"}}}, {"name": "StatefulPartitionedCall/shufflenet/shufflenet_block_1/basic_unit_3/sequential_8/separable_conv2d_7/separable_conv2d/depthwise", "op": "DepthwiseConv2dNative", "input": ["StatefulPartitionedCall/shufflenet/shufflenet_block_1/basic_unit_3/sequential_8/re_lu_13/Relu", "StatefulPartitionedCall/shufflenet/shufflenet_block_1/basic_unit_3/sequential_8/separable_conv2d_7/separable_conv2d/ReadVariableOp"], "attr": {"dilations": {"list": {"i": ["1", "1", "1", "1"]}}, "T": {"type": "DT_FLOAT"}, "data_format": {"s": "TkhXQw=="}, "strides": {"list": {"i": ["1", "1", "1", "1"]}}, "explicit_paddings": {"list": {}}, "padding": {"s": "U0FNRQ=="}}}, {"name": "StatefulPartitionedCall/shufflenet/shufflenet_block_1/strided_slice_5", "op": "StridedSlice", "input": ["StatefulPartitionedCall/shufflenet/shufflenet_block_1/concat_1", "StatefulPartitionedCall/shufflenet/shufflenet_block_1/strided_slice_5/stack", "StatefulPartitionedCall/shufflenet/shufflenet_block_1/strided_slice_5/stack_1", "StatefulPartitionedCall/shufflenet/shufflenet_block_1/strided_slice_5/stack_2"], "attr": {"T": {"type": "DT_FLOAT"}, "Index": {"type": "DT_INT32"}, "shrink_axis_mask": {"i": "0"}, "begin_mask": {"i": "7"}, "ellipsis_mask": {"i": "0"}, "new_axis_mask": {"i": "0"}, "end_mask": {"i": "15"}}}, {"name": "StatefulPartitionedCall/shufflenet/shufflenet_block_1/strided_slice_7", "op": "StridedSlice", "input": ["StatefulPartitionedCall/shufflenet/shufflenet_block_1/concat_1", "StatefulPartitionedCall/shufflenet/shufflenet_block_1/strided_slice_7/stack", "StatefulPartitionedCall/shufflenet/shufflenet_block_1/strided_slice_7/stack_1", "StatefulPartitionedCall/shufflenet/shufflenet_block_1/strided_slice_7/stack_2"], "attr": {"T": {"type": "DT_FLOAT"}, "Index": {"type": "DT_INT32"}, "shrink_axis_mask": {"i": "0"}, "begin_mask": {"i": "7"}, "ellipsis_mask": {"i": "0"}, "new_axis_mask": {"i": "0"}, "end_mask": {"i": "15"}}}, {"name": "StatefulPartitionedCall/shufflenet/shufflenet_block_1/basic_unit_3/sequential_8/re_lu_14/Relu", "op": "_FusedConv2D", "input": ["StatefulPartitionedCall/shufflenet/shufflenet_block_1/basic_unit_3/sequential_8/separable_conv2d_7/separable_conv2d/depthwise", "StatefulPartitionedCall/shufflenet/shufflenet_block_1/basic_unit_3/sequential_8/separable_conv2d_7/separable_conv2d_weights", "StatefulPartitionedCall/shufflenet/shufflenet_block_1/basic_unit_3/sequential_8/separable_conv2d_7/separable_conv2d_bn_offset"], "device": "/device:CPU:0", "attr": {"dilations": {"list": {"i": ["1", "1", "1", "1"]}}, "T": {"type": "DT_FLOAT"}, "data_format": {"s": "TkhXQw=="}, "strides": {"list": {"i": ["1", "1", "1", "1"]}}, "use_cudnn_on_gpu": {"b": true}, "explicit_paddings": {"list": {}}, "num_args": {"i": "1"}, "epsilon": {"f": 0.0}, "padding": {"s": "VkFMSUQ="}, "fused_ops": {"list": {"s": ["Qmlhc0FkZA==", "UmVsdQ=="]}}}}, {"name": "StatefulPartitionedCall/shufflenet/shufflenet_block_1/strided_slice_4", "op": "StridedSlice", "input": ["StatefulPartitionedCall/shufflenet/shufflenet_block_1/basic_unit_3/sequential_8/re_lu_14/Relu", "StatefulPartitionedCall/shufflenet/shufflenet_block_1/strided_slice_4/stack", "StatefulPartitionedCall/shufflenet/shufflenet_block_1/strided_slice_4/stack_1", "StatefulPartitionedCall/shufflenet/shufflenet_block_1/strided_slice_4/stack_2"], "attr": {"new_axis_mask": {"i": "0"}, "end_mask": {"i": "15"}, "T": {"type": "DT_FLOAT"}, "Index": {"type": "DT_INT32"}, "shrink_axis_mask": {"i": "0"}, "begin_mask": {"i": "7"}, "ellipsis_mask": {"i": "0"}}}, {"name": "StatefulPartitionedCall/shufflenet/shufflenet_block_1/concat_2", "op": "ConcatV2", "input": ["StatefulPartitionedCall/shufflenet/shufflenet_block_1/strided_slice_4", "StatefulPartitionedCall/shufflenet/shufflenet_block_1/strided_slice_5", "StatefulPartitionedCall/shufflenet/shufflenet_block_1/concat_2/axis"], "attr": {"T": {"type": "DT_FLOAT"}, "N": {"i": "2"}, "Tidx": {"type": "DT_INT32"}}}, {"name": "StatefulPartitionedCall/shufflenet/shufflenet_block_1/strided_slice_6", "op": "StridedSlice", "input": ["StatefulPartitionedCall/shufflenet/shufflenet_block_1/concat_2", "StatefulPartitionedCall/shufflenet/shufflenet_block_1/strided_slice_6/stack", "StatefulPartitionedCall/shufflenet/shufflenet_block_1/strided_slice_6/stack_1", "StatefulPartitionedCall/shufflenet/shufflenet_block_1/strided_slice_6/stack_2"], "attr": {"Index": {"type": "DT_INT32"}, "T": {"type": "DT_FLOAT"}, "shrink_axis_mask": {"i": "0"}, "begin_mask": {"i": "7"}, "ellipsis_mask": {"i": "0"}, "new_axis_mask": {"i": "0"}, "end_mask": {"i": "15"}}}, {"name": "StatefulPartitionedCall/shufflenet/shufflenet_block_1/basic_unit_4/sequential_9/re_lu_15/Relu", "op": "_FusedConv2D", "input": ["StatefulPartitionedCall/shufflenet/shufflenet_block_1/concat_2", "StatefulPartitionedCall/shufflenet/shufflenet_block_1/basic_unit_4/sequential_9/conv2d_7/Conv2D_weights", "StatefulPartitionedCall/shufflenet/shufflenet_block_1/basic_unit_4/sequential_9/conv2d_7/Conv2D_bn_offset"], "device": "/device:CPU:0", "attr": {"strides": {"list": {"i": ["1", "1", "1", "1"]}}, "data_format": {"s": "TkhXQw=="}, "explicit_paddings": {"list": {}}, "use_cudnn_on_gpu": {"b": true}, "num_args": {"i": "1"}, "epsilon": {"f": 0.0}, "padding": {"s": "U0FNRQ=="}, "fused_ops": {"list": {"s": ["Qmlhc0FkZA==", "UmVsdQ=="]}}, "dilations": {"list": {"i": ["1", "1", "1", "1"]}}, "T": {"type": "DT_FLOAT"}}}, {"name": "StatefulPartitionedCall/shufflenet/shufflenet_block_1/concat_3", "op": "ConcatV2", "input": ["StatefulPartitionedCall/shufflenet/shufflenet_block_1/strided_slice_6", "StatefulPartitionedCall/shufflenet/shufflenet_block_1/strided_slice_7", "StatefulPartitionedCall/shufflenet/shufflenet_block_1/concat_3/axis"], "attr": {"Tidx": {"type": "DT_INT32"}, "T": {"type": "DT_FLOAT"}, "N": {"i": "2"}}}, {"name": "StatefulPartitionedCall/shufflenet/shufflenet_block_1/basic_unit_4/sequential_9/separable_conv2d_8/separable_conv2d/depthwise", "op": "DepthwiseConv2dNative", "input": ["StatefulPartitionedCall/shufflenet/shufflenet_block_1/basic_unit_4/sequential_9/re_lu_15/Relu", "StatefulPartitionedCall/shufflenet/shufflenet_block_1/basic_unit_4/sequential_9/separable_conv2d_8/separable_conv2d/ReadVariableOp"], "attr": {"strides": {"list": {"i": ["1", "1", "1", "1"]}}, "data_format": {"s": "TkhXQw=="}, "explicit_paddings": {"list": {}}, "padding": {"s": "U0FNRQ=="}, "dilations": {"list": {"i": ["1", "1", "1", "1"]}}, "T": {"type": "DT_FLOAT"}}}, {"name": "StatefulPartitionedCall/shufflenet/shufflenet_block_1/strided_slice_9", "op": "StridedSlice", "input": ["StatefulPartitionedCall/shufflenet/shufflenet_block_1/concat_3", "StatefulPartitionedCall/shufflenet/shufflenet_block_1/strided_slice_9/stack", "StatefulPartitionedCall/shufflenet/shufflenet_block_1/strided_slice_9/stack_1", "StatefulPartitionedCall/shufflenet/shufflenet_block_1/strided_slice_9/stack_2"], "attr": {"shrink_axis_mask": {"i": "0"}, "begin_mask": {"i": "7"}, "ellipsis_mask": {"i": "0"}, "new_axis_mask": {"i": "0"}, "end_mask": {"i": "15"}, "T": {"type": "DT_FLOAT"}, "Index": {"type": "DT_INT32"}}}, {"name": "StatefulPartitionedCall/shufflenet/shufflenet_block_1/strided_slice_11", "op": "StridedSlice", "input": ["StatefulPartitionedCall/shufflenet/shufflenet_block_1/concat_3", "StatefulPartitionedCall/shufflenet/shufflenet_block_1/strided_slice_11/stack", "StatefulPartitionedCall/shufflenet/shufflenet_block_1/strided_slice_11/stack_1", "StatefulPartitionedCall/shufflenet/shufflenet_block_1/strided_slice_11/stack_2"], "attr": {"Index": {"type": "DT_INT32"}, "T": {"type": "DT_FLOAT"}, "shrink_axis_mask": {"i": "0"}, "ellipsis_mask": {"i": "0"}, "begin_mask": {"i": "7"}, "new_axis_mask": {"i": "0"}, "end_mask": {"i": "15"}}}, {"name": "StatefulPartitionedCall/shufflenet/shufflenet_block_1/basic_unit_4/sequential_9/re_lu_16/Relu", "op": "_FusedConv2D", "input": ["StatefulPartitionedCall/shufflenet/shufflenet_block_1/basic_unit_4/sequential_9/separable_conv2d_8/separable_conv2d/depthwise", "StatefulPartitionedCall/shufflenet/shufflenet_block_1/basic_unit_4/sequential_9/separable_conv2d_8/separable_conv2d_weights", "StatefulPartitionedCall/shufflenet/shufflenet_block_1/basic_unit_4/sequential_9/separable_conv2d_8/separable_conv2d_bn_offset"], "device": "/device:CPU:0", "attr": {"dilations": {"list": {"i": ["1", "1", "1", "1"]}}, "T": {"type": "DT_FLOAT"}, "strides": {"list": {"i": ["1", "1", "1", "1"]}}, "data_format": {"s": "TkhXQw=="}, "use_cudnn_on_gpu": {"b": true}, "explicit_paddings": {"list": {}}, "num_args": {"i": "1"}, "epsilon": {"f": 0.0}, "padding": {"s": "VkFMSUQ="}, "fused_ops": {"list": {"s": ["Qmlhc0FkZA==", "UmVsdQ=="]}}}}, {"name": "StatefulPartitionedCall/shufflenet/shufflenet_block_1/strided_slice_8", "op": "StridedSlice", "input": ["StatefulPartitionedCall/shufflenet/shufflenet_block_1/basic_unit_4/sequential_9/re_lu_16/Relu", "StatefulPartitionedCall/shufflenet/shufflenet_block_1/strided_slice_8/stack", "StatefulPartitionedCall/shufflenet/shufflenet_block_1/strided_slice_8/stack_1", "StatefulPartitionedCall/shufflenet/shufflenet_block_1/strided_slice_8/stack_2"], "attr": {"T": {"type": "DT_FLOAT"}, "Index": {"type": "DT_INT32"}, "shrink_axis_mask": {"i": "0"}, "begin_mask": {"i": "7"}, "ellipsis_mask": {"i": "0"}, "new_axis_mask": {"i": "0"}, "end_mask": {"i": "15"}}}, {"name": "StatefulPartitionedCall/shufflenet/shufflenet_block_1/concat_4", "op": "ConcatV2", "input": ["StatefulPartitionedCall/shufflenet/shufflenet_block_1/strided_slice_8", "StatefulPartitionedCall/shufflenet/shufflenet_block_1/strided_slice_9", "StatefulPartitionedCall/shufflenet/shufflenet_block_1/concat_4/axis"], "attr": {"Tidx": {"type": "DT_INT32"}, "T": {"type": "DT_FLOAT"}, "N": {"i": "2"}}}, {"name": "StatefulPartitionedCall/shufflenet/shufflenet_block_1/strided_slice_10", "op": "StridedSlice", "input": ["StatefulPartitionedCall/shufflenet/shufflenet_block_1/concat_4", "StatefulPartitionedCall/shufflenet/shufflenet_block_1/strided_slice_10/stack", "StatefulPartitionedCall/shufflenet/shufflenet_block_1/strided_slice_10/stack_1", "StatefulPartitionedCall/shufflenet/shufflenet_block_1/strided_slice_10/stack_2"], "attr": {"Index": {"type": "DT_INT32"}, "T": {"type": "DT_FLOAT"}, "shrink_axis_mask": {"i": "0"}, "begin_mask": {"i": "7"}, "ellipsis_mask": {"i": "0"}, "new_axis_mask": {"i": "0"}, "end_mask": {"i": "15"}}}, {"name": "StatefulPartitionedCall/shufflenet/shufflenet_block_1/basic_unit_5/sequential_10/re_lu_17/Relu", "op": "_FusedConv2D", "input": ["StatefulPartitionedCall/shufflenet/shufflenet_block_1/concat_4", "StatefulPartitionedCall/shufflenet/shufflenet_block_1/basic_unit_5/sequential_10/conv2d_8/Conv2D_weights", "StatefulPartitionedCall/shufflenet/shufflenet_block_1/basic_unit_5/sequential_10/conv2d_8/Conv2D_bn_offset"], "device": "/device:CPU:0", "attr": {"dilations": {"list": {"i": ["1", "1", "1", "1"]}}, "T": {"type": "DT_FLOAT"}, "strides": {"list": {"i": ["1", "1", "1", "1"]}}, "data_format": {"s": "TkhXQw=="}, "use_cudnn_on_gpu": {"b": true}, "explicit_paddings": {"list": {}}, "num_args": {"i": "1"}, "epsilon": {"f": 0.0}, "padding": {"s": "U0FNRQ=="}, "fused_ops": {"list": {"s": ["Qmlhc0FkZA==", "UmVsdQ=="]}}}}, {"name": "StatefulPartitionedCall/shufflenet/shufflenet_block_1/concat_5", "op": "ConcatV2", "input": ["StatefulPartitionedCall/shufflenet/shufflenet_block_1/strided_slice_10", "StatefulPartitionedCall/shufflenet/shufflenet_block_1/strided_slice_11", "StatefulPartitionedCall/shufflenet/shufflenet_block_1/concat_5/axis"], "attr": {"Tidx": {"type": "DT_INT32"}, "T": {"type": "DT_FLOAT"}, "N": {"i": "2"}}}, {"name": "StatefulPartitionedCall/shufflenet/shufflenet_block_1/basic_unit_5/sequential_10/separable_conv2d_9/separable_conv2d/depthwise", "op": "DepthwiseConv2dNative", "input": ["StatefulPartitionedCall/shufflenet/shufflenet_block_1/basic_unit_5/sequential_10/re_lu_17/Relu", "StatefulPartitionedCall/shufflenet/shufflenet_block_1/basic_unit_5/sequential_10/separable_conv2d_9/separable_conv2d/ReadVariableOp"], "attr": {"padding": {"s": "U0FNRQ=="}, "dilations": {"list": {"i": ["1", "1", "1", "1"]}}, "T": {"type": "DT_FLOAT"}, "data_format": {"s": "TkhXQw=="}, "strides": {"list": {"i": ["1", "1", "1", "1"]}}, "explicit_paddings": {"list": {}}}}, {"name": "StatefulPartitionedCall/shufflenet/shufflenet_block_1/strided_slice_13", "op": "StridedSlice", "input": ["StatefulPartitionedCall/shufflenet/shufflenet_block_1/concat_5", "StatefulPartitionedCall/shufflenet/shufflenet_block_1/strided_slice_13/stack", "StatefulPartitionedCall/shufflenet/shufflenet_block_1/strided_slice_13/stack_1", "StatefulPartitionedCall/shufflenet/shufflenet_block_1/strided_slice_13/stack_2"], "attr": {"new_axis_mask": {"i": "0"}, "end_mask": {"i": "15"}, "Index": {"type": "DT_INT32"}, "T": {"type": "DT_FLOAT"}, "shrink_axis_mask": {"i": "0"}, "ellipsis_mask": {"i": "0"}, "begin_mask": {"i": "7"}}}, {"name": "StatefulPartitionedCall/shufflenet/shufflenet_block_1/strided_slice_15", "op": "StridedSlice", "input": ["StatefulPartitionedCall/shufflenet/shufflenet_block_1/concat_5", "StatefulPartitionedCall/shufflenet/shufflenet_block_1/strided_slice_15/stack", "StatefulPartitionedCall/shufflenet/shufflenet_block_1/strided_slice_15/stack_1", "StatefulPartitionedCall/shufflenet/shufflenet_block_1/strided_slice_15/stack_2"], "attr": {"T": {"type": "DT_FLOAT"}, "Index": {"type": "DT_INT32"}, "shrink_axis_mask": {"i": "0"}, "begin_mask": {"i": "7"}, "ellipsis_mask": {"i": "0"}, "new_axis_mask": {"i": "0"}, "end_mask": {"i": "15"}}}, {"name": "StatefulPartitionedCall/shufflenet/shufflenet_block_1/basic_unit_5/sequential_10/re_lu_18/Relu", "op": "_FusedConv2D", "input": ["StatefulPartitionedCall/shufflenet/shufflenet_block_1/basic_unit_5/sequential_10/separable_conv2d_9/separable_conv2d/depthwise", "StatefulPartitionedCall/shufflenet/shufflenet_block_1/basic_unit_5/sequential_10/separable_conv2d_9/separable_conv2d_weights", "StatefulPartitionedCall/shufflenet/shufflenet_block_1/basic_unit_5/sequential_10/separable_conv2d_9/separable_conv2d_bn_offset"], "device": "/device:CPU:0", "attr": {"explicit_paddings": {"list": {}}, "use_cudnn_on_gpu": {"b": true}, "num_args": {"i": "1"}, "epsilon": {"f": 0.0}, "padding": {"s": "VkFMSUQ="}, "fused_ops": {"list": {"s": ["Qmlhc0FkZA==", "UmVsdQ=="]}}, "dilations": {"list": {"i": ["1", "1", "1", "1"]}}, "T": {"type": "DT_FLOAT"}, "strides": {"list": {"i": ["1", "1", "1", "1"]}}, "data_format": {"s": "TkhXQw=="}}}, {"name": "StatefulPartitionedCall/shufflenet/shufflenet_block_1/strided_slice_12", "op": "StridedSlice", "input": ["StatefulPartitionedCall/shufflenet/shufflenet_block_1/basic_unit_5/sequential_10/re_lu_18/Relu", "StatefulPartitionedCall/shufflenet/shufflenet_block_1/strided_slice_12/stack", "StatefulPartitionedCall/shufflenet/shufflenet_block_1/strided_slice_12/stack_1", "StatefulPartitionedCall/shufflenet/shufflenet_block_1/strided_slice_12/stack_2"], "attr": {"shrink_axis_mask": {"i": "0"}, "begin_mask": {"i": "7"}, "ellipsis_mask": {"i": "0"}, "new_axis_mask": {"i": "0"}, "end_mask": {"i": "15"}, "T": {"type": "DT_FLOAT"}, "Index": {"type": "DT_INT32"}}}, {"name": "StatefulPartitionedCall/shufflenet/shufflenet_block_1/concat_6", "op": "ConcatV2", "input": ["StatefulPartitionedCall/shufflenet/shufflenet_block_1/strided_slice_12", "StatefulPartitionedCall/shufflenet/shufflenet_block_1/strided_slice_13", "StatefulPartitionedCall/shufflenet/shufflenet_block_1/concat_6/axis"], "attr": {"T": {"type": "DT_FLOAT"}, "N": {"i": "2"}, "Tidx": {"type": "DT_INT32"}}}, {"name": "StatefulPartitionedCall/shufflenet/shufflenet_block_1/strided_slice_14", "op": "StridedSlice", "input": ["StatefulPartitionedCall/shufflenet/shufflenet_block_1/concat_6", "StatefulPartitionedCall/shufflenet/shufflenet_block_1/strided_slice_14/stack", "StatefulPartitionedCall/shufflenet/shufflenet_block_1/strided_slice_14/stack_1", "StatefulPartitionedCall/shufflenet/shufflenet_block_1/strided_slice_14/stack_2"], "attr": {"shrink_axis_mask": {"i": "0"}, "begin_mask": {"i": "7"}, "ellipsis_mask": {"i": "0"}, "new_axis_mask": {"i": "0"}, "end_mask": {"i": "15"}, "Index": {"type": "DT_INT32"}, "T": {"type": "DT_FLOAT"}}}, {"name": "StatefulPartitionedCall/shufflenet/shufflenet_block_1/basic_unit_6/sequential_11/re_lu_19/Relu", "op": "_FusedConv2D", "input": ["StatefulPartitionedCall/shufflenet/shufflenet_block_1/concat_6", "StatefulPartitionedCall/shufflenet/shufflenet_block_1/basic_unit_6/sequential_11/conv2d_9/Conv2D_weights", "StatefulPartitionedCall/shufflenet/shufflenet_block_1/basic_unit_6/sequential_11/conv2d_9/Conv2D_bn_offset"], "device": "/device:CPU:0", "attr": {"epsilon": {"f": 0.0}, "padding": {"s": "U0FNRQ=="}, "fused_ops": {"list": {"s": ["Qmlhc0FkZA==", "UmVsdQ=="]}}, "dilations": {"list": {"i": ["1", "1", "1", "1"]}}, "T": {"type": "DT_FLOAT"}, "data_format": {"s": "TkhXQw=="}, "strides": {"list": {"i": ["1", "1", "1", "1"]}}, "use_cudnn_on_gpu": {"b": true}, "explicit_paddings": {"list": {}}, "num_args": {"i": "1"}}}, {"name": "StatefulPartitionedCall/shufflenet/shufflenet_block_1/concat_7", "op": "ConcatV2", "input": ["StatefulPartitionedCall/shufflenet/shufflenet_block_1/strided_slice_14", "StatefulPartitionedCall/shufflenet/shufflenet_block_1/strided_slice_15", "StatefulPartitionedCall/shufflenet/shufflenet_block_1/concat_7/axis"], "attr": {"Tidx": {"type": "DT_INT32"}, "T": {"type": "DT_FLOAT"}, "N": {"i": "2"}}}, {"name": "StatefulPartitionedCall/shufflenet/shufflenet_block_1/basic_unit_6/sequential_11/separable_conv2d_10/separable_conv2d/depthwise", "op": "DepthwiseConv2dNative", "input": ["StatefulPartitionedCall/shufflenet/shufflenet_block_1/basic_unit_6/sequential_11/re_lu_19/Relu", "StatefulPartitionedCall/shufflenet/shufflenet_block_1/basic_unit_6/sequential_11/separable_conv2d_10/separable_conv2d/ReadVariableOp"], "attr": {"dilations": {"list": {"i": ["1", "1", "1", "1"]}}, "T": {"type": "DT_FLOAT"}, "data_format": {"s": "TkhXQw=="}, "strides": {"list": {"i": ["1", "1", "1", "1"]}}, "explicit_paddings": {"list": {}}, "padding": {"s": "U0FNRQ=="}}}, {"name": "StatefulPartitionedCall/shufflenet/shufflenet_block_1/strided_slice_17", "op": "StridedSlice", "input": ["StatefulPartitionedCall/shufflenet/shufflenet_block_1/concat_7", "StatefulPartitionedCall/shufflenet/shufflenet_block_1/strided_slice_17/stack", "StatefulPartitionedCall/shufflenet/shufflenet_block_1/strided_slice_17/stack_1", "StatefulPartitionedCall/shufflenet/shufflenet_block_1/strided_slice_17/stack_2"], "attr": {"T": {"type": "DT_FLOAT"}, "Index": {"type": "DT_INT32"}, "shrink_axis_mask": {"i": "0"}, "begin_mask": {"i": "7"}, "ellipsis_mask": {"i": "0"}, "new_axis_mask": {"i": "0"}, "end_mask": {"i": "15"}}}, {"name": "StatefulPartitionedCall/shufflenet/shufflenet_block_1/strided_slice_19", "op": "StridedSlice", "input": ["StatefulPartitionedCall/shufflenet/shufflenet_block_1/concat_7", "StatefulPartitionedCall/shufflenet/shufflenet_block_1/strided_slice_19/stack", "StatefulPartitionedCall/shufflenet/shufflenet_block_1/strided_slice_19/stack_1", "StatefulPartitionedCall/shufflenet/shufflenet_block_1/strided_slice_19/stack_2"], "attr": {"new_axis_mask": {"i": "0"}, "end_mask": {"i": "15"}, "Index": {"type": "DT_INT32"}, "T": {"type": "DT_FLOAT"}, "shrink_axis_mask": {"i": "0"}, "ellipsis_mask": {"i": "0"}, "begin_mask": {"i": "7"}}}, {"name": "StatefulPartitionedCall/shufflenet/shufflenet_block_1/basic_unit_6/sequential_11/re_lu_20/Relu", "op": "_FusedConv2D", "input": ["StatefulPartitionedCall/shufflenet/shufflenet_block_1/basic_unit_6/sequential_11/separable_conv2d_10/separable_conv2d/depthwise", "StatefulPartitionedCall/shufflenet/shufflenet_block_1/basic_unit_6/sequential_11/separable_conv2d_10/separable_conv2d_weights", "StatefulPartitionedCall/shufflenet/shufflenet_block_1/basic_unit_6/sequential_11/separable_conv2d_10/separable_conv2d_bn_offset"], "device": "/device:CPU:0", "attr": {"epsilon": {"f": 0.0}, "padding": {"s": "VkFMSUQ="}, "fused_ops": {"list": {"s": ["Qmlhc0FkZA==", "UmVsdQ=="]}}, "dilations": {"list": {"i": ["1", "1", "1", "1"]}}, "T": {"type": "DT_FLOAT"}, "strides": {"list": {"i": ["1", "1", "1", "1"]}}, "data_format": {"s": "TkhXQw=="}, "explicit_paddings": {"list": {}}, "use_cudnn_on_gpu": {"b": true}, "num_args": {"i": "1"}}}, {"name": "StatefulPartitionedCall/shufflenet/shufflenet_block_1/strided_slice_16", "op": "StridedSlice", "input": ["StatefulPartitionedCall/shufflenet/shufflenet_block_1/basic_unit_6/sequential_11/re_lu_20/Relu", "StatefulPartitionedCall/shufflenet/shufflenet_block_1/strided_slice_16/stack", "StatefulPartitionedCall/shufflenet/shufflenet_block_1/strided_slice_16/stack_1", "StatefulPartitionedCall/shufflenet/shufflenet_block_1/strided_slice_16/stack_2"], "attr": {"shrink_axis_mask": {"i": "0"}, "ellipsis_mask": {"i": "0"}, "begin_mask": {"i": "7"}, "new_axis_mask": {"i": "0"}, "end_mask": {"i": "15"}, "T": {"type": "DT_FLOAT"}, "Index": {"type": "DT_INT32"}}}, {"name": "StatefulPartitionedCall/shufflenet/shufflenet_block_1/concat_8", "op": "ConcatV2", "input": ["StatefulPartitionedCall/shufflenet/shufflenet_block_1/strided_slice_16", "StatefulPartitionedCall/shufflenet/shufflenet_block_1/strided_slice_17", "StatefulPartitionedCall/shufflenet/shufflenet_block_1/concat_8/axis"], "attr": {"Tidx": {"type": "DT_INT32"}, "T": {"type": "DT_FLOAT"}, "N": {"i": "2"}}}, {"name": "StatefulPartitionedCall/shufflenet/shufflenet_block_1/strided_slice_18", "op": "StridedSlice", "input": ["StatefulPartitionedCall/shufflenet/shufflenet_block_1/concat_8", "StatefulPartitionedCall/shufflenet/shufflenet_block_1/strided_slice_18/stack", "StatefulPartitionedCall/shufflenet/shufflenet_block_1/strided_slice_18/stack_1", "StatefulPartitionedCall/shufflenet/shufflenet_block_1/strided_slice_18/stack_2"], "attr": {"new_axis_mask": {"i": "0"}, "end_mask": {"i": "15"}, "T": {"type": "DT_FLOAT"}, "Index": {"type": "DT_INT32"}, "shrink_axis_mask": {"i": "0"}, "begin_mask": {"i": "7"}, "ellipsis_mask": {"i": "0"}}}, {"name": "StatefulPartitionedCall/shufflenet/shufflenet_block_1/basic_unit_7/sequential_12/re_lu_21/Relu", "op": "_FusedConv2D", "input": ["StatefulPartitionedCall/shufflenet/shufflenet_block_1/concat_8", "StatefulPartitionedCall/shufflenet/shufflenet_block_1/basic_unit_7/sequential_12/conv2d_10/Conv2D_weights", "StatefulPartitionedCall/shufflenet/shufflenet_block_1/basic_unit_7/sequential_12/conv2d_10/Conv2D_bn_offset"], "device": "/device:CPU:0", "attr": {"dilations": {"list": {"i": ["1", "1", "1", "1"]}}, "T": {"type": "DT_FLOAT"}, "data_format": {"s": "TkhXQw=="}, "strides": {"list": {"i": ["1", "1", "1", "1"]}}, "explicit_paddings": {"list": {}}, "use_cudnn_on_gpu": {"b": true}, "num_args": {"i": "1"}, "epsilon": {"f": 0.0}, "padding": {"s": "U0FNRQ=="}, "fused_ops": {"list": {"s": ["Qmlhc0FkZA==", "UmVsdQ=="]}}}}, {"name": "StatefulPartitionedCall/shufflenet/shufflenet_block_1/concat_9", "op": "ConcatV2", "input": ["StatefulPartitionedCall/shufflenet/shufflenet_block_1/strided_slice_18", "StatefulPartitionedCall/shufflenet/shufflenet_block_1/strided_slice_19", "StatefulPartitionedCall/shufflenet/shufflenet_block_1/concat_9/axis"], "attr": {"T": {"type": "DT_FLOAT"}, "N": {"i": "2"}, "Tidx": {"type": "DT_INT32"}}}, {"name": "StatefulPartitionedCall/shufflenet/shufflenet_block_1/basic_unit_7/sequential_12/separable_conv2d_11/separable_conv2d/depthwise", "op": "DepthwiseConv2dNative", "input": ["StatefulPartitionedCall/shufflenet/shufflenet_block_1/basic_unit_7/sequential_12/re_lu_21/Relu", "StatefulPartitionedCall/shufflenet/shufflenet_block_1/basic_unit_7/sequential_12/separable_conv2d_11/separable_conv2d/ReadVariableOp"], "attr": {"explicit_paddings": {"list": {}}, "padding": {"s": "U0FNRQ=="}, "dilations": {"list": {"i": ["1", "1", "1", "1"]}}, "T": {"type": "DT_FLOAT"}, "strides": {"list": {"i": ["1", "1", "1", "1"]}}, "data_format": {"s": "TkhXQw=="}}}, {"name": "StatefulPartitionedCall/shufflenet/shufflenet_block_1/strided_slice_21", "op": "StridedSlice", "input": ["StatefulPartitionedCall/shufflenet/shufflenet_block_1/concat_9", "StatefulPartitionedCall/shufflenet/shufflenet_block_1/strided_slice_21/stack", "StatefulPartitionedCall/shufflenet/shufflenet_block_1/strided_slice_21/stack_1", "StatefulPartitionedCall/shufflenet/shufflenet_block_1/strided_slice_21/stack_2"], "attr": {"new_axis_mask": {"i": "0"}, "end_mask": {"i": "15"}, "T": {"type": "DT_FLOAT"}, "Index": {"type": "DT_INT32"}, "shrink_axis_mask": {"i": "0"}, "ellipsis_mask": {"i": "0"}, "begin_mask": {"i": "7"}}}, {"name": "StatefulPartitionedCall/shufflenet/shufflenet_block_1/strided_slice_23", "op": "StridedSlice", "input": ["StatefulPartitionedCall/shufflenet/shufflenet_block_1/concat_9", "StatefulPartitionedCall/shufflenet/shufflenet_block_1/strided_slice_23/stack", "StatefulPartitionedCall/shufflenet/shufflenet_block_1/strided_slice_23/stack_1", "StatefulPartitionedCall/shufflenet/shufflenet_block_1/strided_slice_23/stack_2"], "attr": {"shrink_axis_mask": {"i": "0"}, "ellipsis_mask": {"i": "0"}, "begin_mask": {"i": "7"}, "new_axis_mask": {"i": "0"}, "end_mask": {"i": "15"}, "T": {"type": "DT_FLOAT"}, "Index": {"type": "DT_INT32"}}}, {"name": "StatefulPartitionedCall/shufflenet/shufflenet_block_1/basic_unit_7/sequential_12/re_lu_22/Relu", "op": "_FusedConv2D", "input": ["StatefulPartitionedCall/shufflenet/shufflenet_block_1/basic_unit_7/sequential_12/separable_conv2d_11/separable_conv2d/depthwise", "StatefulPartitionedCall/shufflenet/shufflenet_block_1/basic_unit_7/sequential_12/separable_conv2d_11/separable_conv2d_weights", "StatefulPartitionedCall/shufflenet/shufflenet_block_1/basic_unit_7/sequential_12/separable_conv2d_11/separable_conv2d_bn_offset"], "device": "/device:CPU:0", "attr": {"use_cudnn_on_gpu": {"b": true}, "explicit_paddings": {"list": {}}, "num_args": {"i": "1"}, "epsilon": {"f": 0.0}, "padding": {"s": "VkFMSUQ="}, "fused_ops": {"list": {"s": ["Qmlhc0FkZA==", "UmVsdQ=="]}}, "dilations": {"list": {"i": ["1", "1", "1", "1"]}}, "T": {"type": "DT_FLOAT"}, "strides": {"list": {"i": ["1", "1", "1", "1"]}}, "data_format": {"s": "TkhXQw=="}}}, {"name": "StatefulPartitionedCall/shufflenet/shufflenet_block_1/strided_slice_20", "op": "StridedSlice", "input": ["StatefulPartitionedCall/shufflenet/shufflenet_block_1/basic_unit_7/sequential_12/re_lu_22/Relu", "StatefulPartitionedCall/shufflenet/shufflenet_block_1/strided_slice_20/stack", "StatefulPartitionedCall/shufflenet/shufflenet_block_1/strided_slice_20/stack_1", "StatefulPartitionedCall/shufflenet/shufflenet_block_1/strided_slice_20/stack_2"], "attr": {"Index": {"type": "DT_INT32"}, "T": {"type": "DT_FLOAT"}, "shrink_axis_mask": {"i": "0"}, "ellipsis_mask": {"i": "0"}, "begin_mask": {"i": "7"}, "new_axis_mask": {"i": "0"}, "end_mask": {"i": "15"}}}, {"name": "StatefulPartitionedCall/shufflenet/shufflenet_block_1/concat_10", "op": "ConcatV2", "input": ["StatefulPartitionedCall/shufflenet/shufflenet_block_1/strided_slice_20", "StatefulPartitionedCall/shufflenet/shufflenet_block_1/strided_slice_21", "StatefulPartitionedCall/shufflenet/shufflenet_block_1/concat_10/axis"], "attr": {"Tidx": {"type": "DT_INT32"}, "T": {"type": "DT_FLOAT"}, "N": {"i": "2"}}}, {"name": "StatefulPartitionedCall/shufflenet/shufflenet_block_1/strided_slice_22", "op": "StridedSlice", "input": ["StatefulPartitionedCall/shufflenet/shufflenet_block_1/concat_10", "StatefulPartitionedCall/shufflenet/shufflenet_block_1/strided_slice_22/stack", "StatefulPartitionedCall/shufflenet/shufflenet_block_1/strided_slice_22/stack_1", "StatefulPartitionedCall/shufflenet/shufflenet_block_1/strided_slice_22/stack_2"], "attr": {"shrink_axis_mask": {"i": "0"}, "begin_mask": {"i": "7"}, "ellipsis_mask": {"i": "0"}, "new_axis_mask": {"i": "0"}, "end_mask": {"i": "15"}, "Index": {"type": "DT_INT32"}, "T": {"type": "DT_FLOAT"}}}, {"name": "StatefulPartitionedCall/shufflenet/shufflenet_block_1/basic_unit_8/sequential_13/re_lu_23/Relu", "op": "_FusedConv2D", "input": ["StatefulPartitionedCall/shufflenet/shufflenet_block_1/concat_10", "StatefulPartitionedCall/shufflenet/shufflenet_block_1/basic_unit_8/sequential_13/conv2d_11/Conv2D_weights", "StatefulPartitionedCall/shufflenet/shufflenet_block_1/basic_unit_8/sequential_13/conv2d_11/Conv2D_bn_offset"], "device": "/device:CPU:0", "attr": {"padding": {"s": "U0FNRQ=="}, "fused_ops": {"list": {"s": ["Qmlhc0FkZA==", "UmVsdQ=="]}}, "dilations": {"list": {"i": ["1", "1", "1", "1"]}}, "T": {"type": "DT_FLOAT"}, "strides": {"list": {"i": ["1", "1", "1", "1"]}}, "data_format": {"s": "TkhXQw=="}, "explicit_paddings": {"list": {}}, "use_cudnn_on_gpu": {"b": true}, "num_args": {"i": "1"}, "epsilon": {"f": 0.0}}}, {"name": "StatefulPartitionedCall/shufflenet/shufflenet_block_1/concat_11", "op": "ConcatV2", "input": ["StatefulPartitionedCall/shufflenet/shufflenet_block_1/strided_slice_22", "StatefulPartitionedCall/shufflenet/shufflenet_block_1/strided_slice_23", "StatefulPartitionedCall/shufflenet/shufflenet_block_1/concat_11/axis"], "attr": {"N": {"i": "2"}, "Tidx": {"type": "DT_INT32"}, "T": {"type": "DT_FLOAT"}}}, {"name": "StatefulPartitionedCall/shufflenet/shufflenet_block_1/basic_unit_8/sequential_13/separable_conv2d_12/separable_conv2d/depthwise", "op": "DepthwiseConv2dNative", "input": ["StatefulPartitionedCall/shufflenet/shufflenet_block_1/basic_unit_8/sequential_13/re_lu_23/Relu", "StatefulPartitionedCall/shufflenet/shufflenet_block_1/basic_unit_8/sequential_13/separable_conv2d_12/separable_conv2d/ReadVariableOp"], "attr": {"padding": {"s": "U0FNRQ=="}, "dilations": {"list": {"i": ["1", "1", "1", "1"]}}, "T": {"type": "DT_FLOAT"}, "strides": {"list": {"i": ["1", "1", "1", "1"]}}, "data_format": {"s": "TkhXQw=="}, "explicit_paddings": {"list": {}}}}, {"name": "StatefulPartitionedCall/shufflenet/shufflenet_block_1/strided_slice_25", "op": "StridedSlice", "input": ["StatefulPartitionedCall/shufflenet/shufflenet_block_1/concat_11", "StatefulPartitionedCall/shufflenet/shufflenet_block_1/strided_slice_25/stack", "StatefulPartitionedCall/shufflenet/shufflenet_block_1/strided_slice_25/stack_1", "StatefulPartitionedCall/shufflenet/shufflenet_block_1/strided_slice_25/stack_2"], "attr": {"ellipsis_mask": {"i": "0"}, "begin_mask": {"i": "7"}, "new_axis_mask": {"i": "0"}, "end_mask": {"i": "15"}, "T": {"type": "DT_FLOAT"}, "Index": {"type": "DT_INT32"}, "shrink_axis_mask": {"i": "0"}}}, {"name": "StatefulPartitionedCall/shufflenet/shufflenet_block_1/strided_slice_27", "op": "StridedSlice", "input": ["StatefulPartitionedCall/shufflenet/shufflenet_block_1/concat_11", "StatefulPartitionedCall/shufflenet/shufflenet_block_1/strided_slice_27/stack", "StatefulPartitionedCall/shufflenet/shufflenet_block_1/strided_slice_27/stack_1", "StatefulPartitionedCall/shufflenet/shufflenet_block_1/strided_slice_27/stack_2"], "attr": {"T": {"type": "DT_FLOAT"}, "Index": {"type": "DT_INT32"}, "shrink_axis_mask": {"i": "0"}, "ellipsis_mask": {"i": "0"}, "begin_mask": {"i": "7"}, "new_axis_mask": {"i": "0"}, "end_mask": {"i": "15"}}}, {"name": "StatefulPartitionedCall/shufflenet/shufflenet_block_1/basic_unit_8/sequential_13/re_lu_24/Relu", "op": "_FusedConv2D", "input": ["StatefulPartitionedCall/shufflenet/shufflenet_block_1/basic_unit_8/sequential_13/separable_conv2d_12/separable_conv2d/depthwise", "StatefulPartitionedCall/shufflenet/shufflenet_block_1/basic_unit_8/sequential_13/separable_conv2d_12/separable_conv2d_weights", "StatefulPartitionedCall/shufflenet/shufflenet_block_1/basic_unit_8/sequential_13/separable_conv2d_12/separable_conv2d_bn_offset"], "device": "/device:CPU:0", "attr": {"dilations": {"list": {"i": ["1", "1", "1", "1"]}}, "T": {"type": "DT_FLOAT"}, "data_format": {"s": "TkhXQw=="}, "strides": {"list": {"i": ["1", "1", "1", "1"]}}, "use_cudnn_on_gpu": {"b": true}, "explicit_paddings": {"list": {}}, "num_args": {"i": "1"}, "epsilon": {"f": 0.0}, "padding": {"s": "VkFMSUQ="}, "fused_ops": {"list": {"s": ["Qmlhc0FkZA==", "UmVsdQ=="]}}}}, {"name": "StatefulPartitionedCall/shufflenet/shufflenet_block_1/strided_slice_24", "op": "StridedSlice", "input": ["StatefulPartitionedCall/shufflenet/shufflenet_block_1/basic_unit_8/sequential_13/re_lu_24/Relu", "StatefulPartitionedCall/shufflenet/shufflenet_block_1/strided_slice_24/stack", "StatefulPartitionedCall/shufflenet/shufflenet_block_1/strided_slice_24/stack_1", "StatefulPartitionedCall/shufflenet/shufflenet_block_1/strided_slice_24/stack_2"], "attr": {"shrink_axis_mask": {"i": "0"}, "begin_mask": {"i": "7"}, "ellipsis_mask": {"i": "0"}, "new_axis_mask": {"i": "0"}, "end_mask": {"i": "15"}, "T": {"type": "DT_FLOAT"}, "Index": {"type": "DT_INT32"}}}, {"name": "StatefulPartitionedCall/shufflenet/shufflenet_block_1/concat_12", "op": "ConcatV2", "input": ["StatefulPartitionedCall/shufflenet/shufflenet_block_1/strided_slice_24", "StatefulPartitionedCall/shufflenet/shufflenet_block_1/strided_slice_25", "StatefulPartitionedCall/shufflenet/shufflenet_block_1/concat_12/axis"], "attr": {"Tidx": {"type": "DT_INT32"}, "T": {"type": "DT_FLOAT"}, "N": {"i": "2"}}}, {"name": "StatefulPartitionedCall/shufflenet/shufflenet_block_1/strided_slice_26", "op": "StridedSlice", "input": ["StatefulPartitionedCall/shufflenet/shufflenet_block_1/concat_12", "StatefulPartitionedCall/shufflenet/shufflenet_block_1/strided_slice_26/stack", "StatefulPartitionedCall/shufflenet/shufflenet_block_1/strided_slice_26/stack_1", "StatefulPartitionedCall/shufflenet/shufflenet_block_1/strided_slice_26/stack_2"], "attr": {"ellipsis_mask": {"i": "0"}, "begin_mask": {"i": "7"}, "new_axis_mask": {"i": "0"}, "end_mask": {"i": "15"}, "T": {"type": "DT_FLOAT"}, "Index": {"type": "DT_INT32"}, "shrink_axis_mask": {"i": "0"}}}, {"name": "StatefulPartitionedCall/shufflenet/shufflenet_block_1/basic_unit_9/sequential_14/re_lu_25/Relu", "op": "_FusedConv2D", "input": ["StatefulPartitionedCall/shufflenet/shufflenet_block_1/concat_12", "StatefulPartitionedCall/shufflenet/shufflenet_block_1/basic_unit_9/sequential_14/conv2d_12/Conv2D_weights", "StatefulPartitionedCall/shufflenet/shufflenet_block_1/basic_unit_9/sequential_14/conv2d_12/Conv2D_bn_offset"], "device": "/device:CPU:0", "attr": {"dilations": {"list": {"i": ["1", "1", "1", "1"]}}, "T": {"type": "DT_FLOAT"}, "data_format": {"s": "TkhXQw=="}, "strides": {"list": {"i": ["1", "1", "1", "1"]}}, "use_cudnn_on_gpu": {"b": true}, "explicit_paddings": {"list": {}}, "num_args": {"i": "1"}, "epsilon": {"f": 0.0}, "padding": {"s": "U0FNRQ=="}, "fused_ops": {"list": {"s": ["Qmlhc0FkZA==", "UmVsdQ=="]}}}}, {"name": "StatefulPartitionedCall/shufflenet/shufflenet_block_1/basic_unit_9/sequential_14/separable_conv2d_13/separable_conv2d/depthwise", "op": "DepthwiseConv2dNative", "input": ["StatefulPartitionedCall/shufflenet/shufflenet_block_1/basic_unit_9/sequential_14/re_lu_25/Relu", "StatefulPartitionedCall/shufflenet/shufflenet_block_1/basic_unit_9/sequential_14/separable_conv2d_13/separable_conv2d/ReadVariableOp"], "attr": {"dilations": {"list": {"i": ["1", "1", "1", "1"]}}, "T": {"type": "DT_FLOAT"}, "strides": {"list": {"i": ["1", "1", "1", "1"]}}, "data_format": {"s": "TkhXQw=="}, "explicit_paddings": {"list": {}}, "padding": {"s": "U0FNRQ=="}}}, {"name": "StatefulPartitionedCall/shufflenet/shufflenet_block_1/basic_unit_9/sequential_14/re_lu_26/Relu", "op": "_FusedConv2D", "input": ["StatefulPartitionedCall/shufflenet/shufflenet_block_1/basic_unit_9/sequential_14/separable_conv2d_13/separable_conv2d/depthwise", "StatefulPartitionedCall/shufflenet/shufflenet_block_1/basic_unit_9/sequential_14/separable_conv2d_13/separable_conv2d_weights", "StatefulPartitionedCall/shufflenet/shufflenet_block_1/basic_unit_9/sequential_14/separable_conv2d_13/separable_conv2d_bn_offset"], "device": "/device:CPU:0", "attr": {"strides": {"list": {"i": ["1", "1", "1", "1"]}}, "data_format": {"s": "TkhXQw=="}, "explicit_paddings": {"list": {}}, "use_cudnn_on_gpu": {"b": true}, "num_args": {"i": "1"}, "epsilon": {"f": 0.0}, "padding": {"s": "VkFMSUQ="}, "fused_ops": {"list": {"s": ["Qmlhc0FkZA==", "UmVsdQ=="]}}, "dilations": {"list": {"i": ["1", "1", "1", "1"]}}, "T": {"type": "DT_FLOAT"}}}, {"name": "StatefulPartitionedCall/shufflenet/shufflenet_block_1/concat_14", "op": "ConcatV2", "input": ["StatefulPartitionedCall/shufflenet/shufflenet_block_1/basic_unit_9/sequential_14/re_lu_26/Relu", "StatefulPartitionedCall/shufflenet/shufflenet_block_1/strided_slice_26", "StatefulPartitionedCall/shufflenet/shufflenet_block_1/strided_slice_27", "StatefulPartitionedCall/shufflenet/shufflenet_block_1/concat_14/axis"], "attr": {"Tidx": {"type": "DT_INT32"}, "T": {"type": "DT_FLOAT"}, "N": {"i": "3"}}}, {"name": "StatefulPartitionedCall/global_average_pooling2d_1/Mean", "op": "Mean", "input": ["StatefulPartitionedCall/shufflenet/shufflenet_block_1/concat_14", "StatefulPartitionedCall/global_average_pooling2d_1/Mean/reduction_indices"], "attr": {"Tidx": {"type": "DT_INT32"}, "keep_dims": {"b": false}, "T": {"type": "DT_FLOAT"}}}, {"name": "StatefulPartitionedCall/shufflenet/shufflenet_block_2/basic_unit_with_downsampling_2/sequential_16/separable_conv2d_15/separable_conv2d/depthwise", "op": "DepthwiseConv2dNative", "input": ["StatefulPartitionedCall/shufflenet/shufflenet_block_1/concat_14", "StatefulPartitionedCall/shufflenet/shufflenet_block_2/basic_unit_with_downsampling_2/sequential_16/separable_conv2d_15/separable_conv2d/ReadVariableOp"], "attr": {"explicit_paddings": {"list": {}}, "padding": {"s": "U0FNRQ=="}, "dilations": {"list": {"i": ["1", "1", "1", "1"]}}, "T": {"type": "DT_FLOAT"}, "data_format": {"s": "TkhXQw=="}, "strides": {"list": {"i": ["1", "2", "2", "1"]}}}}, {"name": "StatefulPartitionedCall/shufflenet/shufflenet_block_2/basic_unit_with_downsampling_2/sequential_15/re_lu_27/Relu", "op": "_FusedConv2D", "input": ["StatefulPartitionedCall/shufflenet/shufflenet_block_1/concat_14", "StatefulPartitionedCall/shufflenet/shufflenet_block_2/basic_unit_with_downsampling_2/sequential_15/conv2d_13/Conv2D_weights", "StatefulPartitionedCall/shufflenet/shufflenet_block_2/basic_unit_with_downsampling_2/sequential_15/conv2d_13/Conv2D_bn_offset"], "device": "/device:CPU:0", "attr": {"epsilon": {"f": 0.0}, "padding": {"s": "U0FNRQ=="}, "fused_ops": {"list": {"s": ["Qmlhc0FkZA==", "UmVsdQ=="]}}, "dilations": {"list": {"i": ["1", "1", "1", "1"]}}, "T": {"type": "DT_FLOAT"}, "strides": {"list": {"i": ["1", "1", "1", "1"]}}, "data_format": {"s": "TkhXQw=="}, "explicit_paddings": {"list": {}}, "use_cudnn_on_gpu": {"b": true}, "num_args": {"i": "1"}}}, {"name": "StatefulPartitionedCall/shufflenet/shufflenet_block_2/basic_unit_with_downsampling_2/sequential_16/re_lu_29/Relu", "op": "_FusedConv2D", "input": ["StatefulPartitionedCall/shufflenet/shufflenet_block_2/basic_unit_with_downsampling_2/sequential_16/separable_conv2d_15/separable_conv2d/depthwise", "StatefulPartitionedCall/shufflenet/shufflenet_block_2/basic_unit_with_downsampling_2/sequential_16/separable_conv2d_15/separable_conv2d_weights", "StatefulPartitionedCall/shufflenet/shufflenet_block_2/basic_unit_with_downsampling_2/sequential_16/separable_conv2d_15/separable_conv2d_bn_offset"], "device": "/device:CPU:0", "attr": {"dilations": {"list": {"i": ["1", "1", "1", "1"]}}, "T": {"type": "DT_FLOAT"}, "data_format": {"s": "TkhXQw=="}, "strides": {"list": {"i": ["1", "1", "1", "1"]}}, "explicit_paddings": {"list": {}}, "use_cudnn_on_gpu": {"b": true}, "num_args": {"i": "1"}, "epsilon": {"f": 0.0}, "padding": {"s": "VkFMSUQ="}, "fused_ops": {"list": {"s": ["Qmlhc0FkZA==", "UmVsdQ=="]}}}}, {"name": "StatefulPartitionedCall/shufflenet/shufflenet_block_2/basic_unit_with_downsampling_2/sequential_15/separable_conv2d_14/separable_conv2d/depthwise", "op": "DepthwiseConv2dNative", "input": ["StatefulPartitionedCall/shufflenet/shufflenet_block_2/basic_unit_with_downsampling_2/sequential_15/re_lu_27/Relu", "StatefulPartitionedCall/shufflenet/shufflenet_block_2/basic_unit_with_downsampling_2/sequential_15/separable_conv2d_14/separable_conv2d/ReadVariableOp"], "attr": {"dilations": {"list": {"i": ["1", "1", "1", "1"]}}, "T": {"type": "DT_FLOAT"}, "strides": {"list": {"i": ["1", "2", "2", "1"]}}, "data_format": {"s": "TkhXQw=="}, "explicit_paddings": {"list": {}}, "padding": {"s": "U0FNRQ=="}}}, {"name": "StatefulPartitionedCall/shufflenet/shufflenet_block_2/strided_slice_1", "op": "StridedSlice", "input": ["StatefulPartitionedCall/shufflenet/shufflenet_block_2/basic_unit_with_downsampling_2/sequential_16/re_lu_29/Relu", "StatefulPartitionedCall/shufflenet/shufflenet_block_2/strided_slice_1/stack", "StatefulPartitionedCall/shufflenet/shufflenet_block_2/strided_slice_1/stack_1", "StatefulPartitionedCall/shufflenet/shufflenet_block_2/strided_slice_1/stack_2"], "attr": {"new_axis_mask": {"i": "0"}, "end_mask": {"i": "15"}, "T": {"type": "DT_FLOAT"}, "Index": {"type": "DT_INT32"}, "shrink_axis_mask": {"i": "0"}, "begin_mask": {"i": "7"}, "ellipsis_mask": {"i": "0"}}}, {"name": "StatefulPartitionedCall/shufflenet/shufflenet_block_2/strided_slice_3", "op": "StridedSlice", "input": ["StatefulPartitionedCall/shufflenet/shufflenet_block_2/basic_unit_with_downsampling_2/sequential_16/re_lu_29/Relu", "StatefulPartitionedCall/shufflenet/shufflenet_block_2/strided_slice_3/stack", "StatefulPartitionedCall/shufflenet/shufflenet_block_2/strided_slice_3/stack_1", "StatefulPartitionedCall/shufflenet/shufflenet_block_2/strided_slice_3/stack_2"], "attr": {"ellipsis_mask": {"i": "0"}, "begin_mask": {"i": "7"}, "new_axis_mask": {"i": "0"}, "end_mask": {"i": "15"}, "Index": {"type": "DT_INT32"}, "T": {"type": "DT_FLOAT"}, "shrink_axis_mask": {"i": "0"}}}, {"name": "StatefulPartitionedCall/shufflenet/shufflenet_block_2/basic_unit_with_downsampling_2/sequential_15/re_lu_28/Relu", "op": "_FusedConv2D", "input": ["StatefulPartitionedCall/shufflenet/shufflenet_block_2/basic_unit_with_downsampling_2/sequential_15/separable_conv2d_14/separable_conv2d/depthwise", "StatefulPartitionedCall/shufflenet/shufflenet_block_2/basic_unit_with_downsampling_2/sequential_15/separable_conv2d_14/separable_conv2d_weights", "StatefulPartitionedCall/shufflenet/shufflenet_block_2/basic_unit_with_downsampling_2/sequential_15/separable_conv2d_14/separable_conv2d_bn_offset"], "device": "/device:CPU:0", "attr": {"dilations": {"list": {"i": ["1", "1", "1", "1"]}}, "T": {"type": "DT_FLOAT"}, "data_format": {"s": "TkhXQw=="}, "strides": {"list": {"i": ["1", "1", "1", "1"]}}, "use_cudnn_on_gpu": {"b": true}, "explicit_paddings": {"list": {}}, "num_args": {"i": "1"}, "epsilon": {"f": 0.0}, "padding": {"s": "VkFMSUQ="}, "fused_ops": {"list": {"s": ["Qmlhc0FkZA==", "UmVsdQ=="]}}}}, {"name": "StatefulPartitionedCall/shufflenet/shufflenet_block_2/strided_slice", "op": "StridedSlice", "input": ["StatefulPartitionedCall/shufflenet/shufflenet_block_2/basic_unit_with_downsampling_2/sequential_15/re_lu_28/Relu", "StatefulPartitionedCall/shufflenet/shufflenet_block_2/strided_slice/stack", "StatefulPartitionedCall/shufflenet/shufflenet_block_2/strided_slice/stack_1", "StatefulPartitionedCall/shufflenet/shufflenet_block_2/strided_slice/stack_2"], "attr": {"new_axis_mask": {"i": "0"}, "end_mask": {"i": "15"}, "Index": {"type": "DT_INT32"}, "T": {"type": "DT_FLOAT"}, "shrink_axis_mask": {"i": "0"}, "begin_mask": {"i": "7"}, "ellipsis_mask": {"i": "0"}}}, {"name": "StatefulPartitionedCall/shufflenet/shufflenet_block_2/concat", "op": "ConcatV2", "input": ["StatefulPartitionedCall/shufflenet/shufflenet_block_2/strided_slice", "StatefulPartitionedCall/shufflenet/shufflenet_block_2/strided_slice_1", "StatefulPartitionedCall/shufflenet/shufflenet_block_2/concat/axis"], "attr": {"T": {"type": "DT_FLOAT"}, "N": {"i": "2"}, "Tidx": {"type": "DT_INT32"}}}, {"name": "StatefulPartitionedCall/shufflenet/shufflenet_block_2/strided_slice_2", "op": "StridedSlice", "input": ["StatefulPartitionedCall/shufflenet/shufflenet_block_2/concat", "StatefulPartitionedCall/shufflenet/shufflenet_block_2/strided_slice_2/stack", "StatefulPartitionedCall/shufflenet/shufflenet_block_2/strided_slice_2/stack_1", "StatefulPartitionedCall/shufflenet/shufflenet_block_2/strided_slice_2/stack_2"], "attr": {"new_axis_mask": {"i": "0"}, "end_mask": {"i": "15"}, "Index": {"type": "DT_INT32"}, "T": {"type": "DT_FLOAT"}, "shrink_axis_mask": {"i": "0"}, "begin_mask": {"i": "7"}, "ellipsis_mask": {"i": "0"}}}, {"name": "StatefulPartitionedCall/shufflenet/shufflenet_block_2/basic_unit_10/sequential_17/re_lu_30/Relu", "op": "_FusedConv2D", "input": ["StatefulPartitionedCall/shufflenet/shufflenet_block_2/concat", "StatefulPartitionedCall/shufflenet/shufflenet_block_2/basic_unit_10/sequential_17/conv2d_14/Conv2D_weights", "StatefulPartitionedCall/shufflenet/shufflenet_block_2/basic_unit_10/sequential_17/conv2d_14/Conv2D_bn_offset"], "device": "/device:CPU:0", "attr": {"dilations": {"list": {"i": ["1", "1", "1", "1"]}}, "T": {"type": "DT_FLOAT"}, "data_format": {"s": "TkhXQw=="}, "strides": {"list": {"i": ["1", "1", "1", …
": "DT_FLOAT"}, "strides": {"list": {"i": ["1", "1", "1", "1"]}}, "data_format": {"s": "TkhXQw=="}, "explicit_paddings": {"list": {}}, "padding": {"s": "U0FNRQ=="}}}, {"name": "StatefulPartitionedCall/shufflenet/shufflenet_block_2/strided_slice_9", "op": "StridedSlice", "input": ["StatefulPartitionedCall/shufflenet/shufflenet_block_2/concat_3", "StatefulPartitionedCall/shufflenet/shufflenet_block_2/strided_slice_9/stack", "StatefulPartitionedCall/shufflenet/shufflenet_block_2/strided_slice_9/stack_1", "StatefulPartitionedCall/shufflenet/shufflenet_block_2/strided_slice_9/stack_2"], "attr": {"T": {"type": "DT_FLOAT"}, "Index": {"type": "DT_INT32"}, "shrink_axis_mask": {"i": "0"}, "ellipsis_mask": {"i": "0"}, "begin_mask": {"i": "7"}, "new_axis_mask": {"i": "0"}, "end_mask": {"i": "15"}}}, {"name": "StatefulPartitionedCall/shufflenet/shufflenet_block_2/strided_slice_11", "op": "StridedSlice", "input": ["StatefulPartitionedCall/shufflenet/shufflenet_block_2/concat_3", "StatefulPartitionedCall/shufflenet/shufflenet_block_2/strided_slice_11/stack", "StatefulPartitionedCall/shufflenet/shufflenet_block_2/strided_slice_11/stack_1", "StatefulPartitionedCall/shufflenet/shufflenet_block_2/strided_slice_11/stack_2"], "attr": {"new_axis_mask": {"i": "0"}, "end_mask": {"i": "15"}, "T": {"type": "DT_FLOAT"}, "Index": {"type": "DT_INT32"}, "shrink_axis_mask": {"i": "0"}, "ellipsis_mask": {"i": "0"}, "begin_mask": {"i": "7"}}}, {"name": "StatefulPartitionedCall/shufflenet/shufflenet_block_2/basic_unit_11/sequential_18/re_lu_33/Relu", "op": "_FusedConv2D", "input": ["StatefulPartitionedCall/shufflenet/shufflenet_block_2/basic_unit_11/sequential_18/separable_conv2d_17/separable_conv2d/depthwise", "StatefulPartitionedCall/shufflenet/shufflenet_block_2/basic_unit_11/sequential_18/separable_conv2d_17/separable_conv2d_weights", "StatefulPartitionedCall/shufflenet/shufflenet_block_2/basic_unit_11/sequential_18/separable_conv2d_17/separable_conv2d_bn_offset"], "device": "/device:CPU:0", "attr": {"dilations": {"list": {"i": ["1", "1", "1", "1"]}}, "T": {"type": "DT_FLOAT"}, "strides": {"list": {"i": ["1", "1", "1", "1"]}}, "data_format": {"s": "TkhXQw=="}, "use_cudnn_on_gpu": {"b": true}, "explicit_paddings": {"list": {}}, "num_args": {"i": "1"}, "epsilon": {"f": 0.0}, "padding": {"s": "VkFMSUQ="}, "fused_ops": {"list": {"s": ["Qmlhc0FkZA==", "UmVsdQ=="]}}}}, {"name": "StatefulPartitionedCall/shufflenet/shufflenet_block_2/strided_slice_8", "op": "StridedSlice", "input": ["StatefulPartitionedCall/shufflenet/shufflenet_block_2/basic_unit_11/sequential_18/re_lu_33/Relu", "StatefulPartitionedCall/shufflenet/shufflenet_block_2/strided_slice_8/stack", "StatefulPartitionedCall/shufflenet/shufflenet_block_2/strided_slice_8/stack_1", "StatefulPartitionedCall/shufflenet/shufflenet_block_2/strided_slice_8/stack_2"], "attr": {"new_axis_mask": {"i": "0"}, "end_mask": {"i": "15"}, "Index": {"type": "DT_INT32"}, "T": {"type": "DT_FLOAT"}, "shrink_axis_mask": {"i": "0"}, "begin_mask": {"i": "7"}, "ellipsis_mask": {"i": "0"}}}, {"name": "StatefulPartitionedCall/shufflenet/shufflenet_block_2/concat_4", "op": "ConcatV2", "input": ["StatefulPartitionedCall/shufflenet/shufflenet_block_2/strided_slice_8", "StatefulPartitionedCall/shufflenet/shufflenet_block_2/strided_slice_9", "StatefulPartitionedCall/shufflenet/shufflenet_block_2/concat_4/axis"], "attr": {"N": {"i": "2"}, "Tidx": {"type": "DT_INT32"}, "T": {"type": "DT_FLOAT"}}}, {"name": "StatefulPartitionedCall/shufflenet/shufflenet_block_2/strided_slice_10", "op": "StridedSlice", "input": ["StatefulPartitionedCall/shufflenet/shufflenet_block_2/concat_4", "StatefulPartitionedCall/shufflenet/shufflenet_block_2/strided_slice_10/stack", "StatefulPartitionedCall/shufflenet/shufflenet_block_2/strided_slice_10/stack_1", "StatefulPartitionedCall/shufflenet/shufflenet_block_2/strided_slice_10/stack_2"], "attr": {"shrink_axis_mask": {"i": "0"}, "ellipsis_mask": {"i": "0"}, "begin_mask": {"i": "7"}, "new_axis_mask": {"i": "0"}, "end_mask": {"i": "15"}, "Index": {"type": "DT_INT32"}, "T": {"type": "DT_FLOAT"}}}, {"name": "StatefulPartitionedCall/shufflenet/shufflenet_block_2/basic_unit_12/sequential_19/re_lu_34/Relu", "op": "_FusedConv2D", "input": ["StatefulPartitionedCall/shufflenet/shufflenet_block_2/concat_4", "StatefulPartitionedCall/shufflenet/shufflenet_block_2/basic_unit_12/sequential_19/conv2d_16/Conv2D_weights", "StatefulPartitionedCall/shufflenet/shufflenet_block_2/basic_unit_12/sequential_19/conv2d_16/Conv2D_bn_offset"], "device": "/device:CPU:0", "attr": {"epsilon": {"f": 0.0}, "padding": {"s": "U0FNRQ=="}, "fused_ops": {"list": {"s": ["Qmlhc0FkZA==", "UmVsdQ=="]}}, "dilations": {"list": {"i": ["1", "1", "1", "1"]}}, "T": {"type": "DT_FLOAT"}, "data_format": {"s": "TkhXQw=="}, "strides": {"list": {"i": ["1", "1", "1", "1"]}}, "explicit_paddings": {"list": {}}, "use_cudnn_on_gpu": {"b": true}, "num_args": {"i": "1"}}}, {"name": "StatefulPartitionedCall/shufflenet/shufflenet_block_2/basic_unit_12/sequential_19/separable_conv2d_18/separable_conv2d/depthwise", "op": "DepthwiseConv2dNative", "input": ["StatefulPartitionedCall/shufflenet/shufflenet_block_2/basic_unit_12/sequential_19/re_lu_34/Relu", "StatefulPartitionedCall/shufflenet/shufflenet_block_2/basic_unit_12/sequential_19/separable_conv2d_18/separable_conv2d/ReadVariableOp"], "attr": {"padding": {"s": "U0FNRQ=="}, "dilations": {"list": {"i": ["1", "1", "1", "1"]}}, "T": {"type": "DT_FLOAT"}, "strides": {"list": {"i": ["1", "1", "1", "1"]}}, "data_format": {"s": "TkhXQw=="}, "explicit_paddings": {"list": {}}}}, {"name": "StatefulPartitionedCall/shufflenet/shufflenet_block_2/basic_unit_12/sequential_19/re_lu_35/Relu", "op": "_FusedConv2D", "input": ["StatefulPartitionedCall/shufflenet/shufflenet_block_2/basic_unit_12/sequential_19/separable_conv2d_18/separable_conv2d/depthwise", "StatefulPartitionedCall/shufflenet/shufflenet_block_2/basic_unit_12/sequential_19/separable_conv2d_18/separable_conv2d_weights", "StatefulPartitionedCall/shufflenet/shufflenet_block_2/basic_unit_12/sequential_19/separable_conv2d_18/separable_conv2d_bn_offset"], "device": "/device:CPU:0", "attr": {"explicit_paddings": {"list": {}}, "use_cudnn_on_gpu": {"b": true}, "num_args": {"i": "1"}, "epsilon": {"f": 0.0}, "padding": {"s": "VkFMSUQ="}, "fused_ops": {"list": {"s": ["Qmlhc0FkZA==", "UmVsdQ=="]}}, "dilations": {"list": {"i": ["1", "1", "1", "1"]}}, "T": {"type": "DT_FLOAT"}, "strides": {"list": {"i": ["1", "1", "1", "1"]}}, "data_format": {"s": "TkhXQw=="}}}, {"name": "StatefulPartitionedCall/shufflenet/shufflenet_block_2/concat_6", "op": "ConcatV2", "input": ["StatefulPartitionedCall/shufflenet/shufflenet_block_2/basic_unit_12/sequential_19/re_lu_35/Relu", "StatefulPartitionedCall/shufflenet/shufflenet_block_2/strided_slice_10", "StatefulPartitionedCall/shufflenet/shufflenet_block_2/strided_slice_11", "StatefulPartitionedCall/shufflenet/shufflenet_block_2/concat_6/axis"], "attr": {"Tidx": {"type": "DT_INT32"}, "T": {"type": "DT_FLOAT"}, "N": {"i": "3"}}}, {"name": "StatefulPartitionedCall/global_average_pooling2d_2/Mean", "op": "Mean", "input": ["StatefulPartitionedCall/shufflenet/shufflenet_block_2/concat_6", "StatefulPartitionedCall/global_average_pooling2d_2/Mean/reduction_indices"], "attr": {"T": {"type": "DT_FLOAT"}, "Tidx": {"type": "DT_INT32"}, "keep_dims": {"b": false}}}, {"name": "StatefulPartitionedCall/concat", "op": "ConcatV2", "input": ["StatefulPartitionedCall/global_average_pooling2d/Mean", "StatefulPartitionedCall/global_average_pooling2d_1/Mean", "StatefulPartitionedCall/global_average_pooling2d_2/Mean", "StatefulPartitionedCall/concat/axis"], "attr": {"N": {"i": "3"}, "Tidx": {"type": "DT_INT32"}, "T": {"type": "DT_FLOAT"}}}, {"name": "StatefulPartitionedCall/simple_face_head/dense/BiasAdd", "op": "_FusedMatMul", "input": ["StatefulPartitionedCall/concat", "StatefulPartitionedCall/simple_face_head/dense/MatMul/ReadVariableOp", "StatefulPartitionedCall/simple_face_head/dense/BiasAdd/ReadVariableOp"], "device": "/device:CPU:0", "attr": {"T": {"type": "DT_FLOAT"}, "num_args": {"i": "1"}, "epsilon": {"f": 0.0}, "fused_ops": {"list": {"s": ["Qmlhc0FkZA=="]}}, "transpose_a": {"b": false}, "transpose_b": {"b": false}}}, {"name": "StatefulPartitionedCall/strided_slice", "op": "StridedSlice", "input": ["StatefulPartitionedCall/simple_face_head/dense/BiasAdd", "StatefulPartitionedCall/strided_slice/stack", "StatefulPartitionedCall/strided_slice/stack_1", "StatefulPartitionedCall/strided_slice/stack_2"], "attr": {"Index": {"type": "DT_INT32"}, "T": {"type": "DT_FLOAT"}, "shrink_axis_mask": {"i": "0"}, "ellipsis_mask": {"i": "0"}, "begin_mask": {"i": "3"}, "new_axis_mask": {"i": "0"}, "end_mask": {"i": "1"}}}, {"name": "StatefulPartitionedCall/strided_slice_2", "op": "StridedSlice", "input": ["StatefulPartitionedCall/simple_face_head/dense/BiasAdd", "StatefulPartitionedCall/strided_slice_2/stack", "StatefulPartitionedCall/strided_slice_2/stack_1", "StatefulPartitionedCall/strided_slice_2/stack_2"], "attr": {"shrink_axis_mask": {"i": "0"}, "begin_mask": {"i": "1"}, "ellipsis_mask": {"i": "0"}, "new_axis_mask": {"i": "0"}, "end_mask": {"i": "3"}, "Index": {"type": "DT_INT32"}, "T": {"type": "DT_FLOAT"}}}, {"name": "StatefulPartitionedCall/strided_slice_1", "op": "StridedSlice", "input": ["StatefulPartitionedCall/simple_face_head/dense/BiasAdd", "StatefulPartitionedCall/strided_slice_1/stack", "StatefulPartitionedCall/strided_slice_1/stack_1", "StatefulPartitionedCall/strided_slice_1/stack_2"], "attr": {"ellipsis_mask": {"i": "0"}, "begin_mask": {"i": "1"}, "new_axis_mask": {"i": "0"}, "end_mask": {"i": "1"}, "T": {"type": "DT_FLOAT"}, "Index": {"type": "DT_INT32"}, "shrink_axis_mask": {"i": "0"}}}, {"name": "Identity_2", "op": "Identity", "input": ["StatefulPartitionedCall/strided_slice"], "attr": {"T": {"type": "DT_FLOAT"}}}, {"name": "Identity", "op": "Identity", "input": ["StatefulPartitionedCall/strided_slice_2"], "attr": {"T": {"type": "DT_FLOAT"}}}, {"name": "Identity_1", "op": "Identity", "input": ["StatefulPartitionedCall/strided_slice_1"], "attr": {"T": {"type": "DT_FLOAT"}}}], "library": {}, "versions": {"producer": 440}}, "weightsManifest": [{"paths": ["group1-shard1of1.bin"], "weights": [{"name": "StatefulPartitionedCall/strided_slice_2/stack", "shape": [2], "dtype": "int32"}, {"name": "StatefulPartitionedCall/strided_slice_2/stack_1", "shape": [2], "dtype": "int32"}, {"name": "StatefulPartitionedCall/strided_slice_2/stack_2", "shape": [2], "dtype": "int32"}, {"name": "StatefulPartitionedCall/strided_slice_1/stack", "shape": [2], "dtype": "int32"}, {"name": "StatefulPartitionedCall/strided_slice_1/stack_1", "shape": [2], "dtype": "int32"}, {"name": "StatefulPartitionedCall/strided_slice_1/stack_2", "shape": [2], "dtype": "int32"}, {"name": "StatefulPartitionedCall/global_average_pooling2d/Mean/reduction_indices", "shape": [2], "dtype": "int32"}, {"name": "StatefulPartitionedCall/global_average_pooling2d_1/Mean/reduction_indices", "shape": [2], "dtype": "int32"}, {"name": "StatefulPartitionedCall/shufflenet/shufflenet_block_2/basic_unit_12/sequential_19/separable_conv2d_18/separable_conv2d/ReadVariableOp", "shape": [3, 3, 192, 1], "dtype": "float32"}, {"name": "StatefulPartitionedCall/shufflenet/shufflenet_block_2/basic_unit_11/sequential_18/separable_conv2d_17/separable_conv2d/ReadVariableOp", "shape": [3, 3, 192, 1], "dtype": "float32"}, {"name": "StatefulPartitionedCall/shufflenet/shufflenet_block_2/strided_slice_8/stack", "shape": [4], "dtype": "int32"}, {"name": "StatefulPartitionedCall/shufflenet/shufflenet_block_2/strided_slice_8/stack_1", "shape": [4], "dtype": "int32"}, {"name": "StatefulPartitionedCall/shufflenet/shufflenet_block_2/strided_slice_8/stack_2", "shape": [4], "dtype": "int32"}, {"name": "StatefulPartitionedCall/shufflenet/shufflenet_block_2/strided_slice_9/stack", "shape": [4], "dtype": "int32"}, {"name": "StatefulPartitionedCall/shufflenet/shufflenet_block_2/strided_slice_9/stack_1", "shape": [4], "dtype": "int32"}, {"name": "StatefulPartitionedCall/shufflenet/shufflenet_block_2/strided_slice_9/stack_2", "shape": [4], "dtype": "int32"}, {"name": "StatefulPartitionedCall/shufflenet/shufflenet_block_2/concat_4/axis", "shape": [], "dtype": "int32"}, {"name": "StatefulPartitionedCall/shufflenet/shufflenet_block_2/strided_slice_10/stack", "shape": [4], "dtype": "int32"}, {"name": "StatefulPartitionedCall/shufflenet/shufflenet_block_2/strided_slice_10/stack_1", "shape": [4], "dtype": "int32"}, {"name": "StatefulPartitionedCall/shufflenet/shufflenet_block_2/strided_slice_10/stack_2", "shape": [4], "dtype": "int32"}, {"name": "StatefulPartitionedCall/shufflenet/shufflenet_block_2/basic_unit_10/sequential_17/separable_conv2d_16/separable_conv2d/ReadVariableOp", "shape": [3, 3, 192, 1], "dtype": "float32"}, {"name": "StatefulPartitionedCall/shufflenet/shufflenet_block_2/strided_slice_4/stack", "shape": [4], "dtype": "int32"}, {"name": "StatefulPartitionedCall/shufflenet/shufflenet_block_2/strided_slice_4/stack_1", "shape": [4], "dtype": "int32"}, {"name": "StatefulPartitionedCall/shufflenet/shufflenet_block_2/strided_slice_4/stack_2", "shape": [4], "dtype": "int32"}, {"name": "StatefulPartitionedCall/shufflenet/shufflenet_block_2/strided_slice_5/stack", "shape": [4], "dtype": "int32"}, {"name": "StatefulPartitionedCall/shufflenet/shufflenet_block_2/strided_slice_5/stack_1", "shape": [4], "dtype": "int32"}, {"name": "StatefulPartitionedCall/shufflenet/shufflenet_block_2/strided_slice_5/stack_2", "shape": [4], "dtype": "int32"}, {"name": "StatefulPartitionedCall/shufflenet/shufflenet_block_2/concat_2/axis", "shape": [], "dtype": "int32"}, {"name": "StatefulPartitionedCall/shufflenet/shufflenet_block_2/strided_slice_6/stack", "shape": [4], "dtype": "int32"}, {"name": "StatefulPartitionedCall/shufflenet/shufflenet_block_2/strided_slice_6/stack_1", "shape": [4], "dtype": "int32"}, {"name": "StatefulPartitionedCall/shufflenet/shufflenet_block_2/strided_slice_6/stack_2", "shape": [4], "dtype": "int32"}, {"name": "StatefulPartitionedCall/shufflenet/shufflenet_block_2/basic_unit_with_downsampling_2/sequential_15/separable_conv2d_14/separable_conv2d/ReadVariableOp", "shape": [3, 3, 192, 1], "dtype": "float32"}, {"name": "StatefulPartitionedCall/shufflenet/shufflenet_block_2/strided_slice/stack", "shape": [4], "dtype": "int32"}, {"name": "StatefulPartitionedCall/shufflenet/shufflenet_block_2/strided_slice/stack_1", "shape": [4], "dtype": "int32"}, {"name": "StatefulPartitionedCall/shufflenet/shufflenet_block_2/strided_slice/stack_2", "shape": [4], "dtype": "int32"}, {"name": "StatefulPartitionedCall/shufflenet/shufflenet_block_2/strided_slice_1/stack", "shape": [4], "dtype": "int32"}, {"name": "StatefulPartitionedCall/shufflenet/shufflenet_block_2/strided_slice_1/stack_1", "shape": [4], "dtype": "int32"}, {"name": "StatefulPartitionedCall/shufflenet/shufflenet_block_2/strided_slice_1/stack_2", "shape": [4], "dtype": "int32"}, {"name": "StatefulPartitionedCall/shufflenet/shufflenet_block_2/concat/axis", "shape": [], "dtype": "int32"}, {"name": "StatefulPartitionedCall/shufflenet/shufflenet_block_2/strided_slice_2/stack", "shape": [4], "dtype": "int32"}, {"name": "StatefulPartitionedCall/shufflenet/shufflenet_block_2/strided_slice_2/stack_1", "shape": [4], "dtype": "int32"}, {"name": "StatefulPartitionedCall/shufflenet/shufflenet_block_2/strided_slice_2/stack_2", "shape": [4], "dtype": "int32"}, {"name": "StatefulPartitionedCall/shufflenet/shufflenet_block_1/basic_unit_9/sequential_14/separable_conv2d_13/separable_conv2d/ReadVariableOp", "shape": [3, 3, 96, 1], "dtype": "float32"}, {"name": "StatefulPartitionedCall/shufflenet/shufflenet_block_1/basic_unit_8/sequential_13/separable_conv2d_12/separable_conv2d/ReadVariableOp", "shape": [3, 3, 96, 1], "dtype": "float32"}, {"name": "StatefulPartitionedCall/shufflenet/shufflenet_block_1/strided_slice_24/stack", "shape": [4], "dtype": "int32"}, {"name": "StatefulPartitionedCall/shufflenet/shufflenet_block_1/strided_slice_24/stack_1", "shape": [4], "dtype": "int32"}, {"name": "StatefulPartitionedCall/shufflenet/shufflenet_block_1/strided_slice_24/stack_2", "shape": [4], "dtype": "int32"}, {"name": "StatefulPartitionedCall/shufflenet/shufflenet_block_1/strided_slice_25/stack", "shape": [4], "dtype": "int32"}, {"name": "StatefulPartitionedCall/shufflenet/shufflenet_block_1/strided_slice_25/stack_1", "shape": [4], "dtype": "int32"}, {"name": "StatefulPartitionedCall/shufflenet/shufflenet_block_1/strided_slice_25/stack_2", "shape": [4], "dtype": "int32"}, {"name": "StatefulPartitionedCall/shufflenet/shufflenet_block_1/concat_12/axis", "shape": [], "dtype": "int32"}, {"name": "StatefulPartitionedCall/shufflenet/shufflenet_block_1/strided_slice_26/stack", "shape": [4], "dtype": "int32"}, {"name": "StatefulPartitionedCall/shufflenet/shufflenet_block_1/strided_slice_26/stack_1", "shape": [4], "dtype": "int32"}, {"name": "StatefulPartitionedCall/shufflenet/shufflenet_block_1/strided_slice_26/stack_2", "shape": [4], "dtype": "int32"}, {"name": "StatefulPartitionedCall/shufflenet/shufflenet_block_1/basic_unit_7/sequential_12/separable_conv2d_11/separable_conv2d/ReadVariableOp", "shape": [3, 3, 96, 1], "dtype": "float32"}, {"name": "StatefulPartitionedCall/shufflenet/shufflenet_block_1/strided_slice_20/stack", "shape": [4], "dtype": "int32"}, {"name": "StatefulPartitionedCall/shufflenet/shufflenet_block_1/strided_slice_20/stack_1", "shape": [4], "dtype": "int32"}, {"name": "StatefulPartitionedCall/shufflenet/shufflenet_block_1/strided_slice_20/stack_2", "shape": [4], "dtype": "int32"}, {"name": "StatefulPartitionedCall/shufflenet/shufflenet_block_1/strided_slice_21/stack", "shape": [4], "dtype": "int32"}, {"name": "StatefulPartitionedCall/shufflenet/shufflenet_block_1/strided_slice_21/stack_1", "shape": [4], "dtype": "int32"}, {"name": "StatefulPartitionedCall/shufflenet/shufflenet_block_1/strided_slice_21/stack_2", "shape": [4], "dtype": "int32"}, {"name": "StatefulPartitionedCall/shufflenet/shufflenet_block_1/concat_10/axis", "shape": [], "dtype": "int32"}, {"name": "StatefulPartitionedCall/shufflenet/shufflenet_block_1/strided_slice_22/stack", "shape": [4], "dtype": "int32"}, {"name": "StatefulPartitionedCall/shufflenet/shufflenet_block_1/strided_slice_22/stack_1", "shape": [4], "dtype": "int32"}, {"name": "StatefulPartitionedCall/shufflenet/shufflenet_block_1/strided_slice_22/stack_2", "shape": [4], "dtype": "int32"}, {"name": "StatefulPartitionedCall/shufflenet/shufflenet_block_1/basic_unit_6/sequential_11/separable_conv2d_10/separable_conv2d/ReadVariableOp", "shape": [3, 3, 96, 1], "dtype": "float32"}, {"name": "StatefulPartitionedCall/shufflenet/shufflenet_block_1/strided_slice_16/stack", "shape": [4], "dtype": "int32"}, {"name": "StatefulPartitionedCall/shufflenet/shufflenet_block_1/strided_slice_16/stack_1", "shape": [4], "dtype": "int32"}, {"name": "StatefulPartitionedCall/shufflenet/shufflenet_block_1/strided_slice_16/stack_2", "shape": [4], "dtype": "int32"}, {"name": "StatefulPartitionedCall/shufflenet/shufflenet_block_1/strided_slice_17/stack", "shape": [4], "dtype": "int32"}, {"name": "StatefulPartitionedCall/shufflenet/shufflenet_block_1/strided_slice_17/stack_1", "shape": [4], "dtype": "int32"}, {"name": "StatefulPartitionedCall/shufflenet/shufflenet_block_1/strided_slice_17/stack_2", "shape": [4], "dtype": "int32"}, {"name": "StatefulPartitionedCall/shufflenet/shufflenet_block_1/concat_8/axis", "shape": [], "dtype": "int32"}, {"name": "StatefulPartitionedCall/shufflenet/shufflenet_block_1/strided_slice_18/stack", "shape": [4], "dtype": "int32"}, {"name": "StatefulPartitionedCall/shufflenet/shufflenet_block_1/strided_slice_18/stack_1", "shape": [4], "dtype": "int32"}, {"name": "StatefulPartitionedCall/shufflenet/shufflenet_block_1/strided_slice_18/stack_2", "shape": [4], "dtype": "int32"}, {"name": "StatefulPartitionedCall/shufflenet/shufflenet_block_1/basic_unit_5/sequential_10/separable_conv2d_9/separable_conv2d/ReadVariableOp", "shape": [3, 3, 96, 1], "dtype": "float32"}, {"name": "StatefulPartitionedCall/shufflenet/shufflenet_block_1/strided_slice_12/stack", "shape": [4], "dtype": "int32"}, {"name": "StatefulPartitionedCall/shufflenet/shufflenet_block_1/strided_slice_12/stack_1", "shape": [4], "dtype": "int32"}, {"name": "StatefulPartitionedCall/shufflenet/shufflenet_block_1/strided_slice_12/stack_2", "shape": [4], "dtype": "int32"}, {"name": "StatefulPartitionedCall/shufflenet/shufflenet_block_1/strided_slice_13/stack", "shape": [4], "dtype": "int32"}, {"name": "StatefulPartitionedCall/shufflenet/shufflenet_block_1/strided_slice_13/stack_1", "shape": [4], "dtype": "int32"}, {"name": "StatefulPartitionedCall/shufflenet/shufflenet_block_1/strided_slice_13/stack_2", "shape": [4], "dtype": "int32"}, {"name": "StatefulPartitionedCall/shufflenet/shufflenet_block_1/concat_6/axis", "shape": [], "dtype": "int32"}, {"name": "StatefulPartitionedCall/shufflenet/shufflenet_block_1/strided_slice_14/stack", "shape": [4], "dtype": "int32"}, {"name": "StatefulPartitionedCall/shufflenet/shufflenet_block_1/strided_slice_14/stack_1", "shape": [4], "dtype": "int32"}, {"name": "StatefulPartitionedCall/shufflenet/shufflenet_block_1/strided_slice_14/stack_2", "shape": [4], "dtype": "int32"}, {"name": "StatefulPartitionedCall/shufflenet/shufflenet_block_1/basic_unit_4/sequential_9/separable_conv2d_8/separable_conv2d/ReadVariableOp", "shape": [3, 3, 96, 1], "dtype": "float32"}, {"name": "StatefulPartitionedCall/shufflenet/shufflenet_block_1/strided_slice_8/stack", "shape": [4], "dtype": "int32"}, {"name": "StatefulPartitionedCall/shufflenet/shufflenet_block_1/strided_slice_8/stack_1", "shape": [4], "dtype": "int32"}, {"name": "StatefulPartitionedCall/shufflenet/shufflenet_block_1/strided_slice_8/stack_2", "shape": [4], "dtype": "int32"}, {"name": "StatefulPartitionedCall/shufflenet/shufflenet_block_1/strided_slice_9/stack", "shape": [4], "dtype": "int32"}, {"name": "StatefulPartitionedCall/shufflenet/shufflenet_block_1/strided_slice_9/stack_1", "shape": [4], "dtype": "int32"}, {"name": "StatefulPartitionedCall/shufflenet/shufflenet_block_1/strided_slice_9/stack_2", "shape": [4], "dtype": "int32"}, {"name": "StatefulPartitionedCall/shufflenet/shufflenet_block_1/concat_4/axis", "shape": [], "dtype": "int32"}, {"name": "StatefulPartitionedCall/shufflenet/shufflenet_block_1/strided_slice_10/stack", "shape": [4], "dtype": "int32"}, {"name": "StatefulPartitionedCall/shufflenet/shufflenet_block_1/strided_slice_10/stack_1", "shape": [4], "dtype": "int32"}, {"name": "StatefulPartitionedCall/shufflenet/shufflenet_block_1/strided_slice_10/stack_2", "shape": [4], "dtype": "int32"}, {"name": "StatefulPartitionedCall/shufflenet/shufflenet_block_1/basic_unit_3/sequential_8/separable_conv2d_7/separable_conv2d/ReadVariableOp", "shape": [3, 3, 96, 1], "dtype": "float32"}, {"name": "StatefulPartitionedCall/shufflenet/shufflenet_block_1/strided_slice_4/stack", "shape": [4], "dtype": "int32"}, {"name": "StatefulPartitionedCall/shufflenet/shufflenet_block_1/strided_slice_4/stack_1", "shape": [4], "dtype": "int32"}, {"name": "StatefulPartitionedCall/shufflenet/shufflenet_block_1/strided_slice_4/stack_2", "shape": [4], "dtype": "int32"}, {"name": "StatefulPartitionedCall/shufflenet/shufflenet_block_1/strided_slice_5/stack", "shape": [4], "dtype": "int32"}, {"name": "StatefulPartitionedCall/shufflenet/shufflenet_block_1/strided_slice_5/stack_1", "shape": [4], "dtype": "int32"}, {"name": "StatefulPartitionedCall/shufflenet/shufflenet_block_1/strided_slice_5/stack_2", "shape": [4], "dtype": "int32"}, {"name": "StatefulPartitionedCall/shufflenet/shufflenet_block_1/concat_2/axis", "shape": [], "dtype": "int32"}, {"name": "StatefulPartitionedCall/shufflenet/shufflenet_block_1/strided_slice_6/stack", "shape": [4], "dtype": "int32"}, {"name": "StatefulPartitionedCall/shufflenet/shufflenet_block_1/strided_slice_6/stack_1", "shape": [4], "dtype": "int32"}, {"name": "StatefulPartitionedCall/shufflenet/shufflenet_block_1/strided_slice_6/stack_2", "shape": [4], "dtype": "int32"}, {"name": "StatefulPartitionedCall/shufflenet/shufflenet_block_1/basic_unit_with_downsampling_1/sequential_6/separable_conv2d_5/separable_conv2d/ReadVariableOp", "shape": [3, 3, 96, 1], "dtype": "float32"}, {"name": "StatefulPartitionedCall/shufflenet/shufflenet_block_1/strided_slice/stack", "shape": [4], "dtype": "int32"}, {"name": "StatefulPartitionedCall/shufflenet/shufflenet_block_1/strided_slice/stack_1", "shape": [4], "dtype": "int32"}, {"name": "StatefulPartitionedCall/shufflenet/shufflenet_block_1/strided_slice/stack_2", "shape": [4], "dtype": "int32"}, {"name": "StatefulPartitionedCall/shufflenet/shufflenet_block_1/strided_slice_1/stack", "shape": [4], "dtype": "int32"}, {"name": "StatefulPartitionedCall/shufflenet/shufflenet_block_1/strided_slice_1/stack_1", "shape": [4], "dtype": "int32"}, {"name": "StatefulPartitionedCall/shufflenet/shufflenet_block_1/strided_slice_1/stack_2", "shape": [4], "dtype": "int32"}, {"name": "StatefulPartitionedCall/shufflenet/shufflenet_block_1/concat/axis", "shape": [], "dtype": "int32"}, {"name": "StatefulPartitionedCall/shufflenet/shufflenet_block_1/strided_slice_2/stack", "shape": [4], "dtype": "int32"}, {"name": "StatefulPartitionedCall/shufflenet/shufflenet_block_1/strided_slice_2/stack_1", "shape": [4], "dtype": "int32"}, {"name": "StatefulPartitionedCall/shufflenet/shufflenet_block_1/strided_slice_2/stack_2", "shape": [4], "dtype": "int32"}, {"name": "StatefulPartitionedCall/shufflenet/shufflenet_block/basic_unit_2/sequential_5/separable_conv2d_4/separable_conv2d/ReadVariableOp", "shape": [3, 3, 48, 1], "dtype": "float32"}, {"name": "StatefulPartitionedCall/shufflenet/shufflenet_block/basic_unit_1/sequential_4/separable_conv2d_3/separable_conv2d/ReadVariableOp", "shape": [3, 3, 48, 1], "dtype": "float32"}, {"name": "StatefulPartitionedCall/shufflenet/shufflenet_block/strided_slice_8/stack", "shape": [4], "dtype": "int32"}, {"name": "StatefulPartitionedCall/shufflenet/shufflenet_block/strided_slice_8/stack_1", "shape": [4], "dtype": "int32"}, {"name": "StatefulPartitionedCall/shufflenet/shufflenet_block/strided_slice_8/stack_2", "shape": [4], "dtype": "int32"}, {"name": "StatefulPartitionedCall/shufflenet/shufflenet_block/strided_slice_9/stack", "shape": [4], "dtype": "int32"}, {"name": "StatefulPartitionedCall/shufflenet/shufflenet_block/strided_slice_9/stack_1", "shape": [4], "dtype": "int32"}, {"name": "StatefulPartitionedCall/shufflenet/shufflenet_block/strided_slice_9/stack_2", "shape": [4], "dtype": "int32"}, {"name": "StatefulPartitionedCall/shufflenet/shufflenet_block/concat_4/axis", "shape": [], "dtype": "int32"}, {"name": "StatefulPartitionedCall/shufflenet/shufflenet_block/strided_slice_10/stack", "shape": [4], "dtype": "int32"}, {"name": "StatefulPartitionedCall/shufflenet/shufflenet_block/strided_slice_10/stack_1", "shape": [4], "dtype": "int32"}, {"name": "StatefulPartitionedCall/shufflenet/shufflenet_block/strided_slice_10/stack_2", "shape": [4], "dtype": "int32"}, {"name": "StatefulPartitionedCall/shufflenet/shufflenet_block/basic_unit/sequential_3/separable_conv2d_2/separable_conv2d/ReadVariableOp", "shape": [3, 3, 48, 1], "dtype": "float32"}, {"name": "StatefulPartitionedCall/shufflenet/shufflenet_block/strided_slice_4/stack", "shape": [4], "dtype": "int32"}, {"name": "StatefulPartitionedCall/shufflenet/shufflenet_block/strided_slice_4/stack_1", "shape": [4], "dtype": "int32"}, {"name": "StatefulPartitionedCall/shufflenet/shufflenet_block/strided_slice_4/stack_2", "shape": [4], "dtype": "int32"}, {"name": "StatefulPartitionedCall/shufflenet/shufflenet_block/strided_slice_5/stack", "shape": [4], "dtype": "int32"}, {"name": "StatefulPartitionedCall/shufflenet/shufflenet_block/strided_slice_5/stack_1", "shape": [4], "dtype": "int32"}, {"name": "StatefulPartitionedCall/shufflenet/shufflenet_block/strided_slice_5/stack_2", "shape": [4], "dtype": "int32"}, {"name": "StatefulPartitionedCall/shufflenet/shufflenet_block/concat_2/axis", "shape": [], "dtype": "int32"}, {"name": "StatefulPartitionedCall/shufflenet/shufflenet_block/strided_slice_6/stack", "shape": [4], "dtype": "int32"}, {"name": "StatefulPartitionedCall/shufflenet/shufflenet_block/strided_slice_6/stack_1", "shape": [4], "dtype": "int32"}, {"name": "StatefulPartitionedCall/shufflenet/shufflenet_block/strided_slice_6/stack_2", "shape": [4], "dtype": "int32"}, {"name": "StatefulPartitionedCall/shufflenet/shufflenet_block/basic_unit_with_downsampling/sequential_1/separable_conv2d/separable_conv2d/ReadVariableOp", "shape": [3, 3, 48, 1], "dtype": "float32"}, {"name": "StatefulPartitionedCall/shufflenet/shufflenet_block/strided_slice/stack", "shape": [4], "dtype": "int32"}, {"name": "StatefulPartitionedCall/shufflenet/shufflenet_block/strided_slice/stack_1", "shape": [4], "dtype": "int32"}, {"name": "StatefulPartitionedCall/shufflenet/shufflenet_block/strided_slice/stack_2", "shape": [4], "dtype": "int32"}, {"name": "StatefulPartitionedCall/shufflenet/shufflenet_block/strided_slice_1/stack", "shape": [4], "dtype": "int32"}, {"name": "StatefulPartitionedCall/shufflenet/shufflenet_block/strided_slice_1/stack_1", "shape": [4], "dtype": "int32"}, {"name": "StatefulPartitionedCall/shufflenet/shufflenet_block/strided_slice_1/stack_2", "shape": [4], "dtype": "int32"}, {"name": "StatefulPartitionedCall/shufflenet/shufflenet_block/concat/axis", "shape": [], "dtype": "int32"}, {"name": "StatefulPartitionedCall/shufflenet/shufflenet_block/strided_slice_2/stack", "shape": [4], "dtype": "int32"}, {"name": "StatefulPartitionedCall/shufflenet/shufflenet_block/strided_slice_2/stack_1", "shape": [4], "dtype": "int32"}, {"name": "StatefulPartitionedCall/shufflenet/shufflenet_block/strided_slice_2/stack_2", "shape": [4], "dtype": "int32"}, {"name": "StatefulPartitionedCall/Const", "shape": [3], "dtype": "float32"}, {"name": "ConstantFolding/StatefulPartitionedCall/truediv_recip", "shape": [3], "dtype": "float32"}, {"name": "StatefulPartitionedCall/shufflenet/shufflenet_block/basic_unit_with_downsampling/sequential_2/separable_conv2d_1/separable_conv2d/ReadVariableOp", "shape": [3, 3, 24, 1], "dtype": "float32"}, {"name": "StatefulPartitionedCall/shufflenet/shufflenet_block/strided_slice_3/stack", "shape": [4], "dtype": "int32"}, {"name": "StatefulPartitionedCall/shufflenet/shufflenet_block/strided_slice_3/stack_1", "shape": [4], "dtype": "int32"}, {"name": "StatefulPartitionedCall/shufflenet/shufflenet_block/strided_slice_3/stack_2", "shape": [4], "dtype": "int32"}, {"name": "StatefulPartitionedCall/shufflenet/shufflenet_block/concat_1/axis", "shape": [], "dtype": "int32"}, {"name": "StatefulPartitionedCall/shufflenet/shufflenet_block/strided_slice_7/stack", "shape": [4], "dtype": "int32"}, {"name": "StatefulPartitionedCall/shufflenet/shufflenet_block/strided_slice_7/stack_1", "shape": [4], "dtype": "int32"}, {"name": "StatefulPartitionedCall/shufflenet/shufflenet_block/strided_slice_7/stack_2", "shape": [4], "dtype": "int32"}, {"name": "StatefulPartitionedCall/shufflenet/shufflenet_block/concat_3/axis", "shape": [], "dtype": "int32"}, {"name": "StatefulPartitionedCall/shufflenet/shufflenet_block/strided_slice_11/stack", "shape": [4], "dtype": "int32"}, {"name": "StatefulPartitionedCall/shufflenet/shufflenet_block/strided_slice_11/stack_1", "shape": [4], "dtype": "int32"}, {"name": "StatefulPartitionedCall/shufflenet/shufflenet_block/strided_slice_11/stack_2", "shape": [4], "dtype": "int32"}, {"name": "StatefulPartitionedCall/shufflenet/shufflenet_block/concat_6/axis", "shape": [], "dtype": "int32"}, {"name": "StatefulPartitionedCall/shufflenet/shufflenet_block_1/basic_unit_with_downsampling_1/sequential_7/separable_conv2d_6/separable_conv2d/ReadVariableOp", "shape": [3, 3, 96, 1], "dtype": "float32"}, {"name": "StatefulPartitionedCall/shufflenet/shufflenet_block_1/strided_slice_3/stack", "shape": [4], "dtype": "int32"}, {"name": "StatefulPartitionedCall/shufflenet/shufflenet_block_1/strided_slice_3/stack_1", "shape": [4], "dtype": "int32"}, {"name": "StatefulPartitionedCall/shufflenet/shufflenet_block_1/strided_slice_3/stack_2", "shape": [4], "dtype": "int32"}, {"name": "StatefulPartitionedCall/shufflenet/shufflenet_block_1/concat_1/axis", "shape": [], "dtype": "int32"}, {"name": "StatefulPartitionedCall/shufflenet/shufflenet_block_1/strided_slice_7/stack", "shape": [4], "dtype": "int32"}, {"name": "StatefulPartitionedCall/shufflenet/shufflenet_block_1/strided_slice_7/stack_1", "shape": [4], "dtype": "int32"}, {"name": "StatefulPartitionedCall/shufflenet/shufflenet_block_1/strided_slice_7/stack_2", "shape": [4], "dtype": "int32"}, {"name": "StatefulPartitionedCall/shufflenet/shufflenet_block_1/concat_3/axis", "shape": [], "dtype": "int32"}, {"name": "StatefulPartitionedCall/shufflenet/shufflenet_block_1/strided_slice_11/stack", "shape": [4], "dtype": "int32"}, {"name": "StatefulPartitionedCall/shufflenet/shufflenet_block_1/strided_slice_11/stack_1", "shape": [4], "dtype": "int32"}, {"name": "StatefulPartitionedCall/shufflenet/shufflenet_block_1/strided_slice_11/stack_2", "shape": [4], "dtype": "int32"}, {"name": "StatefulPartitionedCall/shufflenet/shufflenet_block_1/concat_5/axis", "shape": [], "dtype": "int32"}, {"name": "StatefulPartitionedCall/shufflenet/shufflenet_block_1/strided_slice_15/stack", "shape": [4], "dtype": "int32"}, {"name": "StatefulPartitionedCall/shufflenet/shufflenet_block_1/strided_slice_15/stack_1", "shape": [4], "dtype": "int32"}, {"name": "StatefulPartitionedCall/shufflenet/shufflenet_block_1/strided_slice_15/stack_2", "shape": [4], "dtype": "int32"}, {"name": "StatefulPartitionedCall/shufflenet/shufflenet_block_1/concat_7/axis", "shape": [], "dtype": "int32"}, {"name": "StatefulPartitionedCall/shufflenet/shufflenet_block_1/strided_slice_19/stack", "shape": [4], "dtype": "int32"}, {"name": "StatefulPartitionedCall/shufflenet/shufflenet_block_1/strided_slice_19/stack_1", "shape": [4], "dtype": "int32"}, {"name": "StatefulPartitionedCall/shufflenet/shufflenet_block_1/strided_slice_19/stack_2", "shape": [4], "dtype": "int32"}, {"name": "StatefulPartitionedCall/shufflenet/shufflenet_block_1/concat_9/axis", "shape": [], "dtype": "int32"}, {"name": "StatefulPartitionedCall/shufflenet/shufflenet_block_1/strided_slice_23/stack", "shape": [4], "dtype": "int32"}, {"name": "StatefulPartitionedCall/shufflenet/shufflenet_block_1/strided_slice_23/stack_1", "shape": [4], "dtype": "int32"}, {"name": "StatefulPartitionedCall/shufflenet/shufflenet_block_1/strided_slice_23/stack_2", "shape": [4], "dtype": "int32"}, {"name": "StatefulPartitionedCall/shufflenet/shufflenet_block_1/concat_11/axis", "shape": [], "dtype": "int32"}, {"name": "StatefulPartitionedCall/shufflenet/shufflenet_block_1/strided_slice_27/stack", "shape": [4], "dtype": "int32"}, {"name": "StatefulPartitionedCall/shufflenet/shufflenet_block_1/strided_slice_27/stack_1", "shape": [4], "dtype": "int32"}, {"name": "StatefulPartitionedCall/shufflenet/shufflenet_block_1/strided_slice_27/stack_2", "shape": [4], "dtype": "int32"}, {"name": "StatefulPartitionedCall/shufflenet/shufflenet_block_1/concat_14/axis", "shape": [], "dtype": "int32"}, {"name": "StatefulPartitionedCall/shufflenet/shufflenet_block_2/basic_unit_with_downsampling_2/sequential_16/separable_conv2d_15/separable_conv2d/ReadVariableOp", "shape": [3, 3, 192, 1], "dtype": "float32"}, {"name": "StatefulPartitionedCall/shufflenet/shufflenet_block_2/strided_slice_3/stack", "shape": [4], "dtype": "int32"}, {"name": "StatefulPartitionedCall/shufflenet/shufflenet_block_2/strided_slice_3/stack_1", "shape": [4], "dtype": "int32"}, {"name": "StatefulPartitionedCall/shufflenet/shufflenet_block_2/strided_slice_3/stack_2", "shape": [4], "dtype": "int32"}, {"name": "StatefulPartitionedCall/shufflenet/shufflenet_block_2/concat_1/axis", "shape": [], "dtype": "int32"}, {"name": "StatefulPartitionedCall/shufflenet/shufflenet_block_2/strided_slice_7/stack", "shape": [4], "dtype": "int32"}, {"name": "StatefulPartitionedCall/shufflenet/shufflenet_block_2/strided_slice_7/stack_1", "shape": [4], "dtype": "int32"}, {"name": "StatefulPartitionedCall/shufflenet/shufflenet_block_2/strided_slice_7/stack_2", "shape": [4], "dtype": "int32"}, {"name": "StatefulPartitionedCall/shufflenet/shufflenet_block_2/concat_3/axis", "shape": [], "dtype": "int32"}, {"name": "StatefulPartitionedCall/shufflenet/shufflenet_block_2/strided_slice_11/stack", "shape": [4], "dtype": "int32"}, {"name": "StatefulPartitionedCall/shufflenet/shufflenet_block_2/strided_slice_11/stack_1", "shape": [4], "dtype": "int32"}, {"name": "StatefulPartitionedCall/shufflenet/shufflenet_block_2/strided_slice_11/stack_2", "shape": [4], "dtype": "int32"}, {"name": "StatefulPartitionedCall/shufflenet/shufflenet_block_2/concat_6/axis", "shape": [], "dtype": "int32"}, {"name": "StatefulPartitionedCall/global_average_pooling2d_2/Mean/reduction_indices", "shape": [2], "dtype": "int32"}, {"name": "StatefulPartitionedCall/concat/axis", "shape": [], "dtype": "int32"}, {"name": "StatefulPartitionedCall/simple_face_head/dense/MatMul/ReadVariableOp", "shape": [672, 143], "dtype": "float32"}, {"name": "StatefulPartitionedCall/simple_face_head/dense/BiasAdd/ReadVariableOp", "shape": [143], "dtype": "float32"}, {"name": "StatefulPartitionedCall/strided_slice/stack", "shape": [2], "dtype": "int32"}, {"name": "StatefulPartitionedCall/strided_slice/stack_1", "shape": [2], "dtype": "int32"}, {"name": "StatefulPartitionedCall/strided_slice/stack_2", "shape": [2], "dtype": "int32"}, {"name": "StatefulPartitionedCall/shufflenet/sequential/conv2d/Conv2D_weights", "shape": [3, 3, 3, 24], "dtype": "float32"}, {"name": "StatefulPartitionedCall/shufflenet/sequential/conv2d/Conv2D_bn_offset", "shape": [24], "dtype": "float32"}, {"name": "StatefulPartitionedCall/shufflenet/shufflenet_block/basic_unit_with_downsampling/sequential_1/conv2d_1/Conv2D_weights", "shape": [1, 1, 24, 48], "dtype": "float32"}, {"name": "StatefulPartitionedCall/shufflenet/shufflenet_block_2/basic_unit_with_downsampling_2/sequential_16/separable_conv2d_15/separable_conv2d_weights", "shape": [1, 1, 192, 192], "dtype": "float32"}, {"name": "StatefulPartitionedCall/shufflenet/shufflenet_block/basic_unit_with_downsampling/sequential_1/conv2d_1/Conv2D_bn_offset", "shape": [48], "dtype": "float32"}, {"name": "StatefulPartitionedCall/shufflenet/shufflenet_block/basic_unit_with_downsampling/sequential_2/separable_conv2d_1/separable_conv2d_weights", "shape": [1, 1, 24, 48], "dtype": "float32"}, {"name": "StatefulPartitionedCall/shufflenet/shufflenet_block_2/basic_unit_with_downsampling_2/sequential_16/separable_conv2d_15/separable_conv2d_bn_offset", "shape": [192], "dtype": "float32"}, {"name": "StatefulPartitionedCall/shufflenet/shufflenet_block/basic_unit_with_downsampling/sequential_2/separable_conv2d_1/separable_conv2d_bn_offset", "shape": [48], "dtype": "float32"}, {"name": "StatefulPartitionedCall/shufflenet/shufflenet_block_2/basic_unit_12/sequential_19/separable_conv2d_18/separable_conv2d_weights", "shape": [1, 1, 192, 192], "dtype": "float32"}, {"name": "StatefulPartitionedCall/shufflenet/shufflenet_block/basic_unit_with_downsampling/sequential_1/separable_conv2d/separable_conv2d_weights", "shape": [1, 1, 48, 48], "dtype": "float32"}, {"name": "StatefulPartitionedCall/shufflenet/shufflenet_block/basic_unit_with_downsampling/sequential_1/separable_conv2d/separable_conv2d_bn_offset", "shape": [48], "dtype": "float32"}, {"name": "StatefulPartitionedCall/shufflenet/shufflenet_block/basic_unit/sequential_3/conv2d_2/Conv2D_weights", "shape": [1, 1, 48, 48], "dtype": "float32"}, {"name": "StatefulPartitionedCall/shufflenet/shufflenet_block/basic_unit/sequential_3/conv2d_2/Conv2D_bn_offset", "shape": [48], "dtype": "float32"}, {"name": "StatefulPartitionedCall/shufflenet/shufflenet_block_2/basic_unit_with_downsampling_2/sequential_15/separable_conv2d_14/separable_conv2d_weights", "shape": [1, 1, 192, 192], "dtype": "float32"}, {"name": "StatefulPartitionedCall/shufflenet/shufflenet_block/basic_unit/sequential_3/separable_conv2d_2/separable_conv2d_weights", "shape": [1, 1, 48, 48], "dtype": "float32"}, {"name": "StatefulPartitionedCall/shufflenet/shufflenet_block/basic_unit/sequential_3/separable_conv2d_2/separable_conv2d_bn_offset", "shape": [48], "dtype": "float32"}, {"name": "StatefulPartitionedCall/shufflenet/shufflenet_block_2/basic_unit_with_downsampling_2/sequential_15/separable_conv2d_14/separable_conv2d_bn_offset", "shape": [192], "dtype": "float32"}, {"name": "StatefulPartitionedCall/shufflenet/shufflenet_block/basic_unit_1/sequential_4/conv2d_3/Conv2D_weights", "shape": [1, 1, 48, 48], "dtype": "float32"}, {"name": "StatefulPartitionedCall/shufflenet/shufflenet_block_2/basic_unit_12/sequential_19/separable_conv2d_18/separable_conv2d_bn_offset", "shape": [192], "dtype": "float32"}, {"name": "StatefulPartitionedCall/shufflenet/shufflenet_block/basic_unit_1/sequential_4/conv2d_3/Conv2D_bn_offset", "shape": [48], "dtype": "float32"}, {"name": "StatefulPartitionedCall/shufflenet/shufflenet_block/basic_unit_1/sequential_4/separable_conv2d_3/separable_conv2d_weights", "shape": [1, 1, 48, 48], "dtype": "float32"}, {"name": "StatefulPartitionedCall/shufflenet/shufflenet_block/basic_unit_1/sequential_4/separable_conv2d_3/separable_conv2d_bn_offset", "shape": [48], "dtype": "float32"}, {"name": "StatefulPartitionedCall/shufflenet/shufflenet_block/basic_unit_2/sequential_5/conv2d_4/Conv2D_weights", "shape": [1, 1, 48, 48], "dtype": "float32"}, {"name": "StatefulPartitionedCall/shufflenet/shufflenet_block/basic_unit_2/sequential_5/conv2d_4/Conv2D_bn_offset", "shape": [48], "dtype": "float32"}, {"name": "StatefulPartitionedCall/shufflenet/shufflenet_block/basic_unit_2/sequential_5/separable_conv2d_4/separable_conv2d_weights", "shape": [1, 1, 48, 48], "dtype": "float32"}, {"name": "StatefulPartitionedCall/shufflenet/shufflenet_block/basic_unit_2/sequential_5/separable_conv2d_4/separable_conv2d_bn_offset", "shape": [48], "dtype": "float32"}, {"name": "StatefulPartitionedCall/shufflenet/shufflenet_block_1/basic_unit_with_downsampling_1/sequential_6/conv2d_5/Conv2D_weights", "shape": [1, 1, 96, 96], "dtype": "float32"}, {"name": "StatefulPartitionedCall/shufflenet/shufflenet_block_2/basic_unit_10/sequential_17/conv2d_14/Conv2D_weights", "shape": [1, 1, 192, 192], "dtype": "float32"}, {"name": "StatefulPartitionedCall/shufflenet/shufflenet_block_1/basic_unit_with_downsampling_1/sequential_6/conv2d_5/Conv2D_bn_offset", "shape": [96], "dtype": "float32"}, {"name": "StatefulPartitionedCall/shufflenet/shufflenet_block_1/basic_unit_with_downsampling_1/sequential_7/separable_conv2d_6/separable_conv2d_weights", "shape": [1, 1, 96, 96], "dtype": "float32"}, {"name": "StatefulPartitionedCall/shufflenet/shufflenet_block_2/basic_unit_10/sequential_17/conv2d_14/Conv2D_bn_offset", "shape": [192], "dtype": "float32"}, {"name": "StatefulPartitionedCall/shufflenet/shufflenet_block_1/basic_unit_with_downsampling_1/sequential_7/separable_conv2d_6/separable_conv2d_bn_offset", "shape": [96], "dtype": "float32"}, {"name": "StatefulPartitionedCall/shufflenet/shufflenet_block_1/basic_unit_with_downsampling_1/sequential_6/separable_conv2d_5/separable_conv2d_weights", "shape": [1, 1, 96, 96], "dtype": "float32"}, {"name": "StatefulPartitionedCall/shufflenet/shufflenet_block_1/basic_unit_with_downsampling_1/sequential_6/separable_conv2d_5/separable_conv2d_bn_offset", "shape": [96], "dtype": "float32"}, {"name": "StatefulPartitionedCall/shufflenet/shufflenet_block_1/basic_unit_3/sequential_8/conv2d_6/Conv2D_weights", "shape": [1, 1, 96, 96], "dtype": "float32"}, {"name": "StatefulPartitionedCall/shufflenet/shufflenet_block_2/basic_unit_10/sequential_17/separable_conv2d_16/separable_conv2d_weights", "shape": [1, 1, 192, 192], "dtype": "float32"}, {"name": "StatefulPartitionedCall/shufflenet/shufflenet_block_1/basic_unit_3/sequential_8/conv2d_6/Conv2D_bn_offset", "shape": [96], "dtype": "float32"}, {"name": "StatefulPartitionedCall/shufflenet/shufflenet_block_1/basic_unit_3/sequential_8/separable_conv2d_7/separable_conv2d_weights", "shape": [1, 1, 96, 96], "dtype": "float32"}, {"name": "StatefulPartitionedCall/shufflenet/shufflenet_block_2/basic_unit_10/sequential_17/separable_conv2d_16/separable_conv2d_bn_offset", "shape": [192], "dtype": "float32"}, {"name": "StatefulPartitionedCall/shufflenet/shufflenet_block_1/basic_unit_3/sequential_8/separable_conv2d_7/separable_conv2d_bn_offset", "shape": [96], "dtype": "float32"}, {"name": "StatefulPartitionedCall/shufflenet/shufflenet_block_1/basic_unit_4/sequential_9/conv2d_7/Conv2D_weights", "shape": [1, 1, 96, 96], "dtype": "float32"}, {"name": "StatefulPartitionedCall/shufflenet/shufflenet_block_1/basic_unit_4/sequential_9/conv2d_7/Conv2D_bn_offset", "shape": [96], "dtype": "float32"}, {"name": "StatefulPartitionedCall/shufflenet/shufflenet_block_1/basic_unit_4/sequential_9/separable_conv2d_8/separable_conv2d_weights", "shape": [1, 1, 96, 96], "dtype": "float32"}, {"name": "StatefulPartitionedCall/shufflenet/shufflenet_block_1/basic_unit_4/sequential_9/separable_conv2d_8/separable_conv2d_bn_offset", "shape": [96], "dtype": "float32"}, {"name": "StatefulPartitionedCall/shufflenet/shufflenet_block_1/basic_unit_5/sequential_10/conv2d_8/Conv2D_weights", "shape": [1, 1, 96, 96], "dtype": "float32"}, {"name": "StatefulPartitionedCall/shufflenet/shufflenet_block_1/basic_unit_5/sequential_10/conv2d_8/Conv2D_bn_offset", "shape": [96], "dtype": "float32"}, {"name": "StatefulPartitionedCall/shufflenet/shufflenet_block_1/basic_unit_5/sequential_10/separable_conv2d_9/separable_conv2d_weights", "shape": [1, 1, 96, 96], "dtype": "float32"}, {"name": "StatefulPartitionedCall/shufflenet/shufflenet_block_1/basic_unit_5/sequential_10/separable_conv2d_9/separable_conv2d_bn_offset", "shape": [96], "dtype": "float32"}, {"name": "StatefulPartitionedCall/shufflenet/shufflenet_block_2/basic_unit_11/sequential_18/conv2d_15/Conv2D_weights", "shape": [1, 1, 192, 192], "dtype": "float32"}, {"name": "StatefulPartitionedCall/shufflenet/shufflenet_block_1/basic_unit_6/sequential_11/conv2d_9/Conv2D_weights", "shape": [1, 1, 96, 96], "dtype": "float32"}, {"name": "StatefulPartitionedCall/shufflenet/shufflenet_block_1/basic_unit_6/sequential_11/conv2d_9/Conv2D_bn_offset", "shape": [96], "dtype": "float32"}, {"name": "StatefulPartitionedCall/shufflenet/shufflenet_block_2/basic_unit_11/sequential_18/conv2d_15/Conv2D_bn_offset", "shape": [192], "dtype": "float32"}, {"name": "StatefulPartitionedCall/shufflenet/shufflenet_block_1/basic_unit_6/sequential_11/separable_conv2d_10/separable_conv2d_weights", "shape": [1, 1, 96, 96], "dtype": "float32"}, {"name": "StatefulPartitionedCall/shufflenet/shufflenet_block_1/basic_unit_6/sequential_11/separable_conv2d_10/separable_conv2d_bn_offset", "shape": [96], "dtype": "float32"}, {"name": "StatefulPartitionedCall/shufflenet/shufflenet_block_1/basic_unit_7/sequential_12/conv2d_10/Conv2D_weights", "shape": [1, 1, 96, 96], "dtype": "float32"}, {"name": "StatefulPartitionedCall/shufflenet/shufflenet_block_1/basic_unit_7/sequential_12/conv2d_10/Conv2D_bn_offset", "shape": [96], "dtype": "float32"}, {"name": "StatefulPartitionedCall/shufflenet/shufflenet_block_2/basic_unit_11/sequential_18/separable_conv2d_17/separable_conv2d_weights", "shape": [1, 1, 192, 192], "dtype": "float32"}, {"name": "StatefulPartitionedCall/shufflenet/shufflenet_block_1/basic_unit_7/sequential_12/separable_conv2d_11/separable_conv2d_weights", "shape": [1, 1, 96, 96], "dtype": "float32"}, {"name": "StatefulPartitionedCall/shufflenet/shufflenet_block_1/basic_unit_7/sequential_12/separable_conv2d_11/separable_conv2d_bn_offset", "shape": [96], "dtype": "float32"}, {"name": "StatefulPartitionedCall/shufflenet/shufflenet_block_2/basic_unit_11/sequential_18/separable_conv2d_17/separable_conv2d_bn_offset", "shape": [192], "dtype": "float32"}, {"name": "StatefulPartitionedCall/shufflenet/shufflenet_block_1/basic_unit_8/sequential_13/conv2d_11/Conv2D_weights", "shape": [1, 1, 96, 96], "dtype": "float32"}, {"name": "StatefulPartitionedCall/shufflenet/shufflenet_block_1/basic_unit_8/sequential_13/conv2d_11/Conv2D_bn_offset", "shape": [96], "dtype": "float32"}, {"name": "StatefulPartitionedCall/shufflenet/shufflenet_block_1/basic_unit_8/sequential_13/separable_conv2d_12/separable_conv2d_weights", "shape": [1, 1, 96, 96], "dtype": "float32"}, {"name": "StatefulPartitionedCall/shufflenet/shufflenet_block_1/basic_unit_8/sequential_13/separable_conv2d_12/separable_conv2d_bn_offset", "shape": [96], "dtype": "float32"}, {"name": "StatefulPartitionedCall/shufflenet/shufflenet_block_1/basic_unit_9/sequential_14/conv2d_12/Conv2D_weights", "shape": [1, 1, 96, 96], "dtype": "float32"}, {"name": "StatefulPartitionedCall/shufflenet/shufflenet_block_1/basic_unit_9/sequential_14/conv2d_12/Conv2D_bn_offset", "shape": [96], "dtype": "float32"}, {"name": "StatefulPartitionedCall/shufflenet/shufflenet_block_2/basic_unit_12/sequential_19/conv2d_16/Conv2D_weights", "shape": [1, 1, 192, 192], "dtype": "float32"}, {"name": "StatefulPartitionedCall/shufflenet/shufflenet_block_1/basic_unit_9/sequential_14/separable_conv2d_13/separable_conv2d_weights", "shape": [1, 1, 96, 96], "dtype": "float32"}, {"name": "StatefulPartitionedCall/shufflenet/shufflenet_block_1/basic_unit_9/sequential_14/separable_conv2d_13/separable_conv2d_bn_offset", "shape": [96], "dtype": "float32"}, {"name": "StatefulPartitionedCall/shufflenet/shufflenet_block_2/basic_unit_12/sequential_19/conv2d_16/Conv2D_bn_offset", "shape": [192], "dtype": "float32"}, {"name": "StatefulPartitionedCall/shufflenet/shufflenet_block_2/basic_unit_with_downsampling_2/sequential_15/conv2d_13/Conv2D_weights", "shape": [1, 1, 192, 192], "dtype": "float32"}, {"name": "StatefulPartitionedCall/shufflenet/shufflenet_block_2/basic_unit_with_downsampling_2/sequential_15/conv2d_13/Conv2D_bn_offset", "shape": [192], "dtype": "float32"}]}]}